code/laser/training/trained_data/BAS/train_VAE_Latent11final.pt (torch, 185728 bytes, 18 tensors)

encoder_seq.0.linear.weight f4 [97, 126]
0.0 0.057085484 -0.06749414 -0.06258291 0.016368318 0.00515787 0.027808232 0.060641345
0.053409 0.01603431 -0.049670305 0.0 -0.089021854 -0.04861699 -0.021681221 -0.005298787
0.017228471 0.0026157014 0.044579353 -0.0016114273 -0.014763081 -0.026231324 0.0 0.047155716
-0.061402865 -0.04243266 0.069961734 -0.05256491 0.054691933 0.094778836 0.073236115 0.08462044
0.037570845 0.0 -0.021032467 -0.037728865 0.01838616 0.08014294 0.08362682 -0.012837473
-0.027806237 0.029848136 0.012243227 -0.04230553 0.0 0.033604972 0.025731724 -0.039671402
-0.08009832 -0.04541856 0.01565342 -0.020781599 0.039825764 0.025215067 0.07423121 0.0
0.06116284 -0.07091777 -0.01880626 0.006340454 -0.0114911925 0.045091476 0.027948538 -0.048694495
0.056416348 0.06632934 0.0 0.027227106 0.12852739 0.038115606 0.11377038 -0.016906783
0.07450519 -0.0045151515 0.10626183 -0.058995545 0.077050075 0.0 -0.041207843 0.0650107
0.08815285 -0.041999843 -0.006227169 -0.02023589 0.060746122 0.048401788 -0.026140667 0.03422214
0.0 -0.020865796 0.09450229 -0.060745742 0.064723626 0.08673372 -0.0058700894 0.01945143
0.085392974 -0.016193323 0.043056816 0.0 0.038746685 0.0114273885 0.07586349 -0.03914548
-0.016377218 -0.010075028 0.02522131 0.055204347 -0.039948016 -0.05170004 0.0 0.023673844
0.013510777 -0.021296239 -0.042681746 -0.04627899 -0.017576512 0.052930336 0.028634598 -0.004592657
0.01584003 0.0 0.10405652 -0.051405568 -0.033873376 -0.04622359 0.0 -0.10906257
-0.07875567 -0.019084956 -0.07537908 0.11661327 0.0088966135 0.022722369 -0.0019299233 -0.036843278
-0.04314157 0.0 0.00914525 0.2369546 0.06568294 0.055984408 0.062288158 0.08008662
-0.0857902 -0.013785908 0.019981962 -0.022681702 0.0 -0.121267736 0.06333488 -0.07041787
-0.14286251 0.057890303 0.101112664 -0.07578647 0.062190633 -0.06580426 0.007403167 0.0
-0.10907486 -0.07498209 -0.1483502 -0.02729308 0.01888662 -0.058101296 -0.21357316 -0.0022896158
-0.07060433 -0.11017164 0.0 -0.07401454 0.07460394 -0.12954119 0.020783499 0.20938823
-0.016957162 0.004354024 -0.01902336 -0.23752996 -0.17885983 0.0 0.0016108422 -0.20850754
-0.12790702 -0.022054493 0.0337957 -0.20045209 -0.04432204 0.06183987 0.004386307 0.2905604
0.0 0.07326385 -0.22662872 -0.029332245 0.015834188 -0.13196854 0.004260622 -0.04978309
-0.2827818 0.11053691 -0.08997722 0.0 0.016139181 0.0057236203 0.055890568 0.21042326
0.028165875 -0.24045807 0.0707984 -0.015487595 -0.022324849 -0.105085924 0.0 -0.05401349
0.1224068 -0.17200416 0.08554217 -0.20302807 -0.00019544375 0.15446363 0.18106008 0.042183373
-0.052999496 0.0 -0.026218195 0.10236647 -0.026414948 -0.0062603215 -0.22761561 0.06755844
0.019096611 -0.0013737282 -0.114834994 -0.043283913 0.0 0.050403506 0.106266715 0.15451887
0.072810754 0.14030933 -0.24219139 -0.07636503 -0.023816848 -0.079212435 -0.15049906 0.0
0.03664567 -0.13952255 -0.04973858 -0.25570747 0.0 0.04533524 0.008565222 -0.10012555
00000000: 0000 0000 78d2 693d 5e3a 8abd 782b 80bd
00000010: da16 863c 5903 a93b 17ce e33c 0f63 783d
00000020: 65c3 5a3d 635a 833c 1773 4bbd 0000 0000
00000030: 1751 b6bd 9c22 47bd d19c b1bc 72a1 adbb
00000040: b922 8d3c 306c 2b3b d798 363d 8736 d3ba
00000050: dae0 71bc 13e3 d6bc 0000 0000 5a26 413d
00000060: 9281 7bbd decd 2dbd 1948 8f3d 4e4e 57bd
00000070: a604 603d 681b c23d d1fc 953d 7b4d ad3d
00000080: e3e3 193d 0000 0000 484c acbc 9589 1abd
00000090: 929e 963c fb21 a43d 8a44 ab3d 4454 52bc
000000a0: e8c9 e3bc 1484 f43c d197 483c 9048 2dbd
000000b0: 0000 0000 5ea5 093d 56cb d23c 7b7e 22bd
000000c0: 970a a4bd d008 3abd 9a3b 803c 2c3e aabc
000000d0: 5720 233d d48f ce3c 8806 983d 0000 0000
000000e0: e385 7a3d 563d 91bd 960f 9abc 95c3 cf3b
000000f0: 8e45 3cbc d7b1 383d 55f4 e43c e173 47bd
00000100: d414 673d add7 873d 0000 0000 610b df3c
00000110: af9c 033e 1c1f 1c3d 7200 e93d 1880 8abc
00000120: 2d96 983d d6f3 93bb cd9f d93d 50a5 71bd
00000130: 6ecc 9d3d 0000 0000 8ec9 28bd 5424 853d
00000140: 7b89 b43d 0708 2cbd 480d ccbb bdc5 a5bc
00000150: edd0 783d f440 463d f424 d6bc 842c 0c3d
00000160: 0000 0000 bfee aabc 6b8a c13d 87d0 78bd
00000170: d28d 843d 73a1 b13d e159 c0bb 9b58 9f3c
00000180: 83e2 ae3d dca7 84bc 585c 303d 0000 0000
00000190: d8b4 1e3d f139 3b3c 515e 9b3d 0357 20bd
000001a0: 8429 86bc bb11 25bc ec9c ce3c f41d 623d
000001b0: 88a0 23bd 6cc3 53bd 0000 0000 a6ef c13c
000001c0: 4e5c 5d3c 7375 aebc 0ed3 2ebd 0a8f 3dbd
000001d0: 9efc 8fbc 7bcd 583d 1b93 ea3c 007e 96bb
000001e0: f3c2 813c 0000 0000 961b d53d a58e 52bd
000001f0: cfbe 0abd f254 3dbd 0000 0000 325c dfbd
00000200: a74a a1bd 0e58 9cbc 5960 9abd f0d2 ee3d
00000210: 1ac3 113c 4324 ba3c 7bf5 fcba fae8 16bd
00000220: 37b5 30bd 0000 0000 f5d5 153c 3aa4 723e
00000230: c784 863d e84f 653d de21 7f3d 7404 a43d
00000240: c6b2 afbd 4ade 61bc 36b1 a33c face b9bc
00000250: 0000 0000 385b f8bd b8b5 813d 3f37 90bd
00000260: 8d4a 12be 621e 6d3d 2814 cf3d f035 9bbd
00000270: 9bbb 7e3d 62c4 86bd 4496 f23b 0000 0000
00000280: a462 dfbd 3690 99bd 1de9 17be bd95 dfbc
00000290: 1db8 9a3c a0fb 6dbd ecb2 5abe 610d 16bb
000002a0: 0199 90bd aba1 e1bd 0000 0000 ef94 97bd
000002b0: f3c9 983d 72a6 04be 2842 aa3c de69 563e
000002c0: bfe9 8abc 33ac 8e3b e1d6 9bbc 0e3b 73be
000002d0: 0827 37be 0000 0000 e522 d33a 0083 55be
000002e0: 0ffa 02be a0ab b4bc 5c6d 0a3d 5043 4dbe
000002f0: 078b 35bd ce4b 7d3d 03bb 8f3b 55c4 943e
00000300: 0000 0000 5b0b 963d 5c11 68be 2d4a f0bc
00000310: b3b6 813c c322 07be b09c 8b3b 5ae9 4bbd
00000320: c7c8 90be 2d61 e23d fa45 b8bd 0000 0000
00000330: 5136 843c 358d bb3b 82ed 643d 3279 573e
00000340: 1fbc e63c a43a 76be c0fe 903d afbf 7dbc
00000350: 9ae2 b6bc 4a37 d7bd 0000 0000 403d 5dbd
00000360: 6bb0 fa3d dc21 30be bc30 af3d 97e6 4fbe
00000370: 08f0 4cb9 b72b 1e3e d067 393e 79c8 2c3d
00000380: 0016 59bd 0000 0000 8ac7 d6bc 83a5 d13d
00000390: 2964 d8bc 6223 cdbb 1114 69be 145c 8a3d
000003a0: 7f70 9c3c ab0e b4ba 9c2e ebbd 794a 31bd
000003b0: 0000 0000 e873 4e3d 5da2 d93d 323a 1e3e
000003c0: ce1d 953d 40ad 0f3e 0501 78be 4565 9cbd
000003d0: 8d1b c3bc 213a a2bd 6d1c 1abe 0000 0000
000003e0: c519 163d 00df 0ebe aeba 4bbd 17ec 82be
000003f0: 0000 0000 72b1 393d 2555 0c3c a00e cdbd

encoder_seq.0.linear.bias f4 [97]
-0.32292104 0.025647303 -0.11142598 0.112189814 -0.15636663 0.03485035 -0.39689422 0.29012036
-0.040377982 -0.23609826 0.01440274 -0.2709988 0.3032341 0.019638164 -0.08843375 0.18950388
-0.15669616 -0.18969359 0.0347565 0.3106283 -0.032543726 0.1460045 -0.11009881 -0.016222704
-0.4967958 -0.14422421 0.2654146 -0.40917596 0.39560655 0.18117282 -0.4360803 0.07240249
-0.48775235 -0.34147024 0.43334773 -0.38244897 -0.37455472 0.10674059 -0.11913748 0.21914908
0.20682867 0.31799424 -0.18266883 -0.22054835 0.28504148 0.49821293 0.259319 -0.06900232
0.06285146 -0.19491112 0.20283587 -0.45025766 0.19482493 0.18799669 -0.05177719 -0.010873452
-0.16057287 -0.21101688 0.2545596 0.38268077 0.2296402 0.16293818 -0.013501007 0.24120279
-0.49961263 0.29230204 0.101774074 -0.36484626 0.48335677 -0.22819482 0.13511094 0.25040528
0.22822063 0.60251915 -0.2494051 -0.12753424 -0.09675314 0.04927322 0.21687214 0.19090484
-0.4740827 -0.09893399 -0.06431263 0.09610173 -0.27853504 0.2506262 0.20042309 -0.06477794
-0.1670562 -0.17343323 0.24654938 0.022643954 -0.1449905 -0.55982095 -0.42990845 -0.2741862
0.09146029
00000000: e855 a5be 4b1a d23c 4e33 e4bd c6c3 e53d
00000010: 931e 20be 3ebf 0e3d b835 cbbe a88a 943e
00000020: 6263 25bd bec3 71be 78f9 6b3c 5bc0 8abe
00000030: 8041 9b3e 37e0 a03c c11c b5bd 4e0d 423e
00000040: f574 20be 093f 42be d55c 0e3d ac0a 9f3e
00000050: 924c 05bd 3482 153e 7c7b e1bd 7ae5 84bc
00000060: 055c febe 83af 13be 6ce4 873e 837f d1be
00000070: f18c ca3e 5e85 393e eb45 dfbe c247 943d
00000080: adba f9be 30d5 aebe c1df dd3e 5ad0 c3be
00000090: a3c5 bfbe cf9a da3d 5afe f3bd 9e68 603e
000000a0: e5ca 533e 24d0 a23e 8a0d 3bbe 6dd7 61be
000000b0: f5f0 913e c415 ff3e 76c5 843e 1751 8dbd
000000c0: 44b8 803d c896 47be 35b4 4f3e 2c88 e6be
000000d0: 3080 473e 3482 403e 5214 54bd 9026 32bc
000000e0: 376d 24be cf14 58be a355 823e bcee c33e
000000f0: cd26 6b3e 44d9 263e 5433 5dbc ddfd 763e
00000100: 3acd ffbe 9da8 953e ed6e d03d 21cd babe
00000110: 8a7a f73e e7ab 69be 865a 0a3e 1f35 803e
00000120: abb2 693e b23e 1a3f 0d64 7fbe 5698 02be
00000130: 8326 c6bd b7d2 493d bb13 5e3e 8f7c 433e
00000140: f8ba f2be e79d cabd 57b6 83bd fcd0 c43d
00000150: 259c 8ebe 1452 803e b63b 4d3e 4caa 84bd
00000160: c810 2bbe 7b98 31be 7177 7c3e d07f b93c
00000170: 6478 14be 6d50 0fbf f61c dcbe 2262 8cbe
00000180: 884f bb3d

encoder_seq.2.weight f4 [68, 97]
-0.051151145 0.0056620757 -0.027900517 0.0047431034 -0.038445666 -0.21318504 0.105474316 -0.37843192
-0.111106806 -0.0758017 -0.077948 -0.071215086 0.017634228 -0.09037499 0.12643218 -0.04336459
0.027403912 -0.0989814 0.121036984 -0.09925316 0.00060450844 -0.18993632 0.00409305 -0.07566995
-0.12724611 -0.032465104 0.34090826 -0.036609385 0.0023806905 -0.019826502 0.007364497 -0.11641228
-0.12182962 -0.0858601 -0.01904422 -0.112142034 0.19057223 -0.1128941 -0.07276438 0.4524229
0.034152552 -0.07786298 0.06271202 -0.056367237 0.20039313 0.085208654 -0.16939339 -0.3913994
0.12500444 0.111692 -0.115880854 0.20785058 -0.016636001 0.015036194 0.009360148 -0.1671974
0.0042068707 0.12031062 -0.2787574 -0.17132369 -0.00780667 -0.23141518 0.031919003 -0.04939948
-0.09801197 -0.16150963 0.03587469 0.0077817314 -0.036986034 -0.06550481 -0.11835237 0.2892767
0.1543525 -0.0017224638 0.085146725 -0.033721376 -0.30944404 -0.1466707 0.064516045 -0.19758901
0.08221807 -0.07458471 0.012537741 -0.13563477 -0.18458268 -0.16850847 0.078630894 -0.09675699
-0.09572809 -0.16084245 -0.0877779 -0.040927347 0.025820067 -0.1790409 0.046747256 0.074459106
-0.024757458 0.028569536 0.039281573 -0.085202985 -0.08912917 -0.083779424 -0.13513936 0.0040239017
0.127107 -0.113233045 -0.037048597 0.10647309 -0.18103565 0.10398053 -0.09948682 -0.13698253
-0.0071235187 0.08429397 0.012815028 0.052437454 0.16488655 0.07689792 -0.046271913 0.094020866
-0.06812071 0.043196496 -0.04282369 0.12225716 -0.23246484 -0.007520811 0.16985342 -0.02945236
0.02488703 -0.04861918 0.029368097 -0.0836451 -0.11695194 -0.04181951 -0.038735606 -0.05302089
-0.056560438 0.0150821805 -0.07967005 0.05657769 -0.071404725 0.090629525 0.05663458 -0.0054259705
0.07013549 -0.06854455 -0.015241516 -0.11604002 0.11973826 -0.0029646 0.0650386 0.040721636
-0.07914311 -0.02395848 -0.0053185453 0.21088505 0.060983025 0.014451554 0.066678084 0.078481965
0.14240246 0.03577827 0.08822183 0.022426821 0.0335848 -0.027552037 -0.16659825 0.02399094
-0.033025503 0.121878944 0.03638814 0.05260742 -0.0063278037 -0.016424749 0.1080756 0.092359036
-0.067344725 0.014692159 0.07250532 -0.08489887 -0.010599069 -0.048955176 0.16925114 0.08186809
0.088449806 -0.081965454 0.038219545 -0.10098441 0.024738261 -0.0322355 -0.08816515 -0.061333533
0.042558834 0.08025428 0.18243186 -0.18049166 -0.047700703 -0.25026736 -0.08794879 0.032596245
-0.0851798 -0.044247065 -0.10808585 -0.23937201 -0.09257895 0.16954945 0.19781135 0.024318373
-0.021421915 -0.013393742 -0.4744646 0.14934549 0.09896765 -0.24387704 -0.069473505 -0.19785336
0.07327565 -0.009591086 0.22429284 -0.08877205 0.02647347 0.13202576 -0.26681936 0.05707776
0.054729868 -0.06577391 -0.1213934 -0.1213846 -0.15552515 0.081015535 0.026154667 -0.0871178
0.11677268 0.09861628 -0.10418113 -0.0070247366 0.033077307 0.034416374 -0.036637813 -0.043205045
-0.10907635 0.18572108 0.11426871 0.12252977 -0.04904124 -0.16859722 0.003323162 -0.055509895
0.1933829 -0.08455618 0.059906572 -0.20911358 -0.21287559 0.19228107 0.22663686 0.06687978
00000000: dd83 51bd ef88 b93b a08f e4bc 096c 9b3b
00000010: 3479 1dbd 2e4d 5abe eb02 d83d d4c1 c1be
00000020: f78b e3bd ec3d 9bbd 33a3 9fbd 37d9 91bd
00000030: a875 903c 8616 b9bd 7077 013e 119f 31bd
00000040: 2b7e e03c c3b6 cabd 3de2 f73d 3e45 cbbd
00000050: e077 1e3a ab7e 42be fe1e 863b d9f8 9abd
00000060: ce4c 02be 21fa 04bd 878b ae3e b9f3 15bd
00000070: 5c05 1c3b 306b a2bc e151 f13b 9069 eebd
00000080: cf81 f9bd 6cd7 afbd a002 9cbc b9aa e5bd
00000090: 5e25 433e 0635 e7bd 7e05 95bd f9a3 e73e
000000a0: 8ce3 0b3d a076 9fbd 296f 803d 55e1 66bd
000000b0: db33 4d3e e081 ae3d 7675 2dbe 8165 c8be
000000c0: 2a01 003e c6be e43d f152 edbd c8d6 543e
000000d0: 3948 88bc 5e5a 763c 4e5b 193c cc35 2bbe
000000e0: cad9 893b 6a65 f63d 4ab9 8ebe 7a6f 2fbe
000000f0: 18cf ffbb 1af8 6cbe 80bd 023d 1c57 4abd
00000100: 80ba c8bd c862 25be 57f1 123d e5fd fe3b
00000110: ab7e 17bd 6327 86bd ba62 f2bd 131c 943e
00000120: 950e 1e3e 4bc4 e1ba 6861 ae3d 6d1f 0abd
00000130: 736f 9ebe d830 16be fd20 843d c654 4abe
00000140: f361 a83d debf 98bd 196b 4d3c d7e3 0abe
00000150: 3e03 3dbe 7c8d 2cbe 3c09 a13d 8728 c6bd
00000160: 170d c4bd e2b3 24be e6c4 b3bd 6fa3 27bd
00000170: 9b84 d33c 7f56 37be 0d7a 3f3d 047e 983d
00000180: 27d0 cabc a90a ea3c b7e5 203d e77e aebd
00000190: 5b89 b6bd 8c94 abbd f961 0abe efda 833b
000001a0: 5628 023e bae6 e7bd 45c0 17bd 900e da3d
000001b0: 6961 39be bef3 d43d bfbf cbbd 2645 0cbe
000001c0: 686c e9bb 51a2 ac3d 20f6 513c a8c8 563d
000001d0: 05d8 283e a87c 9d3d 9e87 3dbd 038e c03d
000001e0: df82 8bbd cfee 303d e567 2fbd f661 fa3d
000001f0: 430b 6ebe 2371 f6bb 0eee 2d3e 1346 f1bc
00000200: e2df cb3c e824 47bd 5d95 f03c 1f4e abbd
00000210: 8084 efbd ef4a 2bbd 3aa9 1ebd 6f2c 59bd
00000220: ebab 67bd 401b 773c 0d2a a3bd 02be 673d
00000230: a43c 92bd f99b b93d a9f9 673d 57cc b1bb
00000240: 32a3 8f3d 1661 8cbd 8db7 79bc 64a6 edbd
00000250: 5539 f53d bc49 42bb f532 853d bbcb 263d
00000260: c815 a2bd 9344 c4bc 3147 aebb 40f2 573e
00000270: 56c9 793d 36c6 6c3c 858e 883d 27bb a03d
00000280: f3d1 113e 3c8c 123d a6ad b43d 74b8 b73c
00000290: 3790 093d cfb4 e1bc bb98 2abe a688 c43c
000002a0: c045 07bd ab9b f93d bb0b 153d e17a 573d
000002b0: 7759 cfbb 328d 86bc bd56 dd3d bc26 bd3d
000002c0: 08ec 89bd 62b7 703c ab7d 943d 75df adbd
000002d0: b8a7 2dbc 3985 48bd 2c50 2d3e 75aa a73d
000002e0: 2c25 b53d 81dd a7bd 198c 1c3d ead0 cebd
000002f0: e5a7 ca3c 5f09 04bd ee8f b4bd df38 7bbd
00000300: 2c52 2e3d 5b5c a43d 6bcf 3a3e ced2 38be
00000310: d061 43bd 0b23 80be 7f1e b4bd a483 053d
00000320: bf72 aebd 693c 35bd 1d5c ddbd f01d 75be
00000330: 089a bdbd 5f9e 2d3e 0f8f 4a3e 5337 c73c
00000340: 037d afbc 6d71 5bbc 06ed f2be 06ee 183e
00000350: 8daf ca3d e7ba 79be 2048 8ebd 129a 4abe
00000360: 8b11 963d ee23 1dbc 06ad 653e 1fce b5bd
00000370: e4de d83c c331 073e 8c9c 88be 5fca 693d
00000380: 6d2c 603d 79b4 86bd 1a9d f8bd 7d98 f8bd
00000390: fc41 1fbe 79eb a53d 5042 d63c d16a b2bd
000003a0: 8426 ef3d 55f7 c93d eb5c d5bd c32f e6bb
000003b0: 127c 073d 2ff8 0c3d 8811 16bd c6f7 30bd
000003c0: 6c63 dfbd ab2d 3e3e b705 ea3d e3f0 fa3d
000003d0: 78df 48bd c0a4 2cbe 68c9 593b 585e 63bd
000003e0: 2b06 463e ca2b adbd 9860 753d df21 56be
000003f0: 0ffc 59be 54e5 443e 7e13 683e 44f8 883d

encoder_seq.2.bias f4 [68]
0.06672476 0.14428793 -0.13322638 -0.20368002 -0.024293764 -0.18154342 -0.101468936 -0.10883888
-0.1535882 0.14401907 -0.12002085 -0.061272193 0.24385928 -0.003945337 -0.15141739 -0.117554374
-0.17217565 0.2487975 0.18865594 -0.094199456 0.070161365 -0.028168747 -0.37046784 0.2054295
0.047478747 -0.112265155 -0.1833541 -0.09843592 -0.14766958 -0.08918479 -0.038139176 -0.02653593
0.1677186 -0.08177111 -0.10031763 -0.019597149 -0.103452176 -0.16789578 -0.041073535 -0.26353797
0.30260125 0.09112946 -0.027132526 -0.20556465 -0.2072097 0.098823875 -0.1288751 0.01283276
0.2008285 -0.14723682 -0.05707967 0.049865153 -0.2387554 0.020054545 -0.23261887 -0.049359478
-0.07920255 0.30573732 -0.051145572 0.01465536 -0.04593744 -0.22966385 -0.20546952 -0.138733
0.172557 -0.100365825 -0.08640225 0.00041930194
00000000: fea6 883d 37c0 133e 7f6c 08be 7f91 50be
00000010: b703 c7bc 85e6 39be f2ce cfbd ebe6 debd
00000020: 3a46 1dbe bc79 133e 7ecd f5bd 8df8 7abd
00000030: 3fb6 793e e347 81bb 290d 1bbe 59c0 f0bd
00000040: d04e 30be c6c4 7e3e 062f 413e a5eb c0bd
00000050: c3b0 8f3d 25c2 e6bc f6ad bdbe 1c5c 523e
00000060: 1379 423d 46eb e5bd 2dc1 3bbe c698 c9bd
00000070: b236 17be 84a6 b6bd d337 1cbd e161 d9bc
00000080: 6dbe 2b3e 9d77 a7bd 5473 cdbd 338a a0bc
00000090: bcde d3bd dfec 2bbe b93c 28bd 73ee 86be
000000a0: 8dee 9a3e 15a2 ba3d 0845 debc 8a7f 52be
000000b0: c82e 54be 2c64 ca3d d6f7 03be 7f40 523c
000000c0: fca5 4d3e 40c5 16be 5fcc 69bd 673f 4c3d
000000d0: 4c7c 74be 6e49 a43c a433 6ebe 2a2d 4abd
000000e0: f234 a2bd 9a89 9c3e 057e 51bd 091d 703c
000000f0: e628 3cbd 002d 6bbe 9a66 52be 0610 0ebe
00000100: c8b2 303e 998c cdbd aaf3 b0bd c1d5 db39

encoder_seq.4.weight f4 [39, 68]
-0.070657484 -0.21469906 0.3267587 0.024090922 0.19117883 0.2548393 -0.06180823 0.023945296
0.06446322 -0.09111428 0.18451849 0.062203046 -0.15349075 -0.3559162 -0.019095019 -0.04145266
0.0018818765 0.028470458 -0.24354818 -0.0058169994 -0.006376847 -0.106162146 0.26769793 -0.0708645
0.07059157 0.113539055 -0.063260704 0.43640563 0.0112013705 0.24026854 -0.18867952 0.13940082
0.04941114 0.18065782 0.17170648 -0.03658004 0.107570626 0.12005456 0.107250795 -0.057860445
0.18385312 -0.41258582 0.23199718 -0.0563899 0.0041605076 0.05243075 -0.024862804 0.0016340899
0.13660866 0.017313953 -0.014769354 -0.1653885 0.013218841 -0.0054858006 0.28271538 0.002365861
0.24143419 -0.07989402 -0.043891262 0.027530747 0.289091 0.10315671 -0.09734849 0.03953296
0.0650864 0.12882027 -0.0046350383 -0.09660685 -0.273086 0.010480405 0.07318564 -0.18471271
-0.00872583 -0.1398009 0.25600186 -0.45901835 0.019230178 0.06324218 0.21643938 -0.14346802
-0.039909877 -0.036848456 0.13707705 0.10276122 -0.043632325 0.052714724 0.14316164 -0.103692405
-0.032432698 0.10661871 0.122501396 0.05392079 -0.23315948 -0.09063594 0.11317516 -0.21618617
-0.07749853 -0.11360705 -0.15264706 0.024168415 -0.047261626 -0.025896661 0.25026354 -0.0113862455
0.09196879 -0.15057448 -0.30652925 0.010933177 0.21276492 0.1661985 0.111919165 -0.01672094
0.2726594 -0.004154949 -0.10250704 -0.06448463 -0.1975707 -0.121563286 0.048228733 0.27520078
-0.21500035 -0.036139384 -0.26733467 -0.12122992 0.03210061 0.18168768 -0.03262876 -0.04112236
0.15477535 -0.24439946 -0.0049011637 0.011532535 -0.012997089 -0.021944998 -0.058559176 -0.17159274
-0.06444087 -0.13981356 0.22872144 -0.008861325 0.02118746 0.030999504 0.1113763 -0.055524874
0.0028556115 0.14182198 -0.14775726 -0.1575541 -0.1275261 -0.26408553 0.41067418 0.06257384
0.096212775 0.061029427 -0.12491988 -0.014843343 0.05976436 -0.069616556 -0.0060326653 0.08768069
-0.05451382 0.46324754 -0.000888052 0.0648838 -0.4076262 0.07597793 0.0767264 -0.23416255
-0.10834665 0.22109711 0.16849205 -0.03679921 0.09043412 -0.15123685 -0.008740066 0.07442773
0.14269753 0.19020166 0.06653696 0.047581717 -0.26940942 -0.06719019 0.15686287 0.24339658
-0.1348885 0.07906059 0.16731851 0.08778549 -0.07823161 -0.01930424 0.19296736 0.09368379
0.121345535 -0.017070442 0.052540366 0.13317743 0.12390158 0.16881314 0.29953572 -0.14491712
-0.12157113 0.20656474 0.13086967 0.055980816 0.11810277 -0.07858912 -0.108905256 -0.031448673
0.05954433 0.02802868 -0.10572781 0.064409316 -0.19481412 0.03988033 0.18079652 -0.06189379
-0.051381685 0.22415036 0.078067414 0.05961662 -0.12201944 0.10557978 0.04697275 0.1683679
-0.056558505 -0.08677751 -0.120984934 0.054131687 0.24652994 -0.15343075 -0.048751123 -0.19136986
-0.14595637 -0.13649075 0.22311243 0.06779207 -0.08452609 -0.100649185 0.28925738 0.074758574
0.078361884 0.042489544 0.25767583 0.12920135 -0.03485823 0.37065718 0.0061983825 -0.04775343
0.17627169 -0.29070374 0.22259673 0.00851992 -0.3613699 -0.030376134 -0.0069653783 0.009755272
00000000: dfb4 90bd 12da 5bbe eb4c a73e 535a c53c
00000010: 62c4 433e 4c7a 823e a02a 7dbd ed28 c43c
00000020: 4b05 843d 209a babd 6af2 3c3e 9fc8 7e3d
00000030: ae2c 1dbe a63a b6be 286d 9cbc 44ca 29bd
00000040: 4ca9 f63a e13a e93c b264 79be 879c bebb
00000050: dff4 d0bb 8a6b d9bd b40f 893e 6821 91bd
00000060: 5092 903d 2a87 e83d d48e 81bd 8f70 df3e
00000070: f485 373c f508 763e 3435 41be 17bf 0e3e
00000080: 5663 4a3d 5dfe 383e d3d3 2f3e f4d4 15bd
00000090: fd4d dc3d 2adf f53d 4ea6 db3d 13ff 6cbd
000000a0: fe43 3c3e 733e d3be ab90 6d3e 19f9 66bd
000000b0: de54 883b a0c1 563d 14ad cbbc f52e d63a
000000c0: 24e3 0b3e fed5 8d3c 29fb 71bc 9a5b 29be
000000d0: d693 583c 3bc2 b3bb 12c0 903e 900c 1b3b
000000e0: 863a 773e 7a9f a3bd 53c7 33bd 2988 e13c
000000f0: bc03 943e d343 d33d a55e c7bd 50ed 213d
00000100: 054c 853d 76e9 033e 85e1 97bb d0d9 c5bd
00000110: eed1 8bbe 01b6 2b3c 5ae2 953d 5425 3dbe
00000120: c9f6 0ebc f827 0fbe ad12 833e 7404 ebbe
00000130: 9b88 9d3c 1e85 813d 49a2 5d3e 48e9 12be
00000140: 8a78 23bd 68ee 16bd ed5d 0c3e 7974 d23d
00000150: cfb7 32bd 65eb 573d f798 123e af5c d4bd
00000160: 26d8 04bd e95a da3d 03e2 fa3d 0cdc 5c3d
00000170: 5cc1 6ebe 569f b9bd 61c8 e73d e85f 5dbe
00000180: 8db7 9ebd d0aa e8bd 834f 1cbe d7fc c53c
00000190: 6895 41bd 3c25 d4bc 8b22 803e 608d 3abc
000001a0: 225a bc3d 3230 1abe 67f1 9cbe 1121 333c
000001b0: 0cdf 593e f12f 2a3e e035 e53d 5afa 88bc
000001c0: 039a 8b3e 3d26 88bb 36ef d1bd 8510 84bd
000001d0: f94f 4abe 2cf6 f8bd 7e8b 453d 1ee7 8c3e
000001e0: 0d29 5cbe e406 14bd 17e0 88be 6447 f8bd
000001f0: ee7b 033d 560c 3a3e bca5 05bd eb6f 28bd
00000200: 6e7d 1e3e da43 7abe f199 a0bb f5f2 3c3c
00000210: bef1 54bc ffc5 b3bc bfdb 6fbd 02b6 2fbe
00000220: 93f9 83bd 492b 0fbe f435 6a3e 172f 11bc
00000230: 5391 ad3c acf2 fd3c 4219 e43d 0d6e 63bd
00000240: 3625 3b3b c839 113e ae4d 17be dd55 21be
00000250: 3496 02be 3836 87be e343 d23e b726 803d
00000260: 340b c53d fef9 793d fed5 ffbd 7e31 73bc
00000270: 79cb 743d 2093 8ebd aaad c5bb ef91 b33d
00000280: e249 5fbd c82e ed3e 29cc 68ba cce1 843d
00000290: 62b4 d0be 519a 9b3d bb22 9d3d 4fc8 6fbe
000002a0: d9e4 ddbd 4867 623e 2e89 2c3e c5ba 16bd
000002b0: 8635 b93d d5dd 1abe 7e32 0fbc 916d 983d
000002c0: 4d1f 123e 39c4 423e 8844 883d 0ce5 423d
000002d0: 08f0 89be 039b 89bd a9a0 203e f43c 793e
000002e0: 3620 0abe 85ea a13d 8b55 2b3e e1c8 b33d
000002f0: e537 a0bd ed23 9ebc 3c99 453e 49dd bf3d
00000300: 0284 f83d 50d7 8bbc 9134 573d aa5f 083e
00000310: 1dc0 fd3d 5add 2c3e bf5c 993e 2765 14be
00000320: 49fa f8bd b585 533e b302 063e 244c 653d
00000330: dddf f13d 55f3 a0bd b809 dfbd 53d0 00bd
00000340: c1e4 733d 679c e53c d287 d8bd 08e9 833d
00000350: 5a7d 47be 8f59 233d b922 393e 5884 7dbd
00000360: 9a75 52bd ac87 653e cfe1 9f3d 8f30 743d
00000370: 54e5 f9bd 363a d83d 8066 403d a368 2c3e
00000380: e4a9 67bd 68b8 b1bd f3c6 f7bd 30b9 5d3d
00000390: 5872 7c3e f31c 1dbe 42af 47bd 76f6 43be
000003a0: 9675 15be 3bc4 0bbe 9677 643e 92d6 8a3d
000003b0: 041c adbd 2921 cebd 8b19 943e 061b 993d
000003c0: 327c a03d 8409 2e3d 16ee 833e 5c4d 043e
000003d0: 81c7 0ebd c7c6 bd3e cd1b cb3b 1a99 43bd
000003e0: 9180 343e 1fd7 94be 66f0 633e 2297 0b3c
000003f0: 7a05 b9be 5fd7 f8bc d43d e4bb 94d4 1f3c

encoder_seq.4.bias f4 [39]
-0.09448815 -0.06570944 -0.16468757 -0.08825009 -0.020160409 -0.13604999 0.033657458 0.051982287
-0.1015898 0.12097947 0.24936324 0.024108857 0.14846738 -0.095111065 -0.023564318 0.059281837
-0.049182158 -0.029102564 -0.037825428 0.02759058 -0.14670013 -0.07189985 0.054924592 -0.052361436
-0.035598226 -0.17489596 -0.0540911 -0.1567358 0.105926014 -0.07210883 0.13732469 -0.12238271
-0.18138601 -0.04061825 -0.13080564 -0.05153893 0.11541532 -0.043717846 -0.08546922
00000000: 0183 c1bd ac92 86bd dca3 28be 77bc b4bd
00000010: 7127 a5bc b050 0bbe 67dc 093d 61eb 543d
00000020: 500e d0bd 16c4 f73d 1459 7f3e f07f c53c
00000030: d507 183e 97c9 c2bd f509 c1bc 83d1 723d
00000040: 3b73 49bd 8068 eebc d6ee 1abd a405 e23c
00000050: 8f38 16be 3b40 93bd 9cf8 603d f278 56bd
00000060: 72cf 11bd ed17 33be a18e 5dbd 597f 20be
00000070: bdef d83d cbad 93bd d89e 0c3e c9a3 fabd
00000080: 41bd 39be 525f 26bd eaf1 05be 7c1a 53bd
00000090: de5e ec3d 7c11 33bd 7d0a afbd

fc1.weight f4 [11, 39]
0.047359813 -0.09697935 -0.10884427 0.31551492 0.08604564 0.17233595 0.022870021 -0.034541022
-0.5836991 -0.06490647 -0.13235472 -0.27560234 0.10268478 -0.3831646 -0.034768492 -0.11989521
-0.032594945 0.4915031 0.084248886 0.37183493 0.057076827 0.4597367 0.14430419 -0.16181968
-0.33453146 -0.097806185 0.36196166 0.20109272 0.13734283 0.25536856 0.24505424 0.0989183
0.09646856 0.16226985 -0.07892625 -0.13244542 0.044434268 -0.02583521 -0.20752841 -0.11178724
-0.037180495 -0.11800307 -0.15738684 0.20905368 -0.36953625 0.22678582 0.011081887 -0.13687094
0.25490564 0.04681637 0.16951886 0.19409668 0.13458957 -0.21362245 -0.14882165 -0.021152442
-0.08182611 -0.0011979882 0.23699999 -0.106160864 -0.11634392 0.18262953 -0.16469586 -0.27998465
-0.16919808 0.19864358 -0.1097829 0.28513223 -0.09987393 -0.050181456 0.08044437 -0.029103557
-0.18519661 -0.07308236 0.05615789 0.12187826 0.08521742 0.071216315 0.2580145 0.17869402
-0.101250716 -0.18656288 0.089872465 0.065159276 -0.142538 0.086940326 0.1547132 -0.13678664
0.17737457 0.23310469 0.07576943 0.17455843 0.12697132 -0.0018804949 0.61546546 0.40325743
-0.23198459 -0.08475048 0.21500383 -0.29506427 0.36701256 -0.1882844 0.111453556 0.28935862
-0.30616152 0.24017857 0.100478075 -0.3447324 -0.12745476 -0.12742564 -0.070964426 -0.25066248
-0.14311162 0.17334142 -0.041353464 -0.06891642 0.09306143 0.003112387 0.4006582 0.07147505
0.1931784 0.10064983 0.21552244 -0.22481774 0.32807234 0.28450578 -0.20965408 0.19195363
-0.42286384 -0.105551936 0.17848548 -0.17532799 0.3134895 0.6010329 -0.385651 0.1642534
0.29816118 -0.041268125 -0.28617746 -0.07278519 -0.20854841 -0.21493131 0.034146123 -0.18812422
0.06144263 0.4000868 -0.3289644 0.13022558 0.16704006 -0.12233571 -0.10632134 0.074719094
-0.27510267 0.105429575 -0.067788206 -0.12874565 -0.116577424 0.57434285 0.064984895 0.453345
0.28113538 0.021329558 0.25787893 -0.33179557 -0.386499 0.26666528 0.03002434 0.23573405
0.34736687 -0.126358 0.061751492 -0.10373618 0.23251079 0.113487184 0.08093652 -0.11594997
0.16048022 -0.09741768 -0.1268264 0.22098073 0.16357364 0.10580093 0.1281715 -0.14678974
0.022327276 -0.05761758 0.33668342 -0.28161114 -0.5074733 -0.039423116 -0.26398996 -0.36308792
-0.13074298 0.23224202 -0.29731986 0.0035422 0.15451892 0.027348137 -0.008375486 0.32913777
-0.038838297 -0.18429956 -0.5009571 -0.52337325 0.20806515 -0.16981962 0.16512342 -0.13678025
0.06627914 0.081149705 0.14169326 -0.13153084 0.043896105 -0.050086927 -0.21153536 0.35045692
-0.12736487 -0.095935695 0.21430068 0.10901948 -0.0069669345 -0.006734562 0.23904207 0.24654369
-0.22166342 -0.02170286 0.21715845 -0.067220256 0.4241687 -0.57607716 0.0120367175 0.35354057
-0.21827073 0.28281176 0.21291721 -0.3602597 -0.107206695 0.073432095 0.15831171 0.07565834
-0.034910306 0.47697544 0.11644797 -0.2189312 -0.2384745 -0.13392588 -0.26417717 0.03405618
0.036491245 -0.20774452 -0.57306635 -0.11175839 0.09245337 -0.037085854 -0.19595139 0.3716096
00000000: 5dfc 413d 1c9d c6bd bfe9 debd 2c8b a13e
00000010: b238 b03d d678 303e e959 bb3c e37a 0dbd
00000020: 4e6d 15bf afed 84bd ff87 07be c01b 8dbe
00000030: 664c d23d 272e c4be 6869 0ebd 9f8b f5bd
00000040: 4782 05bd 4ba6 fb3e ae8a ac3d 2661 be3e
00000050: 64c9 693d 9c62 eb3e 7ac4 133e 0fb4 25be
00000060: b547 abbe 9c4e c8bd 0a53 b93e 40eb 4d3e
00000070: 99a3 0c3e abbf 823e 80ef 7a3e ad95 ca3d
00000080: 4f91 c53d 112a 263e 16a4 a1bd c69f 07be
00000090: b500 363d 5da4 d3bc 5482 54be b5f0 e4bd
000000a0: 934a 18bd 98ab f1bd 042a 21be 2b12 563e
000000b0: db33 bdbe 8b3a 683e ce90 353c e527 0cbe
000000c0: fe82 823e 86c2 3f3d 5a96 2d3e 48c1 463e
000000d0: d9d1 093e d8bf 5abe b464 18be e347 adbc
000000e0: 7394 a7bd d005 9dba 20b0 723e de6a d9bd
000000f0: b945 eebd 3c03 3b3e 08a6 28be 265a 8fbe
00000100: 4342 2dbe 3969 4b3e dbd5 e0bd dafc 913e
00000110: b48a ccbd 128b 4dbd 05c0 a43d 956a eebc
00000120: 2ea4 3dbe 34ac 95bd d105 663d 4f9b f93d
00000130: 7886 ae3d dcd9 913d 7a1a 843e 91fb 363e
00000140: 895c cfbd 570a 3fbe 0e0f b83d 3a72 853d
00000150: 7bf5 11be c50d b23d 236d 1e3e cc11 0cbe
00000160: aea1 353e ffb2 6e3e 012d 9b3d 72bf 323e
00000170: c504 023e f07a f6ba 258f 1d3f c277 ce3e
00000180: 5e8d 6dbe a991 adbd f729 5c3e aa12 97be
00000190: 12e9 bb3e a0cd 40be c341 e43d d026 943e
000001a0: 34c1 9cbe 5ff1 753e 73c7 cd3d c480 b0be
000001b0: 8083 02be de7b 02be cc55 91bd d556 80be
000001c0: da8b 12be 6a80 313e 4062 29bd 0d24 8dbd
000001d0: fe96 be3d 30f9 4b3b 1223 cd3e 8361 923d
000001e0: 8fd0 453e 8021 ce3d eab1 5c3e 9f36 66be
000001f0: 19f9 a73e beaa 913e 8faf 56be 7e8f 443e
00000200: 9c81 d8be 9d2b d8bd e6c4 363e 2e89 33be
00000210: b281 a03e 4bdd 193f 0c74 c5be 0b32 283e
00000220: 95a8 983e c408 29bd da85 92be 6710 95bd
00000230: b78d 55be f416 5cbe cedc 0b3d a3a3 40be
00000240: 44ab 7b3d 2dd8 cc3e 066e a8be db59 053e
00000250: 8d0c 2b3e 258b fabd 01bf d9bd 5306 993d
00000260: 42da 8cbe 76eb d73d 8bd4 8abd e6d5 03be
00000270: 25c0 eebd 2208 133f cd16 853d d61c e83e
00000280: faf0 8f3e 53bb ae3c b508 843e 1ce1 a9be
00000290: 32e3 c5be 5a88 883e 9bf5 f53c 4464 713e
000002a0: 12da b13e fe63 01be 22ef 7c3d a273 d4bd
000002b0: 4f17 6e3e f86b e83d 0cc2 a53d 2e77 edbd
000002c0: ed54 243e ec82 c7bd c8de 01be c648 623e
000002d0: d97f 273e 28ae d83d 643f 033e 0d50 16be
000002e0: b1e7 b63c 6900 6cbd c561 ac3e 562f 90be
000002f0: c5e9 01bf 227a 21bd b129 87be a9e6 b9be
00000300: 7de1 05be dad0 6d3e 4f3a 98be 4124 683b
00000310: 353a 1e3e 3309 e03c 5639 09bc bf84 a83e
00000320: e814 1fbd 06b9 3cbe b93e 00bf cafb 05bf
00000330: 080f 553e 32e5 2dbe 1d16 293e 1f10 0cbe
00000340: 5cbd 873d d131 a63d 0a18 113e 05b0 06be
00000350: 67cc 333d f327 4dbd ba9c 58be 176f b33e
00000360: f06b 02be ef79 c4bd a371 5b3e 9b45 df3d
00000370: e24a e4bb 9aad dcbb 72c7 743e f375 7c3e
00000380: bcfb 62be 32ca b1bc c95e 5e3e c6aa 89bd
00000390: a42c d93e cb79 13bf a735 453c 4503 b53e
000003a0: 5d82 5fbe b4cc 903e f806 5a3e f673 b8be
000003b0: 2f8f dbbd 9163 963d 771c 223e c2f2 9a3d
000003c0: 1cfe 0ebd 2036 f43e 467c ee3d 802f 60be
000003d0: a932 74be de23 09be 3b42 87be 7e7e 0b3d
000003e0: d877 153d fbba 54be 7ab4 12bf 95e1 e4bd
000003f0: 3158 bd3d 56e7 17bd 7ba7 48be 9d43 be3e

fc1.bias f4 [11]
-0.0006156839 0.082039535 -0.09827123 -0.018541267 -0.10686497 -0.013977794 0.086517364 -0.03990089
0.048352204 -0.087874055 -0.19079575
00000000: d965 21ba 5804 a83d 6d42 c9bd dbe3 97bc
00000010: 05dc dabd 1e03 65bc 0430 b13d 1e6f 23bd
00000020: f60c 463d 50f7 b3bd f65f 43be

fc2.weight f4 [11, 39]
1.0758646 0.8549868 1.1772338 0.76982033 0.68036586 0.36972672 -0.15238227 0.02597135
0.93225586 0.4888933 -1.1295701 0.012838507 -0.08462208 0.30222145 -0.3757198 -0.22579695
0.21839456 -0.38873112 0.9998978 0.60107327 0.9290474 0.37006235 0.29828733 0.5012337
-0.30866525 0.67906785 0.77060777 -0.03770174 0.71701574 0.120713584 0.42103136 0.28826457
0.34080857 -0.65870243 0.121348925 0.101909846 0.18287712 0.41517833 -0.56248456 1.2394623
0.9575221 1.4121959 0.82344425 0.56558216 0.7487507 0.34169003 0.21109083 0.85761166
0.5527741 -1.3343258 0.17674287 0.026932793 0.53644973 -0.39032182 -0.4218526 0.2244482
-0.49339435 1.0947628 0.46589443 1.07166 0.45709765 0.24202801 0.51985866 -0.33052948
0.44450057 0.9689969 -0.05324856 1.0910048 0.42962933 0.52847743 0.22208595 0.6023686
-0.6740494 -0.0012505194 -0.025373988 0.14343831 0.42145506 -0.4705487 1.1279889 0.9778617
1.0171853 0.96542245 0.6343536 0.029657083 0.081349984 0.275067 1.220827 0.11658321
-1.2714828 0.022817861 -0.12322313 0.48111033 -0.39270645 -0.26670095 0.35537454 -0.50637794
1.1360646 0.43254495 0.92011285 0.5264252 0.19185728 0.71970963 0.03591358 0.63142854
0.79725456 -0.1883576 0.83487445 0.31352565 0.52492106 0.22212936 0.54450786 -0.5867887
0.2970724 0.13734718 0.442633 0.4391297 -0.71147585 0.9780527 0.813519 0.99542606
0.8681211 0.7167491 0.1940584 0.07307503 0.1451061 0.87156045 0.25862503 -1.3139704
-0.09741297 -0.22368303 0.18266484 -0.3678087 -0.42525718 0.58083975 -0.3576586 0.9315154
0.39420447 0.95673794 0.702297 0.27708426 0.65041554 -0.06902832 0.5786809 0.7490709
-0.012606081 0.95266753 0.27302867 0.405969 0.36008823 0.66015214 -0.54867715 -0.09298928
-0.08873807 0.19910923 0.5190483 -0.71939 1.1872892 1.1548998 0.7599146 0.83939844
0.6083147 0.117399186 -0.18719481 -0.06610683 0.93253696 0.38333842 -1.1358907 -0.11862867
0.03283146 0.22350335 -0.27567035 -0.33906397 0.81380475 -0.48335466 0.8822569 0.30035886
0.9542279 0.62300867 0.13329253 0.7685629 -0.23964123 0.7380658 0.88920164 0.17385773
0.6380689 0.20255063 0.51106465 0.29287574 0.5778063 -0.57093865 0.028185412 0.15415817
0.24117361 0.4185822 -0.6702554 0.95940775 0.6456257 1.1360999 0.98894006 0.6830161
0.10392624 0.012817751 0.2048217 0.81164795 0.26216412 -1.2359297 0.08211697 0.08240981
0.37678915 -0.37830225 -0.23856913 0.5985827 -0.09417205 0.9811261 0.7038157 0.8771479
0.4110146 0.12891406 0.79155976 -0.15999272 0.6460111 0.8323932 -0.011703237 0.9372134
0.26544788 0.66927284 0.26173022 0.49170887 -0.48613328 -0.037880186 -0.21032107 0.28266427
0.372254 -0.7245521 1.084087 0.9868834 1.185581 1.1204801 0.5035345 0.12550631
-0.037713222 0.25488123 1.0807588 0.3524102 -1.0938611 0.06485754 -0.065805234 0.22792979
-0.39359564 -0.4626534 0.69009614 -0.11431053 1.0964173 0.38936922 1.0862129 0.5777837
00000000: eeb5 893f 6ae0 5a3f 99af 963f f212 453f
00000010: 752c 2e3f d24c bd3e 190a 1cbe dec1 d43c
00000020: 52a8 6e3f 3950 fa3e c195 90bf 9a58 523c
00000030: 574e adbd c5bc 9a3e 585e c0be 5137 67be
00000040: d3a2 5f3e c407 c7be 4df9 7f3f f0df 193f
00000050: 0dd6 6d3f d078 bd3e 1eb9 983e da50 003f
00000060: 5f09 9ebe 64d7 2d3f 8d46 453f 246d 1abd
00000070: 588e 373f af38 f73d 6c91 d73e 6a97 933e
00000080: 767e ae3e b9a0 28bf c985 f83d 1cb6 d03d
00000090: 2444 3b3e 4192 d43e fdfe 0fbf b3a6 9e3f
000000a0: 2b20 753f d6c2 b43f 3ecd 523f fec9 103f
000000b0: 20ae 3f3f fff1 ae3e 3228 583e 708c 5b3f
000000c0: 9a82 0d3f 30cb aabf 15fc 343e 29a2 dc3c
000000d0: c554 093f 43d8 c7be 10fd d7be c0d5 653e
000000e0: 2f9e fcbe 3021 8c3f b789 ee3e 282c 893f
000000f0: b408 ea3e 31d6 773e 7515 053f 293b a9be
00000100: 9495 e33e 2e10 783f 291b 5abd 0ca6 8b3f
00000110: 60f8 db3e 4c4a 073f 806a 633e d434 1a3f
00000120: 808e 2cbf 78e8 a3ba 1cdd cfbc 7ee1 123e
00000130: f5c8 d73e c2eb f0be f161 903f 2555 7a3f
00000140: 2133 823f ed25 773f ff64 223f 69f3 f23c
00000150: d29a a63d 95d5 8c3e 0f44 9c3f 2ec3 ee3d
00000160: f3bf a2bf 86ec ba3c 695c fcbd 1854 f63e
00000170: d210 c9be 078d 88be a7f3 b53e fca1 01bf
00000180: 916a 913f 8876 dd3e 848c 6b3f cdc3 063f
00000190: 3c76 443e e43e 383f 1e1a 133d 4da5 213f
000001a0: e018 4c3f d1e0 40be 55ba 553f 6f86 a03e
000001b0: 3a61 063f e175 633e de64 0b3f c937 16bf
000001c0: e019 983e bda4 0c3e cba0 e23e 9cd5 e03e
000001d0: 4823 36bf a961 7a3f c842 503f 3ed4 7e3f
000001e0: 2f3d 5e3f de7c 373f 3fb7 463e 5da8 953d
000001f0: b296 143e 961e 5f3f 806a 843e 2f30 a8bf
00000200: 7480 c7bd 2a0d 65be 7e0c 3b3e 6c51 bcbe
00000210: 4fbb d9be eab1 143f 071f b7be cb77 6e3f
00000220: 2bd5 c93e c7ec 743f bcc9 333f fddd 8d3e
00000230: a281 263f b85e 8dbd 6e24 143f 1cc3 3f3f
00000240: bc89 4ebc 05e2 733f 6aca 8b3e 2bdb cf3e
00000250: 7c5d b83e bbff 283f 1b76 0cbf 2a71 bebd
00000260: 4ebc b5bd 4ae3 4b3e 59e0 043f f129 38bf
00000270: 18f9 973f c2d3 933f c389 423f d1e2 563f
00000280: 83ba 1b3f fc6e f03d ffaf 3fbe 0563 87bd
00000290: beba 6e3f ef44 c43e de64 91bf 97f3 f2bd
000002a0: 487a 063d 10de 643e aa24 8dbe cb99 adbe
000002b0: 8255 503f 437a f7be 97db 613f a3c8 993e
000002c0: 4848 743f 7f7d 1f3f d67d 083e 8ac0 443f
000002d0: 8364 75be e1f1 3c3f b8a2 633f c307 323e
000002e0: 7c58 233f 6f69 4f3e 22d5 023f cff3 953e
000002f0: 1deb 133f 0929 12bf 18e5 e63c a4db 1d3e
00000300: 37f6 763e 6850 d63e dc95 2bbf bf9b 753f
00000310: ba47 253f b96b 913f 2d2b 7d3f 25da 2e3f
00000320: 48d7 d43d 8b01 523c c8bc 513e 29c8 4f3f
00000330: 603a 863e f232 9ebf f12c a83d 79c6 a83d
00000340: 82ea c03e d5b0 c1be 774b 74be b73c 193f
00000350: 47dd c0bd 152b 7b3f 442d 343f c48c 603f
00000360: 8170 d23e 0c02 043e a9a3 4a3f 22d5 23be
00000370: fc60 253f b917 553f efbe 3fbc 38ed 6f3f
00000380: c9e8 873e 7755 2b3f 8101 863e 44c1 fb3e
00000390: 76e6 f8be 4128 1bbd 685e 57be 5fb9 903e
000003a0: 1498 be3e 3f7c 39bf 5dc3 8a3f 64a4 7c3f
000003b0: 1ec1 973f e46b 8f3f a3e7 003f ba84 003e
000003c0: 2e79 1abd cb7f 823e 4e56 8a3f 1c6f b43e
000003d0: a403 8cbf 08d4 843d e5c4 86bd 6d66 693e
000003e0: 5e85 c9be e8e0 ecbe 24aa 303f a41b eabd
000003f0: 6757 8c3f 675b c73e 0609 8b3f a2e9 133f

fc2.bias f4 [11]
-1.7774222 -2.076529 -1.9868325 -1.9972234 -1.7230182 -2.0441015 -1.8951329 -1.9687183
-1.9607066 -2.1387813 -2.1172063
00000000: 9282 e3bf dae5 04c0 8750 febf 04a5 ffbf
00000010: dc8b dcbf 8fd2 02c0 b793 f2bf f6fe fbbf
00000020: 6ff8 fabf cbe1 08c0 4f80 07c0

decoder_seq.0.weight f4 [39, 11]
-0.19340259 0.3303624 -0.27206507 0.33338386 0.46247405 -0.060944386 0.045049246 -0.123305544
-0.20847636 0.4203703 -0.49319032 -0.14975968 -0.16817766 0.3116899 -0.19118191 0.43577108
-0.15089242 -0.11450567 -0.8285389 -0.50154734 -0.13066092 -0.3120816 0.5760265 -0.121221885
-0.22017865 0.25348142 0.66417104 -0.08084678 0.25932756 -0.15351157 -0.31749624 -0.013249637
0.81858724 0.010322638 -0.39250633 -0.36428633 -0.16313714 -0.1340023 -0.35247597 -0.3069986
-0.48366886 -0.24806267 -0.93622994 0.0055120597 0.003058565 -0.21436115 0.46179447 -0.118769065
0.47497508 -0.15271202 0.09132431 0.16190633 0.3377818 -0.14475435 -0.1443015 0.013319551
0.13533942 -0.560511 0.08379121 0.11997918 -0.04863806 0.12921879 0.18764733 0.24530174
0.39587173 -0.064354785 -0.19620566 -0.1713504 0.33820453 -0.3620541 -0.22451766 0.5473098
-0.8274268 -0.02728306 -0.23455982 0.20508324 -0.26155156 -0.17206407 -0.289416 0.007927673
0.15507911 0.1785351 -0.27100393 -0.21722546 0.124903865 0.0139104985 -0.1440486 -0.024068894
-0.18860699 0.31271604 0.17200485 0.004736862 -0.20200533 0.16874567 0.10847725 0.56719106
-0.30336213 -0.32638827 -0.008187647 -0.05959858 -0.19529714 -0.40837285 0.33517417 0.24142452
-0.4369801 -0.09549674 0.098993756 -0.2613666 0.018546877 0.12919058 0.15534522 0.29770833
-0.0058817137 0.043608833 -0.06529392 -0.2931088 0.48233864 0.08344646 -0.055699084 0.22376905
0.22577487 -0.4090033 -0.20259498 -0.48176274 -0.054777134 0.04569811 -0.24712022 0.036799468
-0.14504646 -0.21854727 0.7721077 0.17456597 -0.054636966 -0.18898255 -0.7415611 -0.11971653
0.25583535 -0.052434094 0.041770235 -0.48733908 -0.25698617 0.015799161 0.49083617 -0.048198402
-0.19932295 -0.36161673 -0.13416111 -0.48921594 -0.13690786 0.12296624 -0.09091067 0.15584435
0.32234553 0.026147077 -0.07852368 -0.26903403 0.13150597 0.4544268 0.3687196 0.35355228
0.5069048 0.4339875 -0.30709174 -0.28424796 -0.0066893334 0.20233518 0.12360489 -0.24307026
0.38137022 0.14235309 0.44727623 -0.38479778 -0.43678984 0.44388184 0.1655268 0.027880782
0.17429009 0.01334681 0.57905835 0.28590417 -0.091655895 -0.037988298 0.42768195 -0.18813354
-0.32291523 0.3922501 -0.1768182 -0.33527797 -0.42102453 0.07752115 -0.3940227 -0.07437213
-0.31862372 -0.34825322 -0.18684067 -0.4200505 -0.48280236 0.11540711 -0.020845786 -0.10338513
0.010819877 0.26445436 -0.41974816 -0.49248728 -0.7878355 0.14834456 -0.0033750955 0.3905897
-0.63209504 0.46564597 -0.27595612 -0.34168303 -0.38701397 -0.038430147 0.10129511 -0.25532228
-0.123250596 -0.14912409 0.022536147 -0.06612469 0.48859903 0.2303393 -0.4669524 -0.28576696
0.32147682 0.23796423 -0.057278097 0.8144366 -0.6107244 0.025112357 0.4225618 -0.29316118
0.12537485 0.20573474 -0.19307348 -0.012967685 -0.102433234 0.27143744 -0.10278574 -0.1395554
0.11039671 0.39566028 -0.017329386 0.2536742 -0.015840366 0.093404524 0.3226229 0.040229585
0.037795294 -0.16934845 0.27089626 -0.21421984 -0.4132403 0.06485546 0.27521187 0.0064485287
00000000: 540b 46be 4325 a93e 1d4c 8bbe 4ab1 aa3e
00000010: 66c9 ec3e d2a0 79bd 8f85 383d 9e87 fcbd
00000020: d47a 55be c73a d73e 7183 fcbe 9a5a 19be
00000030: c436 2cbe d295 9f3e 31c5 43be 631d df3e
00000040: 8b83 1abe f381 eabd 201b 54bf 6865 00bf
00000050: facb 05be 29c9 9fbe 7976 133f 2e43 f8bd
00000060: 8376 61be 51c8 813e 1d07 2a3f ff92 a5bd
00000070: 95c6 843e 2332 1dbe de8e a2be 0115 59bc
00000080: ef8e 513f 4820 293c 97f6 c8be bd83 babe
00000090: 6c0d 27be e637 09be bb77 b4be ec2e 9dbe
000000a0: 72a3 f7be 2404 7ebe c4ac 6fbf 829e b43b
000000b0: 3572 483b 7d81 5bbe 5370 ec3e 323d f3bd
000000c0: ef2f f33e 8a60 1cbe 3d08 bb3d c6ca 253e
000000d0: bcf1 ac3e 7c3a 14be c6c3 13be 3f3a 5a3c
000000e0: 6b96 0a3e a67d 0fbf ba9a ab3d a5b7 f53d
000000f0: b438 47bd ee51 043e 9f26 403e 6130 7b3e
00000100: b3af ca3e 71cc 83bd 23ea 48be 7b76 2fbe
00000110: 2529 ad3e 285f b9be f5e7 65be 7f1c 0c3f
00000120: 3ed2 53bf b980 dfbc 7330 70be 5701 523e
00000130: 16ea 85be 9031 30be 552e 94be 12e3 013c
00000140: 0fcd 1e3e e8d1 363e 07c1 8abe 5a70 5ebe
00000150: 99cd ff3d dce8 633c 7a81 13be 212c c5bc
00000160: 3122 41be 511c a03e 0a22 303e ae37 9b3b
00000170: 7cda 4ebe aacb 2c3e 5229 de3d 6f33 113f
00000180: 4852 9bbe 5d1c a7be 7b25 06bc a41d 74bd
00000190: f9fb 47be 3f16 d1be f39b ab3e fd37 773e
000001a0: dbbb dfbe cb93 c3bd 3dbd ca3d d8d1 85be
000001b0: 9fef 973c 894a 043e d112 1f3e 3a6d 983e
000001c0: 64bb c0bb 2d9f 323d d2b8 85bd 5b12 96be
000001d0: 17f5 f63e fae5 aa3d b924 64bd b723 653e
000001e0: 8731 673e e168 d1be 0f75 4fbe 9ba9 f6be
000001f0: fd5d 60bd f12d 3b3d 150d 7dbe 0abb 163d
00000200: 0f87 14be dbca 5fbe daa8 453f 6cc1 323e
00000210: 03cb 5fbd a484 41be f3d6 3dbf f12d f5bd
00000220: dafc 823e 22c5 56bd 4417 2b3d 8284 f9be
00000230: b193 83be 3e6d 813c e14e fb3e b06b 45bd
00000240: 511b 4cbe d425 b9be 8861 09be 837a fabe
00000250: 9331 0cbe b9d5 fb3d 602f babd a995 1f3e
00000260: 790a a53e 6532 d63c 06d1 a0bd d4be 89be
00000270: 80a9 063e a1aa e83e d1c8 bc3e ce04 b53e
00000280: 83c4 013f 9c33 de3e 213b 9dbe f388 91be
00000290: 3232 dbbb f430 4f3e 9024 fd3d 69e7 78be
000002a0: f542 c33e 02c5 113e 6401 e53e 3704 c5be
000002b0: eba2 dfbe 7b44 e33e dc7f 293e 3d66 e43c
000002c0: 1a79 323e 94ac 5a3c 2b3d 143f 0862 923e
000002d0: 16b6 bbbd 9e99 1bbd 21f9 da3e 14a6 40be
000002e0: 2555 a5be 01d5 c83e d50f 35be 8ea9 abbe
000002f0: 8790 d7be 69c3 9e3d 58bd c9be 6a50 98bd
00000300: a622 a3be 3f4e b2be 2953 3fbe dc10 d7be
00000310: df31 f7be 905a ec3d c8c4 aabc 95bb d3bd
00000320: da45 313c 9066 873e 3be9 d6be 4b27 fcbe
00000330: 96af 49bf a3e7 173e b530 5dbb 60fb c73e
00000340: fbd0 21bf 2669 ee3e 1f4a 8dbe 14f1 aebe
00000350: b226 c6be ee68 1dbd d073 cf3d 9ab9 82be
00000360: cf6a fcbd fcb3 18be ba9d b83c 626c 87bd
00000370: a729 fa3e 11de 6b3e 6314 efbe 0c50 92be
00000380: 9c98 a43e e5ac 733e 709c 6abd eb7e 503f
00000390: 6f58 1cbf 6eb8 cd3c 055a d83e 3919 96be
000003a0: 4462 003e 21ac 523e 0eb5 45be 6a76 54bc
000003b0: 84c8 d1bd d9f9 8a3e 5481 d2bd 9ce7 0ebe
000003c0: ac17 e23d fc93 ca3e 5bf6 8dbc 96e1 813e
000003d0: a8c3 81bc df4a bf3d d42e a53e c7c7 243d
000003e0: 3dcf 1a3d ae69 2dbe eab2 8a3e 725c 5bbe
000003f0: 3c94 d3be f0d2 843d 92e8 8c3e 2e4e d33b

decoder_seq.0.bias f4 [39]
-0.6565046 -0.19948599 0.36194834 -0.053044252 -0.14324902 0.120721065 0.06382533 -0.2407197
0.23502564 -0.131819 -0.18577054 -0.27781835 0.25680813 -0.061430708 0.48273745 0.06817425
0.04352935 0.6294839 -0.084158145 -0.019951867 -0.1412777 0.3736371 0.20377113 0.35529825
-0.5511658 -0.75413036 0.06688432 0.2580856 0.34324437 -0.3498896 -0.07042924 -0.246393
-0.47494325 -0.2785353 -0.34949982 0.5339089 0.06992203 0.14673564 -0.35880125
00000000: af10 28bf 0e46 4cbe 4b51 b93e ee44 59bd
00000010: dfaf 12be 9b3c f73d dbb6 823d 3a7f 76be
00000020: 90aa 703e 8ffb 06be a23a 3ebe 353e 8ebe
00000030: 5b7c 833e c49e 7bbd 5d29 f73e f19e 8b3d
00000040: d54b 323d db25 213f 1b5b acbd 1972 a3bc
00000050: 1aab 10be 5d4d bf3e 61a9 503e a7e9 b53e
00000060: 3419 0dbf b00e 41bf a5fa 883d cc23 843e
00000070: babd af3e bb24 b3be 353d 90bd 724e 7cbe
00000080: c32b f3be 2e9c 8ebe a4f1 b2be 41ae 083f
00000090: 4833 8f3d de41 163e ccb4 b7be

decoder_seq.2.weight f4 [68, 39]
-0.13066113 -0.43612966 -0.045247708 -0.081251845 -0.5690809 0.29043186 -0.21114135 -0.08895239
0.4046102 -0.040764205 -0.34332213 0.4930175 -0.06135763 0.059770603 0.08454608 -0.39488885
0.20704211 0.5276251 0.078631 0.120226 -0.38121256 0.12722607 -0.8169705 -0.40062532
0.058953907 0.14779094 -0.3130829 -0.117405765 0.7215522 -0.09125331 -0.36128676 -0.61254317
-0.6405714 0.072594956 -0.4607028 0.3579828 -0.3039679 0.08700036 0.634171 -0.09726161
0.24274796 0.17079207 0.20565917 0.6812556 -0.36952087 -0.010847122 0.3617823 0.25927857
0.28349787 -0.26566237 -0.17619412 0.13623355 -0.17771739 0.15514608 -0.31007802 -0.09493235
0.074538 -0.02489008 0.20613874 -0.3560909 0.22560844 -0.29840314 -0.22635439 0.004032484
-0.04954412 -0.16449387 0.64638674 -0.044655766 0.50346667 -0.68591374 -0.15086825 -0.27872
-0.0026698753 -0.0869893 -0.06685402 -0.10568392 -0.23269054 -0.19658455 0.034867987 0.412539
0.22942583 0.38674194 0.1195269 0.050060198 0.10125603 -0.2536247 0.20832084 -0.2784804
0.08500635 -0.1000167 0.3884949 -0.040620428 0.12395136 -0.07564725 0.028919436 0.17369837
-0.05961518 -0.081151776 0.009151864 0.4453295 0.25828004 0.18391131 0.10228234 -0.05186579
0.13726856 0.16942398 0.18552859 -0.06315717 0.10414357 -0.017003043 -0.085903935 -0.022999762
-0.21787415 0.13322404 -0.017513562 -0.06786798 0.22709337 0.24347222 0.11423504 -0.01577503
-0.008204394 0.16405027 -0.0024706463 -0.08079657 -0.11408201 -0.10313671 -0.05083685 -0.110558055
-0.09653673 -0.087194294 0.16624223 0.10277976 -0.21295619 0.31320208 -0.29921493 0.22531499
-0.11796042 0.035330236 -0.12095813 0.17406568 -0.13409755 0.104829215 0.11873001 -0.1668991
-0.45200512 0.035421256 0.2712745 0.6050035 -0.023937978 0.21460755 -0.067987934 0.39767763
-0.086245015 -0.072100446 -0.10513473 0.0842976 0.16630432 0.2131674 0.079139665 -0.022114992
0.30000058 0.25358412 -0.0036849733 0.28340942 -0.08832764 0.48324108 -0.077756956 -0.10059482
0.07693654 -0.36657187 0.17545958 0.28314427 -0.26277173 0.22011906 0.5464691 -0.2578699
0.3378879 -0.5282286 0.64802176 -0.13587455 0.061158147 -0.07243174 -0.04476389 -0.38715288
0.7050609 -0.24655132 0.07754097 -0.0002204564 0.114223 -0.035336163 -0.11744677 -0.27733505
0.2085452 0.22672625 -0.5801619 -0.038785916 0.07421841 0.32266912 0.03817049 0.08870008
-0.51509076 -0.20744103 0.54621524 -0.12362746 0.32561976 -0.09893327 -0.58224237 0.039067764
-0.13055322 0.25109845 0.54546946 0.03947087 -0.15110706 -0.09168182 -0.2971698 -0.03316355
-0.36049807 0.23144612 -0.28705597 0.39133835 0.27193788 -0.42295393 -0.1709636 0.30033678
0.3691577 0.18983643 -0.14597544 -0.27404404 -0.13410905 -0.11206021 -0.10154346 0.08449257
-0.24054381 0.47013116 0.050799675 0.27004135 0.40058565 -0.10421872 0.23369296 -0.0035149425
0.0030858654 0.18737707 -0.16644916 0.1714418 -0.067283995 0.09964329 -0.15280066 -0.19557422
-0.1200489 0.08540117 -0.18586463 -0.08689313 -0.14053531 0.14459033 0.26251158 -0.20093064
00000000: 08cc 05be 634c dfbe a955 39bd 5e67 a6bd
00000010: 49af 11bf 7cb3 943e 7035 58be ac2c b6bd
00000020: 1129 cf3e 5ef8 26bd ebc7 afbe ca6c fc3e
00000030: 2352 7bbd 05d2 743d 7f26 ad3d df2e cabe
00000040: d902 543e 7012 073f 4a09 a13d 0d39 f63d
00000050: 4b2e c3be 8d47 023e fb24 51bf c31e cdbe
00000060: a779 713d 8256 173e 674c a0be 6f72 f0bd
00000070: a5b7 383f 04e3 babd 94fa b8be a1cf 1cbf
00000080: 7dfc 23bf aaac 943d 3de1 ebbe 8649 b73e
00000090: aea1 9bbe 3f2d b23d 0859 223f 1831 c7bd
000000a0: ec92 783e 1ee4 2e3e 5198 523e c466 2e3f
000000b0: d731 bdbe 21b8 31bc 883b b93e 29c0 843e
000000c0: a226 913e e604 88be 3b6c 34be cf80 0b3e
000000d0: 8cfb 35be 9dde 1e3e 8cc2 9ebe e46b c2bd
000000e0: 61a7 983d 48e6 cbbc 0916 533e 8c51 b6be
000000f0: e605 673e 4cc8 98be 72c9 67be ed22 843b
00000100: c6ee 4abd 1571 28be 9a79 253f f7e8 36bd
00000110: 31e3 003f 0b98 2fbf 357d 1abe 63b4 8ebe
00000120: 13f9 2ebb 7227 b2bd c3ea 88bd d070 d8bd
00000130: 6e46 6ebe 764d 49be bcd1 0e3d 5038 d33e
00000140: 9bee 6a3e 0a03 c63e 85ca f43d ec0b 4d3d
00000150: 525f cf3d 19db 81be 0f52 553e fc94 8ebe
00000160: cf17 ae3d 8ed5 ccbd cee8 c63e 9b61 26bd
00000170: 36da fd3d f2ec 9abd 74e8 ec3c fcdd 313e
00000180: 0c2f 74bd e732 a6bd b3f1 153c 3a02 e43e
00000190: 483d 843e 3f53 3c3e 6779 d13d 3971 54bd
000001a0: 2190 0c3e 7b7d 2d3e 35fb 3d3e 8c58 81bd
000001b0: 3949 d53d f749 8bbc 67ee afbd ff69 bcbc
000001c0: 671a 5fbe e26b 083e 9a78 8fbc 5efe 8abd
000001d0: 2a8b 683e c850 793e 10f4 e93d a33a 81bc
000001e0: b96b 06bc cbfc 273e 91ea 21bb ac78 a5bd
000001f0: d4a3 e9bd 5739 d3bd 4d3a 50bd 436c e2bd
00000200: 0db5 c5bd ec92 b2bd 673b 2a3e 327e d23d
00000210: 3011 5abe 065c a03e b332 99be f9b8 663e
00000220: 3c95 f1bd 70b6 103d e5b8 f7bd 463e 323e
00000230: de50 09be b3b0 d63d b828 f33d 99e7 2abe
00000240: 376d e7be e115 113d 7ee4 8a3e 82e1 1a3f
00000250: 9419 c4bc 15c2 5b3e 423d 8bbd 679c cb3e
00000260: 3aa1 b0bd 66a9 93bd e150 d7bd 38a4 ac3d
00000270: ae4b 2a3e 8e48 5a3e fa13 a23d 802a b5bc
00000280: ad99 993e c7d5 813e 987f 71bb 0a1b 913e
00000290: 1fe5 b4bd 606b f73e 0a3f 9fbd a804 cebd
000002a0: e890 9d3d 4faf bbbe adab 333e 49f8 903e
000002b0: 048a 86be e466 613e 66e5 0b3f 8607 84be
000002c0: a5ff ac3e fd39 07bf c1e4 253f b322 0bbe
000002d0: f780 7a3d 1857 94bd 575a 37bd e738 c6be
000002e0: df7e 343f f377 7cbe cdcd 9e3d 502a 67b9
000002f0: c0ed e93d a7bc 10bd ef87 f0bd dcfe 8dbe
00000300: df8c 553e ed2a 683e 7e85 14bf fbdd 1ebd
00000310: d2ff 973d e334 a53e a958 1c3d 63a8 b53d
00000320: fddc 03bf 6c6b 54be c3d4 0b3f 6530 fdbd
00000330: a2b7 a63e 879d cabd d60d 15bf 8505 203d
00000340: beaf 05be fa8f 803e e3a3 0b3f 35ac 213d
00000350: cfbb 1abe aec3 bbbd a426 98be 81d6 07bd
00000360: 3493 b8be 3600 6d3e 00f9 92be 805d c83e
00000370: 713b 8b3e 6b8d d8be 1511 2fbe bec5 993e
00000380: 3d02 bd3e 7b64 423e 967a 15be 804f 8cbe
00000390: e253 09be d37f e5bd 04f6 cfbd 710a ad3d
000003a0: 1e51 76be 08b5 f03e 5213 503d dc42 8a3e
000003b0: 9019 cd3e a070 d5bd 354d 6f3e f35a 66bb
000003c0: 3b3c 4a3b c6df 3f3e a671 2abe 708e 2f3e
000003d0: 31cc 89bd c811 cc3d c777 1cbe 9c44 48be
000003e0: 33dc f5bd cfe6 ae3d 4c53 3ebe 06f5 b1bd
000003f0: 7de8 0fbe 7d0f 143e eb67 863e c3c0 4dbe
