code/laser/training/trained_data/DTI_PLATZHALTER/train_VAE_Latent11final.pt (torch, 185600 bytes, 18 tensors)

encoder_seq.0.weight f4 [97, 126]
00000000: 6f01 31bd 0793 553e 1b0f 913d 1d66 5e3d
00000010: 0fe3 11bc f680 c23c 308b bb3c 6cfd 6b3e
00000020: b52b 8ebd 60fc 82be 6aea 2cbc b17a 16bd
00000030: c9bf d4bd 82ef df3d 086c 803e d428 eebd
00000040: 0731 99bd b853 0c3e 2318 033e df7a 543e
00000050: 36f9 fbbd 0b5a debb bb52 ddbc 5ab6 593e
00000060: d245 b33d 89a7 a23e dd8c a73d b452 093c
00000070: dbc8 f53d e937 923e 4c65 3b3d 10b5 ba3d
00000080: c404 4c3d ddf8 e7bc 6f21 e63d 7c37 dbbd
00000090: 5ec5 1ebe d746 e93d d53e cc3d db06 e03b
000000a0: 233c 803d b559 5fbd 1e97 c9bd 36c4 943e
000000b0: 0c64 9bbd f4a1 f4bc 9ad0 8f3d 480b c43c
000000c0: 660f f73c 4797 70bd 4eef 873e 08ec fbba
000000d0: 7db5 0dbd a246 f5bc aa71 3f3e 2c6c fabc
000000e0: 6494 0b3e 0b4b 543d c12b 5f3e 3d83 943d
000000f0: acf9 f23d faf1 1a3e 1293 b33e 6e7c d33d
00000100: b13e 273e 86ec 603d 249d 3abd 6885 da3c
00000110: 6912 383e b82e 00be c243 3c3e 3764 b73e
00000120: e8ae f23d 762e 4d3e f626 803e 58bb ae3c
00000130: a0c6 a6bd bb1d 0dbd 6840 c33b 3f91 793e
00000140: 217b 2c3d f0d1 073e 3e39 9e3e 0e17 0f3e
00000150: 6836 3d3d 7495 703e b70c b53d 72e4 533d
00000160: cc44 e0bc a172 473e b897 e03d e644 893e
00000170: e893 8abd 5e26 073e cb0e 703e 90ba 3f3e
00000180: 9fa5 483e baf8 223e 464e ddbd 3992 6bbd
00000190: 8b7f 303e 3bab 9a3e 6a28 963e 6a13 033e
000001a0: 63f4 3ebe 27f2 a53d aafa 7c3e e1f4 8a3e
000001b0: 8ea0 01be 683c 253e c423 8dbd 3ac3 b73d
000001c0: dcaf a23e 5c5f d43c 8c4d 0e3e 3d46 0a3e
000001d0: f00c 213d e657 1dbe c8bf 273e b50b 9a3e
000001e0: 9e87 f73d cec1 2bbd 3a67 7d3e 471e bd3e
000001f0: faba 51bd 562d 083e dbab a1bd a4fd cd3c
00000200: d539 69be 6075 28be 52f7 23bd 9a2d 2ebd
00000210: 6046 95be 6163 d63c 3182 2e3e 0582 96bb
00000220: 3a9e 90bd c4d3 89bd 69da 97bc d30c 8e3e
00000230: ea8c 3e3e ca7f d83d 7dc2 c53e 1a2d 763b
00000240: 2687 37be 16cd 2cbe 04bf 6e3e 860d 78bd
00000250: 1f5a 96bd d309 cbbd a0fd 88be 0452 d5be
00000260: e81a 533e 071b 5d3e 1c8f 8e3d a4c3 6ebe
00000270: f823 e03e 3363 6bbe 9ffc c2bd 3878 0bbd
00000280: f8a4 4fbe 2a37 bfbd a0f5 8ebe 55dd 42be
00000290: ab4f e83d 499d d0bd 15e1 d2bd cae4 093e
000002a0: 279e 9fbe 238c 10be 2f3b da3c 6d6a 46be
000002b0: f9eb 3c3e 2e0d 993d a9bf 8bbe dddb f93c
000002c0: 45a6 b8bd 0361 6dbe 87da 503d 069a 8ebd
000002d0: abdf 70bd b688 7bbd 9d38 b43d d91b ce3d
000002e0: 26d8 c73c f15a 2cbd c6e0 b5bb d023 5abd
000002f0: 9e31 a23d 0041 013e 0e6f a23e c0a4 51bd
00000300: effd d7bd 370f e2bc 3688 a73d 7468 30bc
00000310: 3a6f 68be dfc3 b03d c95c e5bd 0910 f23c
00000320: 7e76 c13d 3a0c d2bc af36 9abc 5386 c4bd
00000330: d655 e5bd c025 043e 756a 7abc a7e1 243e
00000340: 4876 c53d 2878 583d 5ac2 3cbc d81b 003c
00000350: e0e9 86bd 4a6f bfbd 0b97 ffbc c2fd 39bd
00000360: fd01 3bbe 759c 2a3b 0c99 2a3e 0252 38be
00000370: 44a1 b23d b40a dabd 08cd e4bc b3da 6b3c
00000380: 8d41 bbbd 69f4 e43b 59b7 53bc 8657 c2bc
00000390: 7e38 9ebb 7c86 f4bc 6564 a33d d3fe bc3d
000003a0: eec0 ebbd d064 053e a170 0a3d c208 b13c
000003b0: ea1d 2f3c 2416 0bbe be1d 233d 0e68 4a3d
000003c0: b692 1ebc dae0 d73d 482d 4fbd 1fee 183e
000003d0: f1f0 e03d 0df4 3cbe 964d fe3d 5885 bfbd
000003e0: 7db2 f5bc 1937 863c 07e1 ca3c d0b2 61bc
000003f0: 253d b43d a310 63be 0c60 9ebe 3751 afbe
-0.043214258 0.20856868 0.07082959 0.0542966 -0.008904233 0.023743134 0.022893518 0.23045892
-0.0694193 -0.25583172 -0.010553936 -0.0367381 -0.103881426 0.10934354 0.2508242 -0.11628881
-0.07480054 0.13703811 0.12802176 0.20749997 -0.123033926 -0.0067856363 -0.027016988 0.21260968
0.087535515 0.31768444 0.081811644 0.008381534 0.12001201 0.2855828 0.0457509 0.09116566
0.049809232 -0.02831691 0.11236846 -0.10703942 -0.15504977 0.11390465 0.09972922 0.0068367547
0.0626147 -0.05452891 -0.098432764 0.29055947 -0.07587442 -0.029862382 0.070222095 0.02393116
0.03015871 -0.05873802 0.26549762 -0.0019220123 -0.03459691 -0.029940907 0.18695703 -0.030569158
0.13630825 0.05182938 0.21794035 0.07251594 0.118640274 0.15131369 0.35073143 0.103264675
0.16332509 0.054913066 -0.045560017 0.026674941 0.17975773 -0.12517822 0.18385223 0.35818645
0.11849767 0.20037255 0.25029725 0.021329567 -0.081433535 -0.03445218 0.0059586056 0.24371813
0.042109612 0.13263679 0.30903047 0.13973638 0.046194464 0.23494512 0.08840316 0.051731534
-0.027376555 0.19477321 0.10966438 0.26810378 -0.06766492 0.1319823 0.23443143 0.18723512
0.1959443 0.15915194 -0.10805945 -0.057512496 0.17236154 0.30208763 0.29327708 0.12800375
-0.18647914 0.081028275 0.24704996 0.27139953 -0.12658903 0.16136324 -0.068915874 0.089727834
0.31774795 0.025924377 0.1389677 0.13503356 0.03931898 -0.15365562 0.16381752 0.30087057
0.12086414 -0.041932873 0.24746409 0.36937162 -0.051203705 0.13298544 -0.07894107 0.02514536
-0.22775967 -0.16451025 -0.040030785 -0.042523958 -0.29155254 0.026170434 0.17041852 -0.0045931363
-0.07061429 -0.06729844 -0.018536763 0.2774416 0.18608442 0.10571249 0.38624945 0.0037563504
-0.17922649 -0.16875109 0.23315054 -0.060559772 -0.07341408 -0.09913983 -0.26756 -0.41664135
0.20615733 0.21592341 0.0696089 -0.23316818 0.43777442 -0.2298706 -0.0952084 -0.034050196
-0.20277774 -0.093366936 -0.27921772 -0.19029744 0.113433205 -0.1018625 -0.10296837 0.13466182
-0.31175348 -0.14115958 0.026639549 -0.19376536 0.18449391 0.07473217 -0.27294663 0.030500347
-0.090160884 -0.23181538 0.050989654 -0.069629714 -0.058807056 -0.061409675 0.087998606 0.10063905
0.02439506 -0.042078916 -0.0055504767 -0.05325681 0.0791962 0.12622452 0.31725353 -0.05118251
-0.10546481 -0.027595146 0.08180277 -0.010767091 -0.2269868 0.086311094 -0.11199338 0.029548662
0.09446429 -0.025640596 -0.018824903 -0.09595933 -0.111980125 0.12905025 -0.01528417 0.16101705
0.09641701 0.052848965 -0.011520946 0.0078191385 -0.06587577 -0.093473986 -0.031199953 -0.045408018
-0.18262477 0.0026033197 0.16659945 -0.18000033 0.08722165 -0.10646573 -0.027929798 0.014395404
-0.09143362 0.006987144 -0.012922131 -0.023723375 -0.0048285117 -0.029849283 0.07978133 0.09228291
-0.11511408 0.13026738 0.033798818 0.021610621 0.010688284 -0.13582665 0.039823286 0.04941564
-0.009678533 0.10540934 -0.050580293 0.14934586 0.10983456 -0.18452473 0.12417142 -0.09351605
-0.029992336 0.016383694 0.024765505 -0.013775542 0.08800725 -0.22174315 -0.30932653 -0.3424165

encoder_seq.0.bias f4 [97]
00000000: 5df4 013e 7217 683d fae8 74bd a12f 5b3e
00000010: 6d86 1dbe 5ad9 77bc 9a72 7d3e 06e9 963b
00000020: d4d6 f03d f883 a33d e99d 9a3b 9e9d 01bd
00000030: e24b 68be b171 c43d 5b90 a03d 2d3e b73e
00000040: c3e3 22be 900b a53d 15c2 6d3e 27a5 ea3d
00000050: 304b ed3d bd27 2cbe 052d 04be 8e9f 51bd
00000060: c920 71be bfad 13be 501e d3bd f497 23be
00000070: bc3c 173e cf75 8c3e ae67 a23b e136 6b3e
00000080: 5393 6ebe 751c 393d b450 51bd febf 82bd
00000090: 0f5b 393d c953 a6be 49be d1bb 9a29 b53d
000000a0: 7dfc 2a3d 31a8 2c3e 1373 1f3e 7842 26be
000000b0: e4b7 c9ba b39f 7a3c 7c5a 993d e768 933c
000000c0: bc40 99be 039a 95be 402c a23e daa2 7f3c
000000d0: 5a5e db3d 6224 b73d bc98 01bd 8154 133e
000000e0: 0ff0 1ebe 4894 8abe 7293 623d b09c 473d
000000f0: 77fa a13e 67b2 833c 9d44 473a 7ee7 76bd
00000100: 1f2d 74be a529 453c d304 4d3d cdd7 e33d
00000110: 32d4 97bd f18b d9bd d2ca d13b ef60 ea3d
00000120: e677 4dbe bdfe 89be dfc0 17be 3380 fcbd
00000130: f8c5 853c 0ea4 5dbd 79e2 873d 6053 4c3e
00000140: 37f1 7a3d d476 71bd 50e1 0bbe 7204 553e
00000150: 315e 09be 582a 013e 4c07 733c 1106 00be
00000160: a012 003e b5dd 22be 0825 893d b77b 10be
00000170: 11e0 fd3c 1d36 083c 2f3e 893d 2cb7 57bd
00000180: 8148 1abd
0.12690873 0.056662984 -0.059792496 0.21404888 -0.1538331 -0.015127504 0.24750748 0.0046054153
0.11759725 0.079841554 0.0047185314 -0.031644456 -0.22685197 0.095919974 0.078400336 0.35789624
-0.15907197 0.08058846 0.23218568 0.114572816 0.115866065 -0.16812034 -0.12907799 -0.051177554
-0.23547663 -0.14421748 -0.10308516 -0.15975934 0.14769262 0.2743363 0.0049562072 0.22970153
-0.23298387 0.045193154 -0.051102355 -0.06384276 0.045252856 -0.32485798 -0.0064008576 0.088458255
0.041744698 0.16861035 0.15571241 -0.16236293 -0.0015389887 0.015296864 0.07487962 0.017994357
-0.299322 -0.29219064 0.31674385 0.015602792 0.107113555 0.08942486 -0.0316398 0.14387704
-0.15521263 -0.27066255 0.055316396 0.048733413 0.31636402 0.01607628 0.0007601472 -0.060279362
-0.23845337 0.012033855 0.05005343 0.11125145 -0.0741352 -0.10622395 0.006402352 0.1144427
-0.20065269 -0.26952162 -0.14819668 -0.123291396 0.01632975 -0.054111533 0.06634993 0.1995368
0.061265197 -0.058951214 -0.13660169 0.20802477 -0.13414837 0.12613809 0.014833283 -0.12502314
0.12507105 -0.15904887 0.06696516 -0.14109693 0.030990632 0.008313683 0.06701314 -0.05266492
-0.0376668

encoder_seq.2.weight f4 [68, 97]
00000000: b7c8 c43c 4b6a e33c 8b01 ad3d 872a 3e3e
00000010: 1f4e 52be 6dbe c2bd ad93 2a3e 9f33 babd
00000020: e7b5 d23c bd68 37be 5ece d8bd 9cf0 ccbc
00000030: f931 fb3d 180a 0abe 4f92 cf3c 5d36 d9bb
00000040: 0c28 5abe 778b b13d 847e 833e eb4c f2bd
00000050: 2f39 94bd 2c25 d33d 6265 493c 98e4 903d
00000060: 351e 7bbd 23c0 773d d2f7 a13d b476 0a3d
00000070: ee3f 2a3e 9da2 39bd d711 2cbd 096e 82bd
00000080: d7dd 5f3d bef8 89bd cb6e 463d 9fa9 c1bd
00000090: a212 27be b972 6dbc 7f90 f53b 507e b93d
000000a0: 955d 373d a787 e93d b404 13bd 3b60 96bd
000000b0: ab2b bf3d 9188 24be 4e4c 273d 84d2 083e
000000c0: 1c2c 013e aad2 403e cb42 c33e 31bc 383d
000000d0: 7be6 9bbc 723b 9abc 09be 5dbe 0124 38be
000000e0: 35c0 31be 8789 323e a221 8c3d ad81 f3bd
000000f0: ab6c 643a 6143 303e be1e 0d3d 53dc a03d
00000100: b59b 893d 1d58 f83d 4a14 143e c686 79bc
00000110: 0f12 7cbd 30b2 b8bd a963 0abe 2c19 453e
00000120: 09a6 2e3d 1473 02bd 86a4 0e3b b9c4 66be
00000130: a1c3 c4bd 74ec ecbd 5627 233d 98e8 a2bd
00000140: fa5a ab3c 9c83 9fbd 5474 dbbd 16b7 04bd
00000150: 3c16 e6bd ded5 263d 9b8c 1bbc 5456 13be
00000160: 31c9 04bd 07f2 29bd 9a89 38be 0428 22be
00000170: 511f f1bc f479 80bd 7e72 963d 547f 89bd
00000180: c256 073d ab4e 953d 3ed9 563d 6a3b a6bc
00000190: 8cbe 13bd 0f01 c1bc 66fe 48bd d567 2a3c
000001a0: 21b0 d33d 028a 7d3d 40fd b0bd 6653 783c
000001b0: 9488 9bbd b298 8dbd 1859 cdbd 21be 13bd
000001c0: b76b c53a e8ec 1c3b b663 073c 40c5 60bd
000001d0: 7de3 be3d 2db0 f93d 223f cc3c 7c41 023e
000001e0: 4ff3 cabd 109b 663d 26e2 1b3e e783 edbc
000001f0: 21c4 393c 0217 653d 2b8b 793d 7743 93bc
00000200: 2671 dfbd e561 333d aa23 413d afe7 8c3c
00000210: f41d 64bb 3d3e 36be 3f82 c53b 2647 afbd
00000220: af98 b93d 0721 703d 0371 fdbd 7630 493e
00000230: b367 5b3b bb97 233e 8ed1 ce3d cbf0 c43c
00000240: 6e45 da3d c7ef 7ebc c2c2 dabd dad0 8b3d
00000250: 6d20 28bb 777f a0bd 29c6 34bd 7ebf 8f3c
00000260: 893b 5abd 98f8 9b3d 5a6f 6bbd bb62 8b3d
00000270: c10b 04bd 7b75 ca3d 13da c43c c93f 84bc
00000280: d765 0bbe 1f89 3ebd 957f 623d 75ff 3fbc
00000290: 0267 b6bd 160c 86bd 73a7 4cbc 7b9f 113d
000002a0: bc48 4c3c 90cd 6b3d 5622 8d3c ef41 393b
000002b0: 7692 9abd 7aa1 43bd 9b5a ac3d 1198 dc3c
000002c0: dade cfbd ab95 0ebe 7fe4 ea3c 2ef2 e0bd
000002d0: dd9d 03be fecc 06be c12f f83d 047d 56bd
000002e0: 7bff 4c3e 6f92 d6bd 2510 453c 9211 67be
000002f0: 2023 1c3d a555 813d 0c56 26bd 00a7 bcbc
00000300: 12d4 e83c ab8b 703d 185c 18bd 294f e6bd
00000310: f4f2 b1bd c432 eabc c5e0 c1bd 11b5 63be
00000320: ac84 dfbc b213 41bd fb33 363d 99e3 2abe
00000330: 32d3 3ebd 7976 d03d 59db aa3e 07cc bc3d
00000340: 73c5 993d 1a86 853e 1fea 86be 60e4 4d3e
00000350: ee30 c83d 2958 8abe 85e9 bdbb 4c92 2cbe
00000360: 6db3 75be 391a 58be 566f 853e 1844 93be
00000370: bdb1 1fbe de29 45bd 025a 1bbd 03c1 ef3d
00000380: 71e4 933d 06d2 683e 026c ab3b 5b94 0e3d
00000390: b83b 783d 4ccb 04be 8268 eb3d ab53 0b3e
000003a0: 1dec 65be 297f 143b 09cf 21be 0cf7 11be
000003b0: cce7 5f3e b53b 2abe d593 c8bc 13a5 903d
000003c0: c5ae f0bd 9884 99bd d14f e53d 4553 6c3e
000003d0: 648c b33d f9c7 99be b3fb 00be 94e1 a83c
000003e0: 6cf1 953e 47a9 ebba 666f 2dbe 1b15 e5bd
000003f0: 7f2c 3cbe 062a 4cbe b2ca 893d 44c7 49be
0.02402149 0.027760645 0.0844756 0.1857091 -0.20537613 -0.09508977 0.16657896 -0.09091877
0.025721503 -0.17911048 -0.105862364 -0.025017075 0.12265391 -0.13480413 0.02533832 -0.006628795
-0.21304339 0.08669179 0.2568246 -0.11831077 -0.072374694 0.10309824 0.012292238 0.07074851
-0.061308105 0.06048597 0.07908596 0.03380461 0.1662595 -0.045321096 -0.0420092 -0.06368644
0.054654922 -0.06736897 0.048445504 -0.09456181 -0.16315702 -0.014492684 0.007494032 0.09057295
0.04476698 0.11402827 -0.035893157 -0.07342573 0.09334501 -0.16067721 0.040844254 0.13361555
0.12614483 0.18830362 0.38136896 0.04510135 -0.0190308 -0.018827174 -0.21654524 -0.17982484
-0.17358477 0.17435275 0.068423524 -0.11889968 0.00087137026 0.17213203 0.034453146 0.078545235
0.06719152 0.12126181 0.14460865 -0.015229886 -0.06154066 -0.090183616 -0.1351458 0.19247884
0.042638812 -0.03184803 0.0021765544 -0.22535981 -0.09607626 -0.11568537 0.039832436 -0.0795452
0.020917404 -0.07788774 -0.10715547 -0.032401167 -0.112347096 0.040731303 -0.009493972 -0.143884
-0.032418434 -0.04149058 -0.18021241 -0.15835577 -0.029433878 -0.06273261 0.073460564 -0.06713739
0.033041723 0.07290395 0.052453272 -0.020292003 -0.03607039 -0.023560075 -0.04907074 0.010400732
0.10336328 0.061899193 -0.086420536 0.0151566025 -0.075944096 -0.0691389 -0.10026759 -0.036069993
0.0015062009 0.0023944918 0.008263519 -0.054875612 0.09320734 0.12191806 0.024932448 0.12720293
-0.09909689 0.056300223 0.15222988 -0.02899356 0.011338265 0.055930145 0.060923737 -0.017976506
-0.10910253 0.04379453 0.047153153 0.01720032 -0.0034807893 -0.1779718 0.0060274894 -0.08558492
0.09062325 0.058625247 -0.12375071 0.19647393 0.0033478558 0.1597585 0.10098563 0.0240406
0.10657774 -0.015560097 -0.10681678 0.06826945 -0.0025654093 -0.07836812 -0.044134293 0.017547365
-0.053279433 0.07615775 -0.05747924 0.06805941 -0.032237772 0.09885689 0.024029767 -0.016143696
-0.13613068 -0.046517488 0.055297453 -0.011718621 -0.08906366 -0.06545274 -0.012491095 0.035552483
0.012468513 0.057569087 0.017228287 0.002826806 -0.075474665 -0.047761418 0.08415719 0.02692798
-0.101499274 -0.13924281 0.028673409 -0.10983692 -0.12853189 -0.13164136 0.12118483 -0.052365318
0.20019333 -0.10477149 0.012027775 -0.22565296 0.038119435 0.063151635 -0.040609404 -0.02302885
0.028421436 0.058726948 -0.037197202 -0.11245567 -0.08688918 -0.02858866 -0.094666995 -0.2223704
-0.027284943 -0.047137924 0.044483166 -0.16688384 -0.04658813 0.10178847 0.33370474 0.09218603
0.075083636 0.26078874 -0.26350495 0.2010665 0.097749576 -0.27020386 -0.00579566 -0.16852683
-0.23994227 -0.21103753 0.26061505 -0.2876289 -0.15595146 -0.04813563 -0.037927635 0.11706736
0.07221306 0.22736368 0.0052313814 0.03480945 0.060603827 -0.12968177 0.11494543 0.13606136
-0.22453351 0.0022658801 -0.15801634 -0.14254397 0.21865767 -0.16624339 -0.024484554 0.070627354
-0.11752085 -0.074959934 0.111968644 0.2307864 0.08767012 -0.3003538 -0.12596016 0.020615377
0.29285753 -0.0017979526 -0.16937026 -0.11185666 -0.18376349 -0.19937906 0.06728114 -0.1970492

encoder_seq.2.bias f4 [68]
00000000: 3d51 753e 275e 3f3e f899 93bd 469a 8cbe
00000010: 90aa e4bd 1161 25be 6791 70bd 4c0f 41be
00000020: f00b 203d b137 7a3e 9532 6b3d 4f5d aa3d
00000030: 6f74 313e 6c7c 12bd a2d3 08be f38d e03d
00000040: b702 7ebd 1618 183e 37c1 6ebc 6bb2 23be
00000050: cf30 753d f82b 5abe 161f de3d ffe9 0cbd
00000060: e4dc 7d3d e307 c83d 1ebf 4abe 907c 873b
00000070: 280f d2bc 52c3 1cbe f1a5 133a 0176 4cbd
00000080: a9a5 8abd e0b5 15be 2a8d a0bd e444 cd3c
00000090: 8587 80bc bbd0 c7bd 8d72 333e 39d2 9d3c
000000a0: 343c 30bd e1c7 2d3e 48eb 53be 4286 da3d
000000b0: b9ea 6dbe 1bf0 23bd 8baf dc3d f8b6 bcbd
000000c0: 307d 743e 9b24 9cbd 0af4 a7bd 94c1 e5bd
000000d0: 1e3f 363e dd7b d9bd b9eb 58be 8128 62be
000000e0: 0741 a93d 8fbb a23d 63e8 8d3e c2dc 05be
000000f0: af1f cfbd 5fb9 16be 0ec2 94bd 4fff 10be
00000100: ad44 89bb 2c62 9bbc c989 75be dda5 67bd
0.23956771 0.1868826 -0.072071016 -0.2746145 -0.11165345 -0.16150309 -0.058732416 -0.18853492
0.039073884 0.24435307 0.057421286 0.083185785 0.17329572 -0.03576319 -0.13361982 0.10964575
-0.062014308 0.14852938 -0.014572433 -0.1598603 0.059861 -0.21305835 0.10845773 -0.034402844
0.061978236 0.09767129 -0.19799468 0.004134722 -0.025641993 -0.15308884 0.0005632332 -0.049917225
-0.067698784 -0.14620161 -0.07839425 0.025057264 -0.01568962 -0.09756609 0.17524166 0.019265281
-0.043026164 0.16970779 -0.20695221 0.10670139 -0.23234071 -0.040023904 0.1077567 -0.09214586
0.2387588 -0.076241694 -0.08200844 -0.11218563 0.17797515 -0.10619328 -0.21183671 -0.22085764
0.08264356 0.0794593 0.2771636 -0.13072494 -0.10113465 -0.14719151 -0.072635755 -0.14159892
-0.004189095 -0.01896771 -0.23978342 -0.056554664

encoder_seq.4.weight f4 [39, 68]
00000000: 46e6 3eb8 851a 813d d7cd 7dbd 87a3 a3bd
00000010: 447a 553d a278 98bd 786c 12bd 9968 acbd
00000020: 9330 ef3b f893 0d3e 36e0 0d3e bbac 0e3e
00000030: 512d a8bd 34fe 973d c1bb 993d 95d3 04bd
00000040: b2fc b8bd 2003 95be f735 29be a32c 93bd
00000050: 4c38 bb3c 35d6 23be 5324 3c3e 7901 58bd
00000060: 4384 4d3d 11e0 e13d 6b75 34be ec43 1c3e
00000070: 348e 8c3c 163e 463d d5bb 0dbe 957c 153e
00000080: 3f18 e8bd a60c 493e f7f3 893d 852f 5fbc
00000090: 0c08 413d 9486 90bd 48d8 e23b 6923 c13d
000000a0: 6652 a83c db3a 4f3e f352 603d b63e 3cbe
000000b0: ae6a aebd 00bf c23d b1e1 2a3e c3ed 23bd
000000c0: fd45 063e 0160 a43c 445c 8bbe b929 40be
000000d0: 3c0e 4fbd 979b dbbd 8f74 a2bc 4a27 4c3d
000000e0: d95d c0bd 2eaa 8ebd 1209 1fbe 1678 4ebd
000000f0: b7db ec3b e641 6bbd 04e7 1f3d 03c9 bdbc
00000100: 9fd0 22bd 56c5 bbbd 757e 0f3c b6d7 a23d
00000110: ab1d d63d 9d28 403e ad82 3ebd da72 05bb
00000120: 68e7 063e 8be6 cdba 3ea3 4c3e 35db 98be
00000130: 6570 933e 2c7e 8abe dad0 573e 9fda 013e
00000140: e45c 2a3e 1468 da3c 949a 82be ceac 913e
00000150: fc2c d53d 3948 41be 9cfd bf3e 63d9 43bd
00000160: 3051 a2bd 177d a1bd c88c 8c3e 308b 2fbe
00000170: eef3 fdbd d0e3 1dbc b308 eebc a373 0dbf
00000180: ce6f 4ebc 6285 f5be ed41 6e3d 3e2b abbe
00000190: 1e4f 01be c3be e93d 2bb2 c03e 02a7 f53d
000001a0: 861a 803e 4597 39be 89f6 85be 8908 363e
000001b0: 2091 563d 3fa4 8ebd e379 803b a362 b33e
000001c0: 87be 3fbe 5277 73be 855f e7be 4197 253e
000001d0: 8857 a83d e73a 02bc 44ef 203e 491c c83d
000001e0: f5fa 2fbd 1257 553e 1c84 e3be 576b 8cbd
000001f0: d7e4 8abe b6cb dfbd 0f1c 2abb 0888 40be
00000200: 38a1 41be 37ce 893e 1448 8abe 8d74 39be
00000210: bc93 823d 3457 21bf 0329 58be abcf a4bc
00000220: cede 29bc 2071 1ebe 8ddc c1bd dfd4 67bc
00000230: ef79 8abc 7645 303d a740 bebd dba6 5ebc
00000240: 56cc ae3e 9d36 95bd c71c 1fbe 9a10 b4bc
00000250: a8df 673e c64f 8a3d ade1 283d f1e2 b33d
00000260: b583 edbd 6722 fabd 7882 b3bd 4f4c 3e3e
00000270: 9605 d93d ee66 e1bd e973 9d3c 5232 343f
00000280: 87f7 0a3e 6b54 d2bd 16e3 0d3e b04f 6cbd
00000290: 0339 a83e fc7f dd3b 1ade 8f3e 1ef9 c93e
000002a0: c33e e63d 47ec 83bd 4b76 953e e66e 303d
000002b0: ea0f b63e 2d54 713e 9b2d c23e a2bb c63a
000002c0: aeda 283c 7736 1f3f 8d72 6d3e 4d75 413e
000002d0: d769 25be c5a5 16bd 7343 0cbe 3cd5 933f
000002e0: fd41 78be e8e9 efbd 075d 04bf 61d0 2c3f
000002f0: 54f2 563d 10ea fabd dbc3 813f daf5 723d
00000300: 81a5 1dbe 3c6a 00be 2f59 7cba adee 853f
00000310: 82c0 0b3e d0b6 c23e 373d 10bf 1b70 0ebf
00000320: 3111 e63d 1657 573e 77be 84bd 74f2 c03d
00000330: 5228 c03e 8484 42be 1054 1cbe 2e68 84bc
00000340: 4b59 8fbd e05f 12be 6845 423c 92a9 443e
00000350: 9ea4 033c 88bc da3d 3401 3abd 05c1 bd3d
00000360: 9738 1cbd 5423 1ebe 78a6 81bd 78b5 a33e
00000370: 81d5 24be 63ac 223d 21e4 35bb 5ffc 6b3d
00000380: 1600 0cbe 0c7b a3be deb8 983c baa1 8b3e
00000390: 4e5f 983e 70db 5f3b bc8c af3d 7082 503e
000003a0: e99f 20be c2b7 da3d 1223 b43d 0ce4 043e
000003b0: fa2f 14be 307a d83b 9eba 683c 8453 1fbe
000003c0: ef17 db3c dd03 0e3e 7d6e 5b3b 7640 913d
000003d0: 6bab 123e 1fed cd3d 6738 abbd 90a4 6cbd
000003e0: d662 d73d efd8 2cbd 51ff cd3d 2cb3 92bd
000003f0: 3a96 afbd bfe7 1fbe 3e2f fcbd 7ef3 623c
-4.551399e-05 0.06303886 -0.061963882 -0.07990175 0.052118555 -0.07444884 -0.035747975 -0.08418388
0.0072994917 0.13825977 0.13855061 0.13933079 -0.082117684 0.07421532 0.07506514 -0.032428343
-0.09032573 -0.29103947 -0.16524492 -0.07186248 0.022853993 -0.15999682 0.18373232 -0.05273578
0.050174963 0.110290654 -0.17622916 0.15260285 0.017157651 0.048399054 -0.13841183 0.14598306
-0.113327496 0.19633731 0.06735986 -0.013622169 0.047126815 -0.07056919 0.0069227554 0.09430582
0.020547103 0.20237295 0.054766607 -0.18383297 -0.08516441 0.095090866 0.16687657 -0.04002167
0.13112636 0.02006531 -0.2721883 -0.18765916 -0.050550684 -0.10723036 -0.01983097 0.049842156
-0.093929 -0.06966053 -0.15530804 -0.05040749 0.0072283405 -0.057435893 0.039038673 -0.023167139
-0.039749738 -0.09168498 0.008758177 0.079513 0.104548775 0.18765493 -0.04651134 -0.0020362646
0.13174212 -0.0015708966 0.19984147 -0.29854742 0.28796688 -0.27049387 0.21075764 0.12681054
0.16636997 0.026660956 -0.2550856 0.28452152 0.10408971 -0.18875207 0.37498176 -0.047814738
-0.079256415 -0.07885187 0.27451158 -0.1714294 -0.124000415 -0.009636834 -0.029056882 -0.5525457
-0.0125998985 -0.47953326 0.05816834 -0.3343143 -0.12627837 0.11413338 0.3763593 0.11994745
0.25020236 -0.18124111 -0.26164654 0.17776693 0.052384496 -0.06964921 0.00392078 0.3503619
-0.18725024 -0.23775986 -0.45190063 0.1617098 0.0821982 -0.007948614 0.15716273 0.0977102
-0.04296394 0.20833996 -0.4443673 -0.06856411 -0.27127716 -0.10927527 -0.0025956666 -0.18801892
-0.18909156 0.26915142 -0.27008116 -0.18110867 0.06375834 -0.63023686 -0.21109395 -0.020118555
-0.010368062 -0.15472841 -0.09465895 -0.0141498735 -0.016903846 0.043034993 -0.09289675 -0.013589586
0.3414027 -0.07285807 -0.15538321 -0.021980572 0.22643912 0.06753497 0.041230846 0.0878352
-0.11597387 -0.12213593 -0.08765119 0.18583797 0.105967686 -0.110059604 0.01922031 0.7038928
0.13570987 -0.10270008 0.13856158 -0.057693183 0.32855996 0.0067596417 0.28099138 0.39447874
0.112424396 -0.06441551 0.29191813 0.04307451 0.35559016 0.23567267 0.3792542 0.001516212
0.010306044 0.6219248 0.23188229 0.18892403 -0.16153656 -0.036779184 -0.13697605 1.1549449
-0.24243923 -0.11714536 -0.5170445 0.6750546 0.052477196 -0.12251675 1.0137895 0.059316494
-0.15395166 -0.12540525 -0.00096263265 1.0463463 0.13647655 0.380301 -0.56343406 -0.5563981
0.11233748 0.21029314 -0.06481641 0.09421244 0.37530762 -0.18995863 -0.15266442 -0.016162958
-0.06999453 -0.14294386 0.011857368 0.19205311 0.008034853 0.10680491 -0.045411304 0.09265331
-0.038139906 -0.15443164 -0.063305795 0.31974387 -0.1609707 0.039715182 -0.0027754384 0.057613727
-0.13671908 -0.31929815 0.018642839 0.27271825 0.29760212 0.0034157895 0.08571765 0.20362258
-0.15686001 0.1067958 0.08795752 0.12977618 -0.14471427 0.0066063628 0.014204649 -0.15559202
0.02674481 0.13868661 0.0033482604 0.07092373 0.14323203 0.10054993 -0.08360367 -0.057774127
0.10516898 -0.04219907 0.10058463 -0.071630806 -0.08573575 -0.15615748 -0.12313698 0.013851998

encoder_seq.4.bias f4 [39]
00000000: 31a9 533d 2805 9cbd 2e04 ebbd e179 04bd
00000010: 1deb 0bbe df8b 44be ace9 ef3c 0c01 e4bc
00000020: a927 06bd d4b1 ec3d 3108 ee3d fc15 8dbd
00000030: c239 cd3d dd8e d7bd 0614 df3d a8fe 5d3d
00000040: 8fa1 abbd 3725 533d c7e1 f8bd 375f 933a
00000050: 072e c9bd 1826 d8bc 0eac 773d a036 c43d
00000060: e6a5 8abc 3bf7 06bd a2da 92bd f2e2 19be
00000070: 9d41 f53d 01db 313d ea7b db3c f690 173d
00000080: 0f7e 18bd 75fe 64bd 5365 e3bd 1dbc dbbc
00000090: 588a d63d 5265 b3bd 10f4 403b
0.051675025 -0.07618171 -0.114754066 -0.032342795 -0.13663907 -0.19193982 0.029286228 -0.02783253
-0.032752667 0.115573555 0.11622656 -0.06888959 0.10020782 -0.10525296 0.10892491 0.054197937
-0.08380424 0.051549163 -0.121524386 0.0011243586 -0.09823232 -0.026385352 0.06046682 0.095807314
-0.01692481 -0.03295062 -0.07170607 -0.15027979 0.11975405 0.04342175 0.026792485 0.03700348
-0.037229594 -0.05590673 -0.111033104 -0.026823098 0.10475606 -0.0875956 0.0029442348

fc1.weight f4 [11, 39]
00000000: 2b4f 86bc bf05 5bbe b476 bebd fb27 203e
00000010: b3d6 4c3e 7f57 913e 1b34 933d 8290 1c3e
00000020: 59b2 5bbe 42da 273e 2662 a3bd 4576 dabd
00000030: 0ef2 693d 36b6 d9bd 4aaf f6bd 9bcd 8abe
00000040: 8d78 ca3d d136 423d 8f17 883d ae7e 773e
00000050: 2161 8c3d 8eda e23e 34f4 65bd 7dff 6f3e
00000060: c7f8 f0bd d87b 12be 8dc9 d23b 048d 123e
00000070: 0a99 983c 131a 02be 0915 313d 52df 3e3e
00000080: c56e d33d 8c57 a63d 7bee 84be d233 d7bc
00000090: d492 82bd efc9 633e c64a d23d 31c1 9ebd
000000a0: c0cd f83d 7c16 83bd 3b7e aebd 406b 6c3e
000000b0: 4a4d 26be a43d 9a3e bb92 19be 1c70 b6bc
000000c0: f704 3b3e 4d87 a6be 2748 3d3e 2b68 783e
000000d0: 8f1b dd3c 51b4 63be 5763 6fbe f796 f9bc
000000e0: 80e8 7ebe c5a1 073e 9bb6 4e3e 7444 e2bd
000000f0: 295e 45be a25d b13e d6d3 b3be a113 30be
00000100: c298 ecbc 8ce5 c53e 6b80 37bc 13f9 7c3e
00000110: 5d86 8dbd 33b0 8a3c 7d19 82bd 1738 05bd
00000120: a8d1 14be 0ca7 023e 019b 663d 4f24 6b3d
00000130: b3a0 b33d b151 ddbd efc8 873e 8d18 a63d
00000140: 4430 b3bd 6fe6 19be f6cd 32be 9183 953b
00000150: 9a2d 68be fc3e d4bd d718 e33d e126 e83d
00000160: fac9 ac3e 40df 3b3d 8787 783d 285f 0bbe
00000170: f86f 8c3e dfea 093e b3f2 253e af89 c93e
00000180: 45e3 85be 47b9 91be 82fb 973e a197 bebe
00000190: 0ec5 0b3e 87ef 10be 8810 773d 2fb1 833e
000001a0: a645 68be c0c9 083d fa3c 0ebe 8c85 0dbe
000001b0: 6d7e 60be 2b4c 49bb f40c 4bbd ca60 13be
000001c0: 2a14 66bc 2b11 083e 65e4 a4bd 6745 a0bd
000001d0: 2048 113e 3a84 68be 9866 2a3e 2868 1c3d
000001e0: a4d6 c5bd 983c b53c c8fb e3bc 6a8d 86bd
000001f0: f47b 5abc 4de9 cd3e edb2 24bc 07ed 203e
00000200: 12a6 57be 04a0 633d 59d5 8d3d 3dee 9abd
00000210: d712 b13e 6a00 843e fa76 5cbe 704c a33e
00000220: 91ee a03d 0481 4abe 9230 79be 29b8 54be
00000230: c59f dabc 6d9c 22bd 753c 1dbe 95b4 8bbe
00000240: 689e abbb f3c8 063e 1bbf 20be a726 8abe
00000250: 4f76 cd3d 148d 993d 9e07 1c3a 7c92 723d
00000260: 4869 23be e97d 293d 8bff 5abd d76d 78be
00000270: af1e 17bd 2b15 d13d ee13 44bd 87b2 d53e
00000280: 086a 2c3d ddb4 8ebd a104 943e c139 54bd
00000290: b0af 41be 0feb 5b3e 9bb0 4ebe ec93 66be
000002a0: 57ce 8b3e f02f 3dbe d5a2 30bc 9733 813c
000002b0: 1153 76bd a38b dc3d 4672 8abd b94c d7b9
000002c0: 6ee1 bd3d d719 ed3d cdca b3bd 4e96 123e
000002d0: 0332 233e f65d 883e 1db6 8b3d 8d26 efbd
000002e0: 70b0 cebd dd23 fe3d b507 fe3d 9a04 6fbd
000002f0: f7ac 27be a3bf 1a3e 55b7 0bbe 288b 6dbe
00000300: b947 473e 3bb2 1cbb 78dd ab3d b348 373b
00000310: dc8f d83d acab 82bd 4523 913e 0520 443e
00000320: 4e85 37bd 9ad2 f5bb c5f6 fdbd a57a 8cbe
00000330: 11cc 3f3d dff5 a1be 1127 943e 9357 c6be
00000340: 5b56 cdbd e20f cb3d 6ecd 0ebe 3b47 7dbe
00000350: 69e2 363e e9a9 30be 44c6 c5bd 0ab5 cc3d
00000360: c7cb 503e fdd4 903e f686 143e 033e 063e
00000370: a569 8a3d efc4 f93c 7e0b 563e 7fe5 903e
00000380: 747f ae3d 3419 b73e b927 95bd d247 82be
00000390: e23b 86bd d201 a4bd 0d92 0abc d9a6 293e
000003a0: 09b8 6bbe 21ad ca3d 83ca 8c3e 89c8 19be
000003b0: df3c cb3d ce0b 653e 71bb d53d 5783 0b3e
000003c0: 3deb 6cbe fa35 e33d c0d8 dfbc 4a02 a0bd
000003d0: d6a9 f8be 49be fdbd 3258 b8be 5bdc 853d
000003e0: f1fa 1f3e e7b8 7cbe ee7a 89bd 0fa4 de3d
000003f0: 3740 c23d 69d4 e23d bb2c eb3d 9478 db3e
-0.016395172 -0.2138891 -0.092999846 0.15640251 0.20003776 0.28387067 0.07187673 0.152895
-0.21454753 0.16391852 -0.07977705 -0.106670894 0.057115607 -0.10630457 -0.120451525 -0.2710999
0.098862745 0.04741556 0.066451184 0.24169418 0.06854463 0.4430737 -0.056141093 0.23437305
-0.117662005 -0.14305055 0.006432718 0.14311606 0.018627662 -0.12705259 0.04323295 0.18639877
0.10323862 0.08122167 -0.25963196 -0.026269827 -0.063756615 0.22245 0.10268168 -0.07751692
0.12148619 -0.06400773 -0.0852017 0.23087788 -0.16240421 0.30125153 -0.1499738 -0.022270255
0.18263613 -0.325251 0.18484555 0.24258487 0.02699068 -0.22236754 -0.23377739 -0.030467493
-0.24893379 0.13245304 0.20186846 -0.11048213 -0.192742 0.3464175 -0.35122555 -0.17194988
-0.028881434 0.38651693 -0.011200051 0.2470439 -0.069103934 0.016929721 -0.06352518 -0.032524195
-0.14533103 0.12759036 0.056300167 0.057407673 0.08770885 -0.10806597 0.26520488 0.081101514
-0.0874944 -0.1502931 -0.1746138 0.004562803 -0.22673646 -0.10363576 0.11088722 0.113355406
0.33747846 0.045867205 0.060676124 -0.13610518 0.27429175 0.13468502 0.16205864 0.39362857
-0.26149955 -0.28461668 0.29684073 -0.3722506 0.13649389 -0.14153872 0.0603185 0.25721118
-0.22682819 0.03339553 -0.13890448 -0.13820475 -0.21923228 -0.0030715566 -0.0495729 -0.14392391
-0.014042893 0.13287799 -0.08051375 -0.078257374 0.1418767 -0.2270669 0.16640699 0.03818527
-0.0966008 0.02212362 -0.02783002 -0.06569941 -0.013335217 0.40217057 -0.010052425 0.15715419
-0.21059445 0.055572525 0.069254585 -0.075649716 0.34584686 0.25781566 -0.21529761 0.31894255
0.07858003 -0.19775778 -0.24334934 -0.20773377 -0.026687512 -0.03969996 -0.15355094 -0.2728621
-0.0052373894 0.13162594 -0.15697901 -0.26982614 0.10032331 0.07497612 0.0005952063 0.05922173
-0.1595813 0.041379843 -0.05346636 -0.2426065 -0.036894497 0.102091156 -0.04787057 0.41737768
0.042093307 -0.06968091 0.28909782 -0.05181289 -0.18914676 0.21476386 -0.20184557 -0.22517365
0.27305862 -0.18475318 -0.01078101 0.01577167 -0.060137812 0.10768821 -0.06760077 -0.00041065158
0.09271513 0.11577194 -0.087789156 0.14315149 0.15937047 0.26634187 0.06821845 -0.11677275
-0.100922465 0.12409184 0.12403814 -0.058353998 -0.16374575 0.15112166 -0.13644154 -0.23197615
0.19460954 -0.0023909945 0.08391851 0.0027966916 0.10574314 -0.063804 0.2834722 0.1915284
-0.044804864 -0.0075019123 -0.12400583 -0.2743732 0.046825472 -0.31632897 0.28936055 -0.3873869
-0.100262366 0.09915139 -0.13945553 -0.24734204 0.17859806 -0.17252316 -0.09656957 0.09995468
0.20390235 0.28287497 0.14504609 0.13109593 0.06758431 0.030489413 0.20902821 0.28300092
0.085204035 0.35761416 -0.07282967 -0.2544542 -0.065543905 -0.0800816 -0.008457673 0.16567554
-0.23019423 0.09896303 0.27498254 -0.15017904 0.099237196 0.22367784 0.10436142 0.13624321
-0.23136611 0.110942796 -0.027325034 -0.078129366 -0.48567075 -0.1238981 -0.36004788 0.0653617
0.1562307 -0.2467991 -0.067129 0.108711354 0.09484904 0.1107567 0.11483141 0.4286543

fc1.bias f4 [11]
00000000: 3cc4 5cbd 6a4b da3c 38e0 04be 8b7a 82bd
00000010: 2187 2ebe 1c32 09bd 8320 de3d c172 c5bd
00000020: e42c 0d3e e0cf 48bc 2415 0cbe
-0.05389808 0.026647288 -0.12976158 -0.063710295 -0.17043735 -0.033495054 0.10846045 -0.09641028
0.13786656 -0.0122565925 -0.1367994

fc2.weight f4 [11, 39]
00000000: 2daf 11be c93a 7c3f bd41 653f 4df3 6dbf
00000010: 397a 923f 5e7f ee3e 11c6 b3bd 6fa1 03bf
00000020: dce4 133d 5e96 173f b5bd 3bbd d275 ea3d
00000030: 8227 c6be b3d4 3ebe b91b 31be 9784 6f3f
00000040: 12b1 ee3e f0f6 10bf 228a 8dbe 8ec5 03bf
00000050: bf8a f43e dbc3 c63d 5d9e d7be 1654 f53e
00000060: 841c 833f 2965 dfbd 28d7 253e 8040 31bf
00000070: 9804 023f ccee 69bb 3f04 893e d9f1 d6be
00000080: 98bb 92be 2537 c9be 14b1 7c3e 8505 e5be
00000090: 694a 92bf 32d0 d9be 0e97 223f 6cbd 6e3e
000000a0: b39e dd3e fe36 5e3f 10d3 69bf 7d41 ad3f
000000b0: 9b90 b33e e133 0fbe 7afe 3cbe 3d7e 84be
000000c0: da76 093f fc00 e93d ec06 943e 90eb ddbe
000000d0: dd6d 18be 7c0a af3e a58b 773f 3b34 163f
000000e0: 8045 3abf ada0 bdbe 5601 03bf e0bc e33e
000000f0: 632b c93e 4b83 0bbf f2ca 203f 4eae 8b3f
00000100: a7ac 9bbe 5241 9e3e 090c 26bf a739 a23e
00000110: a11b 0abd 1741 963e b184 cfbd 594a ccbd
00000120: 6609 0dbf 4457 183e a492 fcbe fd7e 8dbf
00000130: c67a aabe e093 533f 5a01 833e 67c9 d03e
00000140: 18b8 3b3f 8c46 72bf 239d c33f 0059 2c3e
00000150: 19ff d9bd afdd 32bd c858 ff3b ded4 0c3f
00000160: 57ea d5bc fc28 973e dca6 b3be b6d5 3abe
00000170: 04fb 173f bd45 5e3f fc84 213f 1da0 05bf
00000180: 5d57 febe 7020 14bf 6400 8e3e 08a2 133f
00000190: d78c 1abf d40b 293f f94a ac3f 1afb 9dbe
000001a0: 2fb8 1e3e 13aa e8be f212 fd3e 9377 1cbe
000001b0: 57c0 923e d846 f6bd 9e74 29be a212 44be
000001c0: e8a4 ee3d 35bf 16bf e2d9 83bf e2c3 0ebf
000001d0: bf9f 3a3f b46a 823d 8258 e43e 07d2 4b3f
000001e0: b4fa 79bf ab0c a83f 16f0 bc3e f67b adbd
000001f0: 3957 e4bc de72 57be 1eeb dd3e ca97 c8bc
00000200: bbee 0c3e 3074 13bf e953 8ebe 64ee 693d
00000210: a3a5 893f 5e20 1b3f f16f 2ebf 20b5 e9be
00000220: 1c0b fcbe db30 bf3e 6c7c d33e 2a1d f9be
00000230: 1ecf 0f3f 07d3 a93f 3750 55be a2bd a13e
00000240: 37a6 d4be 6eeb c13e 5406 f43c 3a38 4b3e
00000250: ca41 18be ff94 a2be 22e4 d6be 1c16 75bd
00000260: 7b04 31bf 8974 96bf c2fa acbe 23c8 753f
00000270: 1aa6 e13d 2583 6b3e 7d12 1a3f 6681 99bf
00000280: 282d 993f 9ad7 433e 3834 7dbe fb47 5abe
00000290: 2e77 a5be b3a0 563f 8768 d93b 8b6f 7a3e
000002a0: 4146 1abf 88b9 cbbe cb05 4bbe b6fb 413f
000002b0: b66b e73e 9970 f6be dee4 c0be 807e 7bbe
000002c0: a78d 2b3e daa0 013f 60f1 91be aad9 5d3f
000002d0: 263e 8f3f a133 c1be a876 0e3e 28a9 9bbe
000002e0: aa43 a73d 403f 6abd 6806 48be 2371 d8be
000002f0: 0fb8 45be 2304 9cbe 4b98 06bc 2a84 14bf
00000300: 76cb 9bbf 7242 03be 05bd 793f cd3a 913e
00000310: 300a ab3e cad2 4f3f 67d3 76bf 31eb 853f
00000320: 890a aa3e f04d bcbc 8c8b 80be 234a 93be
00000330: b9be e93e aeeb 00be 4294 283e 3a7f 3ebf
00000340: ebcc a5be a07c 963e a464 673f 5bda 3f3f
00000350: bd57 eebe 119d b9be 6302 9fbe d04a 8e3e
00000360: 1d90 213f d63b f8be 5104 363f 5490 943f
00000370: 0d7e cfbd 0c08 b03e 3afc 86be ef65 d73e
00000380: 677f 3abe e03a 833e 0a7b 89bd 2c97 f1bd
00000390: b66e c2be b282 853d 9766 1dbf cf4d 95bf
000003a0: fc2d afbe 7f5f 283f e430 d63e e71c 0e3f
000003b0: b436 603f b006 71bf 9f53 a03f 820d ba3e
000003c0: 1501 65be 456f 9dbe 123b 4fbe 7d2d d93e
000003d0: 7550 6b3c 80c8 cf3e 8a4d 2bbf 2e34 47be
000003e0: d6ed 013e e91f 683f 2255 293f 54ef 28bf
000003f0: 29ce 9fbe 6867 c5be 47b3 023f 652e b53e
-0.1422698 0.985272 0.89553434 -0.9294937 1.1443549 0.46581548 -0.087780125 -0.51418203
0.03610693 0.5921382 -0.045835216 0.11448254 -0.38702017 -0.18635826 -0.17295732 0.9356169
0.4661947 -0.56626797 -0.2764445 -0.5147332 0.47762105 0.09705325 -0.4211301 0.47915715
1.0243077 -0.10907967 0.16195357 -0.69239044 0.5078826 -0.0035695313 0.26761052 -0.4198139
-0.28658748 -0.39299884 0.24676925 -0.44730774 -1.1428958 -0.42541653 0.6351174 0.23314446
0.4328514 0.8680266 -0.9133768 1.353561 0.35071263 -0.13984634 -0.1845645 -0.25877562
0.5369698 0.11377141 0.2891153 -0.43343782 -0.1488566 0.34187686 0.96697456 0.5867345
-0.727623 -0.37036648 -0.51173913 0.44480038 0.39290914 -0.5449721 0.6280967 1.0912569
-0.3040516 0.3090921 -0.64862114 0.3168461 -0.033717755 0.29346535 -0.10132731 -0.09975118
-0.55092466 0.14877039 -0.49330628 -1.1054379 -0.33296794 0.82647514 0.2558697 0.40778658
0.7332778 -0.94638896 1.5282329 0.16830826 -0.10644359 -0.043668445 0.007792566 0.5501231
-0.026112719 0.29523456 -0.3508824 -0.18245587 0.59367394 0.8682516 0.63093543 -0.5219744
-0.49676028 -0.57861996 0.27734673 0.57669115 -0.60371155 0.66033673 1.346038 -0.30855638
0.15499948 -0.45442256 0.49428517 -0.15279989 0.2866237 -0.12025231 -0.16548392 -0.19147733
0.11652547 -0.5888551 -1.0300868 -0.55767643 0.72900003 0.06368008 0.44598776 0.7961735
-0.9764817 1.3128866 0.3690192 -0.08470909 -0.027873622 -0.21039912 0.43343443 -0.024486441
0.13762943 -0.57599163 -0.27798393 0.057112113 1.0753673 0.60596263 -0.6813956 -0.45646
-0.49227226 0.3734196 0.41305864 -0.48655063 0.5617541 1.3267525 -0.20831381 0.3158999
-0.41533062 0.3787493 0.029788174 0.19845667 -0.14868847 -0.317543 -0.41970927 -0.05983554
-0.6914746 -1.1754314 -0.33785063 0.9600851 0.110180095 0.22999246 0.6018446 -1.1992614
1.1966906 0.19125214 -0.24726951 -0.21316521 -0.3231749 0.8383896 0.006634775 0.24456613
-0.6026345 -0.39789987 -0.19826429 0.75774705 0.45199364 -0.4813278 -0.37674612 -0.24559975
0.16753255 0.50636065 -0.28504467 0.86660254 1.1190841 -0.37734702 0.13912451 -0.30402493
0.08167203 -0.057189226 -0.19533694 -0.42273816 -0.19308494 -0.30471906 -0.00821502 -0.58014166
-1.2171466 -0.12818316 0.97554046 0.28365174 0.3340621 0.81181014 -0.96416324 1.04624
0.33211163 -0.022986382 -0.25106466 -0.287675 0.45653322 -0.12589905 0.16462806 -0.7441288
-0.32382903 0.29391956 0.9038794 0.7494256 -0.46551314 -0.36252645 -0.31056508 0.27791452
0.63110524 -0.4848315 0.71100336 1.1606545 -0.10131464 0.3438114 -0.2636431 0.42069957
-0.18212663 0.25630856 -0.06712921 -0.11796412 -0.3797509 0.06519069 -0.61484665 -1.166437
-0.3421477 0.65770715 0.41834176 0.5551285 0.8758347 -0.9415083 1.2525519 0.3633843
-0.22363694 -0.30748954 -0.20237377 0.42417517 0.014362444 0.40582657 -0.6691519 -0.19453499
0.12688383 0.9067369 0.6614553 -0.65990186 -0.31211975 -0.38555455 0.51054806 0.3538696

fc2.bias f4 [11]
00000000: e0cc b6bf 903a dabf 7b02 c0bf 54a8 e1bf
00000010: d6af d5bf 63e8 ddbf 6dfb dcbf daef e5bf
00000020: 31e7 bcbf dda4 bebf 88b5 03c0
-1.4281273 -1.7049122 -1.5000757 -1.7629495 -1.6694286 -1.7336544 -1.7264229 -1.7963822
-1.4758054 -1.4894062 -2.0579548

decoder_seq.0.weight f4 [39, 11]
00000000: 1e48 c0bc 5461 233e 3fc0 31be 83f9 783e
00000010: 2aec c73d deec c63d 5951 543d 3b38 81be
00000020: 4f00 e4bd 5995 c3bd 2c9e 33be 28ae d4bd
00000030: 8d3a c6be 6c1d 923e e6a1 c1be 2256 a23e
00000040: d539 ae3c 35cf 87bd e792 6bbe 2b52 b0be
00000050: 730a 863e cbf8 70be 5d39 813e 5ff3 afbd
00000060: f166 edbd 60c1 9d3d f605 ab3e a3ee c6bd
00000070: d74b cb3d 34ee 91be 34d5 8d3d dd0d 6c3e
00000080: 1a4b 853e 234f 2d3e dd88 d0bd 9d23 6fbe
00000090: 548a 0a3d 3f35 4abd 5150 08be d4b0 613c
000000a0: 07c3 66be 5c40 f2bc d37a ffbe 77b6 503e
000000b0: 1d3b 143e 6fbf 34be 806d 2c3e 28c3 f4bd
000000c0: 0c88 5c3e 664c 6fbe 4219 b83d 5dac 513d
000000d0: 0b15 8d3e 4e48 04be 6968 bcbd 5a17 833d
000000e0: bbfd 093e 562b bebe 552b 903d ee18 4dbd
000000f0: 7857 c8bd 10a1 9c3e cdc3 c73d e1a4 5c3e
00000100: 0514 423e 3209 cabd e6d2 173e a5c8 af3c
00000110: 94b7 363d 3b5e 4dbe 2379 b6bd b9bb 3c3e
00000120: 6bf7 89be 3520 833d fb56 91bd 0962 523e
00000130: dd3f 6fbe dfa7 84be cedf c4be 37f3 493e
00000140: 0782 953d b7e0 033e 52fc 2bbd 85a9 a8bd
00000150: 2d57 a13d 4132 a1bd 0e36 d5bd ae47 893b
00000160: 039d 88be a827 a93e 82c7 db3d ea95 6c3c
00000170: e923 63bd dfeb a83d 0e21 dc3d 20e3 4b3e
00000180: 4821 08be 4d03 66be f0cd 0ebd db97 53bd
00000190: 1c28 8dbd d775 42be 4215 ad3e 487e 303e
000001a0: b131 8abe 39a1 63be 9d00 193e 4f52 17be
000001b0: 23c9 14be 13d1 4f3c 72dc 7f3d 08b5 993e
000001c0: 7663 6abe 0f9a 903a f1bd 1cbc 6534 b6bd
000001d0: 73be cf3e 44b8 4e3e 8167 143e 5d90 213e
000001e0: 5ac0 7b3e ec6a 5dbe 7c0a 623c c2ad 48be
000001f0: 1ea4 bd3e 6bd2 4bbe 0a86 79be 861e 383e
00000200: 5dd9 e6bd 61ab 30bd d6b5 a03e 898a 823d
00000210: daf2 c4bc f4ff 0fbe 3da5 13be 26cd 123e
00000220: 1af8 6f3d 98e6 a43d b475 273d 5757 e0be
00000230: 6bea f3bd 3e90 543d 6b96 233e 163c b1bc
00000240: 3cad 9bbe 72ff 29be ddf1 c43b cf77 9cbe
00000250: 1698 953c 5076 86bd 733a 02be aed7 843e
00000260: f11a d43e 96c0 b7bd 8acb 993c b212 a4be
00000270: b627 a23e d92c dd3c 51a0 483e d5db 183f
00000280: 6a71 c23e 8773 563d 713a 0ebf 4daf c9bc
00000290: 36a6 863e 53dc a73d 4303 babd ce95 66be
000002a0: 31ce c63e d4bb bf3e c06f 723e 16d5 9abe
000002b0: d3cd bcbe 8ee4 4f3d 3a6d 4abe d18d 263e
000002c0: a54f 563d e049 0dbd c8be 6d3e c2e1 5cbd
000002d0: 8745 5fbe ae4f 85bd bd0c 553e 28fe 75be
000002e0: 8730 07be 111e 88be e5ab 443d bfaa 94be
000002f0: d73b ecbd db1c b73e c36a 603d 036a 8e3e
00000300: 639f 263e 32ce e3be d910 743d 6663 11bf
00000310: 1244 e7bd 15a0 9b3e 6dd2 29bd f31f 7dbd
00000320: 900f 103e e121 1e3e 7f17 2cbe a5d2 17be
00000330: 519c aabe 23d7 f23d d16b 8ebd 27af 813e
00000340: 6866 e0bd d73a 373e 7940 c4bd de43 143e
00000350: 7d43 4dbe 512a 45bd 149a 853e 3a88 783e
00000360: 8125 5dbe 9894 97be 873e e33d 291a 22bb
00000370: 4e22 2f3e 27fa 3d3e b0b9 54be 6de8 a5be
00000380: b534 8e3e c456 083e 2e2e 85be 99ea 91bd
00000390: 2c95 18be 2fc0 72be 2340 613e 08e1 0ebe
000003a0: 11ae ad3c c504 9a3d fcb1 95bd d4bb e3bd
000003b0: db47 8bbd 1cf0 563e 4e2e 2d3d 3b7a d3bd
000003c0: 0a5c 773c cdc8 293e d9c5 cabd a6a2 623e
000003d0: d1c1 443e 5d11 25bc 1389 c53d fa69 f3bd
000003e0: 4906 fd3a dbe8 6a3d 5458 6f3e 3617 c4be
000003f0: 7688 1cbe 0b22 a13d a632 843d abaa 803d
-0.023471888 0.15955096 -0.17358492 0.24313931 0.097618416 0.097131476 0.05183539 -0.25238213
-0.11132871 -0.0954997 -0.17540807 -0.1038478 -0.38716546 0.28538072 -0.3781883 0.3170634
0.02126781 -0.066313185 -0.23005258 -0.3443769 0.26179847 -0.23532407 0.25239077 -0.08591341
-0.115919 0.07702899 0.33402985 -0.09713485 0.09926575 -0.28502047 0.06925431 0.23052163
0.2603386 0.1692472 -0.101823546 -0.23353429 0.033823326 -0.049367186 -0.13311888 0.013775069
-0.22535335 -0.029571705 -0.49898395 0.20382105 0.14475675 -0.17651151 0.16838646 -0.119512856
0.21536273 -0.23368987 0.089891925 0.05118977 0.27555117 -0.12918207 -0.09199602 0.06400938
0.13475697 -0.37142438 0.07039515 -0.050072603 -0.09782308 0.3059163 0.09754143 0.21547271
0.1895295 -0.09865035 0.14826545 0.02145798 0.044608667 -0.20055477 -0.08909824 0.18430986
-0.26946577 0.064026274 -0.07096668 0.2054521 -0.23364206 -0.25909325 -0.38452 0.19721685
0.073001914 0.1287869 -0.04198868 -0.08235458 0.078779556 -0.07870913 -0.10410701 0.004189453
-0.2668229 0.33038068 0.107314125 0.014440039 -0.05545417 0.08248114 0.10748492 0.1991086
-0.13293946 -0.22462197 -0.034864366 -0.051658493 -0.06892416 -0.18990265 0.3380528 0.17235672
-0.26991037 -0.2222947 0.1494164 -0.14777492 -0.14529853 0.0126841245 0.062466092 0.30020928
-0.22889504 0.0011032241 -0.00956677 -0.08896712 0.4057499 0.2018748 0.14492609 0.15777726
0.24585095 -0.21622819 0.013796445 -0.19597533 0.37039274 -0.19904487 -0.24367538 0.17980394
-0.112719275 -0.04313219 0.3138873 0.0637408 -0.024041582 -0.14062482 -0.14418502 0.1433607
0.058586217 0.08051795 0.040883735 -0.43816635 -0.11909946 0.051895373 0.15975349 -0.021635097
-0.30405605 -0.16601351 0.0060102777 -0.30560157 0.018260997 -0.06565535 -0.12717609 0.259458
0.41426805 -0.0897228 0.018773813 -0.32045513 0.31670922 0.026998924 0.19592406 0.5971044
0.37977153 0.05235627 -0.55557925 -0.024619723 0.26298684 0.081963204 -0.090826534 -0.22518083
0.38829187 0.3744799 0.23675442 -0.30240697 -0.3687578 0.050755076 -0.19768229 0.16265036
0.05232205 -0.03449428 0.23217309 -0.053926237 -0.21803866 -0.06509338 0.2080564 -0.24022734
-0.13202105 -0.2658544 0.048015494 -0.2903652 -0.11534851 0.35764202 0.054789316 0.27815256
0.16271739 -0.44493252 0.05958638 -0.56792295 -0.1129228 0.3039557 -0.041460443 -0.061798047
0.14068437 0.15442611 -0.16805838 -0.14826448 -0.33322385 0.1185744 -0.06954158 0.25328943
-0.109570324 0.1789354 -0.0958261 0.14479014 -0.20045276 -0.04813606 0.26094115 0.24270716
-0.21596338 -0.29605556 0.110959105 -0.002473483 0.1710293 0.18552457 -0.20773959 -0.3240389
0.27774587 0.13314348 -0.26011795 -0.07124824 -0.14900655 -0.23706125 0.21997122 -0.1395303
0.021201165 0.07520441 -0.073093385 -0.1111981 -0.06800815 0.20990032 0.042280488 -0.10326048
0.015097627 0.16580506 -0.09901018 0.22132358 0.1921456 -0.0100749405 0.096452855 -0.11885448
0.0019304241 0.057350975 0.23373538 -0.3829896 -0.1528643 0.07867821 0.06454973 0.06282552

decoder_seq.0.bias f4 [39]
00000000: 7346 b5be 40e2 1cbe ed1f 973e 4a48 02be
00000010: 8a4c 53be 3fd9 923e b966 77be ca58 9fbe
00000020: 2d59 b43e 5af7 1ebe ab9c 8cbc 5011 aabe
00000030: f07f 013e cbc1 9abd 6717 9fbd ae73 843d
00000040: 827b 8a3e cea4 da3d cdcd a0be 59c9 e9bd
00000050: 7ce3 6d3e 273f a13e dc56 933e 01f0 ce3e
00000060: 60b7 c4be c4a8 27be b2fc f2bd 9195 863e
00000070: 272e a93e 1fab dabe 0edd ecbd 4d8d 8dbe
00000080: 965f 8cbe fc29 83be 54d3 a2be 201c c33e
00000090: e181 bcbc 2e07 883e 7bd5 e9be
-0.3540531 -0.15320683 0.29516545 -0.12722889 -0.20634666 0.2868137 -0.2416028 -0.31122428
0.35224286 -0.15524045 -0.017164549 -0.33216333 0.1264646 -0.07556494 -0.077681355 0.06467377
0.27047354 0.10675965 -0.31407014 -0.11415357 0.2323131 0.31493494 0.28777206 0.40417483
-0.38421154 -0.16372973 -0.11864604 0.26285985 0.33043024 -0.4270868 -0.115656 -0.27646866
-0.27416676 -0.2561797 -0.31801856 0.38107395 -0.02301115 0.26567978 -0.45670685

decoder_seq.2.weight f4 [68, 39]
00000000: e5ab 833e 7331 2f3d 8ee8 243e 05aa a6bd
00000010: 9abd d1be aa0b e03d 45c2 a1bc 42b8 46bd
00000020: 3679 ef3d 94d6 1cbe a6f9 d53d e165 743d
00000030: fb29 de3c 05a0 ccbd ebc5 7e3e c1d8 82be
00000040: 7e8d 663e a3d2 413e ec88 01be 2051 073e
00000050: bbfd a53c 422d 303e 94a1 ddbd 85d3 8a3e
00000060: 3c63 08be 64cf 813e 12c8 073e d76e 21be
00000070: f610 523d 462d 89bd 7d5e 3a3e 0d41 293e
00000080: 19b6 363e 30b9 933e 0a9a 0d3e 4429 023d
00000090: 5cfa f9bd 75e3 02bd b7d8 1e3e 3f8a c43d
000000a0: 4399 c13d 1fc0 87bc fd6f 183e 0187 d03e
000000b0: 7457 09bd fa36 ba3d 0278 a03d f999 cebc
000000c0: 4057 823e 7082 153c a4f5 13bd 6b50 493d
000000d0: 0c37 9dbe a46f 8b3d 8acb 953d 7a08 43be
000000e0: 75a2 7ebd fb73 37be c56e 913d b413 dd3c
000000f0: d4e4 04be 3498 50be d4a3 b5bd 34a6 7e3e
00000100: b126 083e 21dc 9bbd e6a7 6dbc 3833 b6bc
00000110: 108f 5a3e eed0 91bd 2ba6 313e c351 383e
00000120: 86d8 443e adf3 5b3c 1586 5ebe 9f42 7dbd
00000130: fe73 3fbe 8751 203e f33c 0ebe ad49 28bd
00000140: aa17 503d 27ae 4a3e b06c d8be fd02 873e
00000150: 3a47 c83d 8e7c 38be 781f b93e 6f8e 89be
00000160: c225 78bd bd82 65be 727f ed3d 2c08 4d3d
00000170: 9be2 e5bd bf74 883d ba85 323e a567 143e
00000180: d504 35bd f157 953b 79d7 983c 8d0d 503e
00000190: e8b1 a33d edea 033e 9267 be3c 2518 5ebe
000001a0: ad21 4b3e 9495 4f3e b0ec 893d aeac de3b
000001b0: 1c30 51bd bb4d 1abe cc84 54be 37e8 aabe
000001c0: 22a4 ddbb 30fe 383e 2d94 b43d 2a46 a23d
000001d0: a427 9cbd bc47 6f3e 97b3 56bc fcff e43d
000001e0: 6ad0 913d 1489 e43e eca8 f93d b2eb 81bd
000001f0: 087b 9abd 8904 e6bd 9673 08be 6aff 1fbd
00000200: 6a7e adbd cee9 ac3c 3129 fc3d 1b12 f63d
00000210: dc3c aa3c 0a16 2d3c acd6 69be 39ee 97bc
00000220: 54c4 b7bc 807e f0bc 1435 f8bd f7d5 a33d
00000230: 639c 6abd dfce b63c bf3d a53d 2b74 96bd
00000240: abf6 46be e661 a13d 78ed 0e3e 6a50 323e
00000250: ddfb 193d 1972 493e 7b86 d9bd d668 8b3e
00000260: 20c3 e1bc ec35 30bd 077f 22be c58a 623b
00000270: 8a4e 2bbd 0656 f03d 56e4 da3e 2dee 95bd
00000280: 0dd2 013e 4fa6 51bd ffbe 96be d0d5 a4bc
00000290: 375f e0bc 0b04 f33d c542 e7bc e33e a1be
000002a0: c168 9a3e d80b c5be aac4 513e f85e b03e
000002b0: 8ae2 acbe f641 b63d d2cb 96be ba5f e9bd
000002c0: eb25 993e 26bc 62bd be23 3abe 9675 f8bd
000002d0: 13c3 85be f74e afbe cba2 beba 9b4c 28bc
000002e0: 89ad 31bc b245 403e fc1e dabe f109 d8bd
000002f0: 7258 45bd 9c88 21be e945 6e3e da60 6ebe
00000300: d495 223e 3924 173c 8c1f 963d f3ca 513d
00000310: d543 d0bb 687e 04be f3e3 9bbc 46b3 f83e
00000320: bf39 f6bd 87e5 cb3d cbd5 cbbd 5409 4ebe
00000330: c755 263e 2ee9 503d 97a6 0bbd b935 83be
00000340: 4268 53ba cb41 4c3c 053b 2fbe be39 89be
00000350: f824 06be 399b 9b3d 05f3 86be b229 c3bc
00000360: 617f 21be 1081 0bbd 5c33 c0bd 2ac6 833e
00000370: 6007 8d3e 468c a0bc b179 acbe d000 d3bd
00000380: c519 cd3d 2781 f33d c287 723e 7fd1 6a3e
00000390: 4aa3 403e 5724 143e dac9 13be 1b44 973d
000003a0: 6cb0 16be 20bf 863b b8fd 783e a53d d73d
000003b0: 5489 7e3e 5acd 48bd d851 17bf a35f a8bd
000003c0: da15 fb3c 2b6f 103e 9065 013d 84e5 d03e
000003d0: 6ccb c2be 62ff 0a3e 8ea0 383e 229c 9cbd
000003e0: d697 4a3e c598 123e 1270 94be 5b6c dd3d
000003f0: 0b60 303e 2494 393e 29ca bb3d 1523 83bd
0.25717083 0.042771768 0.16104338 -0.081378974 -0.40964967 0.10939725 -0.019745955 -0.048515566
0.11693041 -0.1531623 0.10448007 0.05966747 0.027119627 -0.09991459 0.24880187 -0.25555995
0.22514912 0.18928008 -0.12649888 0.1321454 0.02026259 0.17204764 -0.10821834 0.27114502
-0.13319105 0.2535354 0.13259915 -0.15764938 0.051285706 -0.06698088 0.18200107 0.16528721
0.17842902 0.28852224 0.13828292 0.031777635 -0.122059554 -0.0319552 0.15512358 0.09596681
0.094530605 -0.016571103 0.1488647 0.40728 -0.033530667 0.09092517 0.0783539 -0.025219904
0.2545719 0.009125337 -0.036122933 0.04914896 -0.3070606 0.06808403 0.073142126 -0.19046202
-0.06216665 -0.17915337 0.07101206 0.026986934 -0.12977916 -0.20370561 -0.08869138 0.24868089
0.1329601 -0.07610346 -0.014505362 -0.02224122 0.21343637 -0.07119928 0.17348544 0.1799994
0.19223222 0.013424796 -0.21730836 -0.061831113 -0.18696591 0.156561 -0.13890438 -0.041085888
0.050803818 0.19792996 -0.42270422 0.26369467 0.097792104 -0.18016264 0.3615682 -0.2686648
-0.060582884 -0.22413154 0.11596574 0.05005662 -0.11224862 0.066628926 0.17433825 0.14492662
-0.04419406 0.0045576026 0.018657433 0.20317669 0.07992917 0.12882586 0.023242746 -0.21688898
0.19837065 0.20271903 0.06734598 0.0067954874 -0.05107127 -0.15068714 -0.20753783 -0.3338029
-0.006763951 0.18065715 0.08817325 0.07923539 -0.07624748 0.23367208 -0.013104341 0.11181638
0.0711983 0.44635832 0.121904224 -0.063437834 -0.075429976 -0.11231334 -0.13325343 -0.03906194
-0.08471377 0.02110758 0.12312544 0.12015172 0.020780973 0.010564337 -0.22835797 -0.01854621
-0.022432484 -0.029357195 -0.12119499 0.07999795 -0.05727805 0.02231544 0.08068418 -0.07346376
-0.19430034 0.07880001 0.13957775 0.17413488 0.03759371 0.19672431 -0.10621353 0.2722842
-0.027558863 -0.043020174 -0.1586877 0.0034567576 -0.041822948 0.11735158 0.42752331 -0.07320819
0.12677784 -0.051183995 -0.29442593 -0.020121485 -0.027389152 0.118660055 -0.02823008 -0.3149329
0.30158046 -0.384856 0.20485178 0.34447455 -0.33766586 0.088993 -0.29452378 -0.113952115
0.29911742 -0.055355214 -0.18177697 -0.12131803 -0.26125392 -0.34239933 -0.0014544366 -0.01027217
-0.010844597 0.18776587 -0.42601764 -0.10548771 -0.04818005 -0.15774769 0.23268856 -0.23279133
0.15877467 0.009224945 0.07330236 0.051218938 -0.0063557425 -0.12938845 -0.019029593 0.48574275
-0.12022733 0.09955888 -0.09952887 -0.20120746 0.16243659 0.051003627 -0.03409442 -0.25626925
-0.0008064547 0.012466858 -0.17112358 -0.26801866 -0.1310004 0.07597966 -0.26357284 -0.023823593
-0.15771247 -0.03405863 -0.09384796 0.25737125 0.2754469 -0.019598138 -0.33686593 -0.10302889
0.10014681 0.11889868 0.236846 0.22931479 0.1881229 0.14466988 -0.14432469 0.07386037
-0.14715737 0.0041121393 0.24315536 0.10509805 0.24857074 -0.049023964 -0.5910926 -0.08221366
0.030650068 0.14104907 0.031591 0.40800107 -0.38045824 0.13573983 0.18029997 -0.076469675
0.19784483 0.1431609 -0.28991753 0.10811683 0.17224137 0.18122917 0.09169418 -0.06403176
