code/laser/training/trained_data/DAE_BAS/train_DAE_Latent11final.pt (torch, 183462 bytes, 16 tensors)

encoder_seq.0.linear.weight f4 [97, 126]
0	0x00000000	0.0
1	0xbc85e93f	-0.016346572
2	0xbdb3d566	-0.08780937
3	0xbda6f49a	-0.08152123
4	0xbd1bee3b	-0.03806899
5	0xbd13fc2b	-0.036129158
6	0xbc62f922	-0.013853343
7	0x3cd21bb1	0.02564797
8	0x3d57f084	0.052719608
9	0x3e1a4b51	0.15067793
10	0x3cc58d82	0.024115328
11	0x00000000	0.0
12	0xbd88c1e8	-0.0667761
13	0xbc707f51	-0.014678792
14	0xbcc47eac	-0.023986183
15	0xbc8d754f	-0.017267851
16	0xbc86cbdb	-0.016454628
17	0xbddf1ac5	-0.10893778
18	0xbcdc5059	-0.026893781
19	0xbd09db90	-0.033656657
20	0x3d4adf53	0.049529385
21	0x3d46c645	0.04852893
22	0x00000000	0.0
23	0xbdb8b343	-0.090185665
24	0xbd2ecb6b	-0.042674463
25	0xbb4ea7f0	-0.0031533204
26	0xbe083b38	-0.1330384
27	0xbe382b85	-0.17985351
28	0x3d8ef1e2	0.06979729
29	0xbdc42a6c	-0.09578404
30	0xbd374c7a	-0.044750668
31	0x3acbcf4d	0.0015549451
32	0x3d344737	0.04401323
33	0x00000000	0.0
34	0xbdfda1a5	-0.12384347
35	0xbd6f25cd	-0.05838566
36	0xba877dbc	-0.0010337154
37	0x3d912983	0.07087996
38	0x3cd5cef9	0.026099669
39	0x3db7eaf3	0.0898036
40	0x3c06c35d	0.008225289
41	0x3e4ced30	0.20012355
42	0x3e5550db	0.20831625
43	0xbcc81645	-0.024424681
44	0x00000000	0.0
45	0x3d7def7d	0.061995972
46	0x3c75a00a	0.01499177
47	0x3cb100e5	0.021606872
48	0xbd639ee2	-0.055571444
49	0x3c3df555	0.011594136
50	0x3d5e8779	0.054328416
51	0x3c52c6d2	0.012864785
52	0xbe03f3e9	-0.12886013
53	0x3dbaa291	0.09113038
54	0xbd47590b	-0.048668902
55	0x00000000	0.0
56	0x3d073314	0.033007696
57	0xbdee086c	-0.116227
58	0xbde36e30	-0.11105001
59	0x3d360987	0.04444268
60	0x3e5f7dbe	0.2182531
61	0x3d98039a	0.07422562
62	0x3dd11c53	0.102104805
63	0xbcbf4b4c	-0.023351334
64	0x3b8bf3b8	0.004270997
65	0xbe2bc7d0	-0.16775441
66	0x00000000	0.0
67	0xbe61f40a	-0.2206575
68	0xbe3be159	-0.18347682
69	0x3e7cb579	0.24678601
70	0xbe3987c6	-0.181182
71	0x3d482ba9	0.048869763
72	0xbcdb148d	-0.026743198
73	0x3d540adb	0.051768165
74	0xbe00d1f7	-0.12580095
75	0xbe419329	-0.18903793
76	0x3d739b18	0.05947408
77	0x00000000	0.0
78	0x3c5fa07c	0.013649102
79	0x3ce072ae	0.027398434
80	0x3ddcf9ec	0.10789856
81	0xbd2325b7	-0.03983089
82	0xbd7d6e8d	-0.061873008
83	0xbdc35542	-0.09537746
84	0x3e18ee70	0.14934707
85	0xbdaa3a64	-0.083119184
86	0x3c05beb0	0.008163139
87	0xbdd381fa	-0.103275254
88	0x00000000	0.0
89	0xbd2c59dc	-0.042077884
90	0xbcfce959	-0.030872988
91	0x3bfb5355	0.007669846
92	0x3da081fa	0.07837291
93	0xbd9caa81	-0.076497085
94	0x3d8c99ed	0.068652965
95	0xbdc42296	-0.09576909
96	0x3c9ca949	0.01912369
97	0x3dcdbfeb	0.10046371
98	0x3da33b69	0.07970316
99	0x00000000	0.0
100	0x3e702368	0.23451006
101	0x3e23b68d	0.15987606
102	0xbdc7bade	-0.09752439
103	0xbe14cd97	-0.14531551
104	0x3af9a1d3	0.001904542
105	0x3d9ec4e6	0.07752399
106	0x3d9b1cf2	0.0757388
107	0xbd0b3f52	-0.033995934
108	0xbda5d075	-0.08096401
109	0xbcff1131	-0.031136127
110	0x00000000	0.0
111	0xbddb1b48	-0.10698563
112	0x3e762192	0.24036244
113	0x3d8504d5	0.06495062
114	0xbd508b68	-0.0509142
115	0x3d0d0352	0.034426995
116	0x3c8bc051	0.017059477
117	0x3e5c30da	0.2150301
118	0x3e06e18a	0.13171974
119	0xbb3ce6dc	-0.0028824126
120	0x3cf9664e	0.03044429
121	0x00000000	0.0
122	0xbda5bf6a	-0.0809315
123	0xbb4259f6	-0.0029655672
124	0x3a0f7119	0.000547187
125	0x3d0dc932	0.034615703
126	0x00000000	0.0
127	0x3c5b3cb1	0.013381169
128	0x3da64c64	0.08120039
129	0x3c881829	0.016613083
130	0xbd60b25a	-0.05485759
131	0x3e0f3d2b	0.13988177
132	0xbc12745d	-0.008938876
133	0x3cf29543	0.02961219
134	0xbd3c6ce4	-0.046002284
135	0xbcd8eecb	-0.026481053
136	0xbda4b0e0	-0.08041549
137	0x00000000	0.0
138	0x3d8f8fe9	0.070098706
139	0x3c3d5e0f	0.01155807
140	0xbde6d2e5	-0.11270694
141	0xbd93a836	-0.07209818
142	0x3d78afa5	0.060714383
143	0x3d9fd7ba	0.078048185
144	0xbdd752c5	-0.10513834
145	0xbdfe14b7	-0.12406295
146	0xbc9cd983	-0.019146686
147	0xbdb0d01c	-0.08633444
148	0x00000000	0.0
149	0xbebf49ca	-0.37360984
150	0xbe6b7137	-0.22992407
151	0xbe92d162	-0.2867537
152	0xbdd27a29	-0.102772065
153	0x3ea31fea	0.31860286
154	0xbc5feef4	-0.013667811
155	0xbdd1311a	-0.102144435
156	0xbd7d06bd	-0.061774004
157	0xbddc16c7	-0.10746532
158	0x3dd3a4dd	0.103341796
159	0x00000000	0.0
160	0x3e87eaf6	0.26546448
161	0xbe38461c	-0.17995495
162	0xb8dffa5c	-0.00010680102
163	0x3da7f025	0.08200101
164	0x3dbe0aa4	0.09279373
165	0xbe203566	-0.1564537
166	0xbdc74797	-0.097304516
167	0xbe2fdf8d	-0.17175122
168	0x3bd762b9	0.006573048
169	0xbdc2fd17	-0.09520929
170	0x00000000	0.0
171	0x3e09e9e3	0.13468127
172	0xbe30b645	-0.1725703
173	0xbdb075f7	-0.0861625
174	0x3e8d6de4	0.27622902
175	0x3e9c4bf2	0.30526692
176	0x3dc9b54d	0.098490335
177	0x3e8895fc	0.2667693
178	0x3d719810	0.05898291
179	0xbdd7530a	-0.10513885
180	0xbc8ca42d	-0.017168129
181	0x00000000	0.0
182	0x3d9d27ff	0.07673644
183	0x3e904018	0.281739
184	0xbeaeecce	-0.34165043
185	0x3e75b40c	0.23994464
186	0x3e021b77	0.1270579
187	0xbe2b75f5	-0.16744216
188	0x3e878f49	0.26476505
189	0x3eba6860	0.36407757
190	0x3eb9d489	0.36294964
191	0x3ea52143	0.3225194
192	0x00000000	0.0
193	0x3e910e2d	0.28331128
194	0xbead06cd	-0.3379425
195	0x3d4c5a55	0.049890835
196	0xbd19e377	-0.037570443
197	0xbe615750	-0.22005963
198	0xbe07a81b	-0.13247721
199	0xbe01f181	-0.12689783
200	0xbf006ce8	-0.5016618
201	0x3f00cd1d	0.5031298
202	0xbbd3e11b	-0.0064660436
203	0x00000000	0.0
204	0x3e274f12	0.16338757
205	0x3d4d3991	0.050103728
206	0x3dd47383	0.103735946
207	0x3ec2f4a3	0.38077268
208	0xbe473aaf	-0.1945598
209	0x3e653739	0.22384347
210	0x3d89d60b	0.067302786
211	0xbe9b997c	-0.30390537
212	0xbe3b57d5	-0.18295224
213	0x3e12f114	0.14349777
214	0x00000000	0.0
215	0xbe802edc	-0.2503575
216	0x3d402e54	0.046919182
217	0xbec5505c	-0.38537872
218	0x3e23ad58	0.15984094
219	0xbcc10025	-0.02355964
220	0x3bd47293	0.006483385
221	0x3ed6a54e	0.41922992
222	0x3d8acfc2	0.06777908
223	0x3ec23243	0.37928972
224	0xbd805d77	-0.06267827
225	0x00000000	0.0
226	0xbe12dbc4	-0.14341646
227	0xbe3cb855	-0.18429692
228	0xbe2e8205	-0.17041786
229	0x3e530210	0.20606256
230	0x3da87bc3	0.08226731
231	0x3dfb014c	0.12256107
232	0xbe9ee870	-0.3103671
233	0xbd142327	-0.036166336
234	0xbe5c6d99	-0.21526183
235	0xbde15f17	-0.11004465
236	0x00000000	0.0
237	0xbdb1ce36	-0.0868191
238	0xbdf27500	-0.11838722
239	0x3ed8b485	0.42325225
240	0xbead35fb	-0.33830246
241	0xbc7cc0e8	-0.015426852
242	0x3e06583b	0.13119595
243	0xbd967b78	-0.073477685
244	0xbea04cf5	-0.31308714
245	0x3d0d1613	0.03444488
246	0xbe3d2d9d	-0.18474431
247	0x00000000	0.0
248	0xbe2c81a9	-0.16846336
249	0xbe5e617d	-0.21716876
250	0x3e99bbee	0.3002619
251	0xbd945004	-0.07241824
252	0x00000000	0.0
253	0x3e9204f2	0.28519398
254	0x3d2aaf99	0.04167137
255	0x3e57e223	0.21082358

encoder_seq.0.linear.bias f4 [97]
0	0xbe09f318	-0.13471639
1	0xbe930c49	-0.2872031
2	0x3e87a65a	0.26494104
3	0x3f0f708b	0.560311
4	0xbf097a45	-0.53702193
5	0x3e7d7a97	0.24753796
6	0xbe217e34	-0.15770799
7	0x3dde6efd	0.10861013
8	0x3e9dbeed	0.30809727
9	0xbe2e367c	-0.17012972
10	0x3e5eb208	0.21747601
11	0x3ec04fa3	0.37560758
12	0x3e8b962e	0.27263016
13	0xbeba918b	-0.36439165
14	0x3c1b2097	0.009468219
15	0x3e994720	0.29937077
16	0xbe4f167a	-0.20223418
17	0xbe1c2bd7	-0.15251099
18	0xbe1b216d	-0.1514947
19	0xbe5222f9	-0.20521154
20	0x3e90b56e	0.2826342
21	0xbece1f6a	-0.40258342
22	0x3e148d53	0.14507036
23	0xbec3a738	-0.38213515
24	0xbe21b678	-0.15792263
25	0xbdffb2c0	-0.12485266
26	0x3d00c8bf	0.031441446
27	0x3f192378	0.59819746
28	0xbca2e169	-0.019882875
29	0x3b8220f0	0.0039712116
30	0x3d09d013	0.0336457
31	0xbd690b6a	-0.05689565
32	0x3c110e94	0.008853573
33	0x3e2910a0	0.16510248
34	0xbe5305c8	-0.20607674
35	0xbea797a2	-0.32732874
36	0xbe0b191d	-0.13583799
37	0x3e8a79fb	0.2704619
38	0xbe17eb92	-0.14835957
39	0xbe11c81e	-0.14236495
40	0x3f0a4de1	0.54025084
41	0x3eec21ad	0.46119443
42	0xbd0dc5d4	-0.03461249
43	0xbdc32213	-0.095279835
44	0x3ea190c6	0.31555766
45	0xba14357d	-0.00056537223
46	0xbec570fa	-0.38562757
47	0x3ea28617	0.31742927
48	0x3dba2549	0.09089143
49	0xbe37143f	-0.17878817
50	0x3d924bbb	0.07143351
51	0xbe057772	-0.13033846
52	0xbdfcded2	-0.12347187
53	0xbe1ceb11	-0.15324046
54	0x3c52d1d6	0.012867412
55	0x3dc0f364	0.09421423
56	0x3e14d289	0.14533438
57	0xbe844ca9	-0.25839737
58	0xbeb0cd1d	-0.3453149
59	0xbe81470f	-0.25249526
60	0x3e87ebbb	0.26547036
61	0xbedec8e0	-0.4351263
62	0xbe82ecb4	-0.25571215
63	0x3e9992ed	0.29994908
64	0x3e25b03e	0.16180512
65	0x3e77482e	0.24148628
66	0x3e5f120a	0.21784225
67	0x3e15c003	0.14624028
68	0x3f148556	0.58015954
69	0xbd6924f1	-0.056919996
70	0xbdf5156b	-0.11966976
71	0x3eca6342	0.39528853
72	0x3de29a6f	0.11064612
73	0x3e453ecf	0.19262241
74	0x3e9987b0	0.29986334
75	0xbe366aea	-0.17814222
76	0xbe74d334	-0.23908693
77	0x3ee27bc9	0.44235066
78	0x3e1f41e3	0.15552478
79	0x3e40a6f4	0.18813688
80	0xbe92dbc4	-0.28683293
81	0xbf27ca12	-0.6554271
82	0xbd6616ad	-0.05617397
83	0xbe6cbd1d	-0.23119016
84	0xbee2a74b	-0.4426826
85	0x3d1f7f8b	0.038939994
86	0xbd49a374	-0.049228147
87	0xbe933b7f	-0.2875633
88	0xbe1f338b	-0.15547006
89	0xbe3a9aac	-0.18223065
90	0x3d44c03f	0.048034903
91	0xbe4c948a	-0.19978538
92	0x3d5fe92d	0.054665733
93	0xbe0d8b7b	-0.13822739
94	0xbe894390	-0.2680936
95	0xbe2aba6d	-0.16672678
96	0xbe043278	-0.12909877

encoder_seq.2.weight f4 [68, 97]
0	0x3d9a362f	0.07529866
1	0xbd6fa6c5	-0.058508653
2	0x3cefb9e3	0.029263442
3	0xbc239490	-0.0099841505
4	0xbdb7c705	-0.08973507
5	0xbd934f0b	-0.071928106
6	0x3b725add	0.0036980428
7	0xbd05a3fa	-0.032627083
8	0xbd84808f	-0.06469833
9	0xbcdb8668	-0.026797488
10	0xbd1b91f1	-0.037980977
11	0xbca79d81	-0.020460846
12	0xbd31d81c	-0.04341899
13	0xbdc25b79	-0.09490103
14	0xbb9885c2	-0.004654617
15	0x3dcbb778	0.09947103
16	0x3d6bc3b4	0.057559684
17	0x3dc5c09e	0.096558794
18	0x3d78aeba	0.060713507
19	0x3d61533e	0.055011027
20	0xbdcf6eff	-0.10128593
21	0x3db3d011	0.0877992
22	0x3cc861e1	0.024460735
23	0x3df4dadd	0.11955807
24	0xbd5a5a1b	-0.053308588
25	0x3dc60c64	0.09670332
26	0xbcfdbf17	-0.030974908
27	0x3d85c1fd	0.06531141
28	0x3d5bee25	0.05369391
29	0xbab693bf	-0.001392953
30	0xbdcccdbf	-0.100001805
31	0xbd5136a9	-0.05107752
32	0xbd59b4fa	-0.05315111
33	0xbdb9f13a	-0.090792134
34	0x3c95f110	0.018303424
35	0xbddf50a0	-0.1090405
36	0x3e1f1cee	0.1553838
37	0x3ddc5d91	0.10760034
38	0x3d3162bd	0.043307055
39	0x3dcabdbf	0.098994724
40	0xbd345736	-0.044028483
41	0xbbc67459	-0.00605635
42	0x3e83bab2	0.25728375
43	0xbd8822aa	-0.06647237
44	0xbd60d640	-0.054891825
45	0xbd29bf6d	-0.041442323
46	0xbd2e1c7a	-0.042507626
47	0x3d70c669	0.05878297
48	0xbd3715ab	-0.0446984
49	0x3ca88f8c	0.020576261
50	0xbe4883ad	-0.1958148
51	0x3b96fd67	0.0046078446
52	0xbc9568a7	-0.018238379
53	0x3da9122f	0.08255421
54	0xbdde5028	-0.10855132
55	0x3e242d55	0.16032918
56	0xbd9ca0cb	-0.07647856
57	0xbd688834	-0.05677052
58	0x3c59b97d	0.013288853
59	0xbccb4dd3	-0.024817383
60	0x3e400dcd	0.18755265
61	0xbd1b622e	-0.03793543
62	0x3d5620f3	0.052277517
63	0xbdfd1378	-0.12357229
64	0xbd2b48fe	-0.041817658
65	0x3d904285	0.070439376
66	0x3da848d1	0.082170136
67	0xbda73e57	-0.08166187
68	0x3c23b0ab	0.009990851
69	0x3ca5d32b	0.020242294
70	0x3dc8831e	0.097906336
71	0xbe0ec2bb	-0.13941471
72	0xbe63ee1c	-0.222588
73	0xbdab463e	-0.08363007
74	0xbccced14	-0.025015391
75	0x3e7a62fb	0.2445182
76	0xbc70c044	-0.014694277
77	0xbce7ddb4	-0.028303958
78	0xbca03749	-0.019557612
79	0xbd28a82f	-0.041176017
80	0x3bff8675	0.007798011
81	0x3d4ddd08	0.05025962
82	0xbce57bc1	-0.028013112
83	0x3d9d14dc	0.07669994
84	0x3cd15c6f	0.025556771
85	0x3dddbee4	0.10827425
86	0xbdcf6eb5	-0.101285376
87	0xbca0cf1f	-0.019630013
88	0xbd8307b8	-0.063979566
89	0x3ddabf47	0.106810145
90	0x3e359bbe	0.17735192
91	0x3d7e42e8	0.062075526
92	0x3e8628bb	0.2620295
93	0x3d0ab29b	0.033861738
94	0x3e06832e	0.13135979
95	0xbe48ed1e	-0.19621703
96	0xbe19e141	-0.15027334
97	0xbe5a1857	-0.21298347
98	0x3e9a2a82	0.30110556
99	0xbd1cec8a	-0.03831152
100	0xbe1f708e	-0.1557028
101	0x3dad642c	0.08466372
102	0x3ddbd686	0.107342765
103	0x3dce35a4	0.10068825
104	0xbe5c1cde	-0.21495387
105	0x3d8eaa36	0.06966059
106	0x3ea06ac4	0.31331456
107	0xbd4c78e3	-0.049919974
108	0xbe2c6411	-0.16835047
109	0xbd8cf67f	-0.06882953
110	0x3e956758	0.29180408
111	0x3e32cf43	0.17461877
112	0xbf12ee13	-0.5739452
113	0x3ea286d5	0.31743494
114	0x3d946fc6	0.072478816
115	0xbdee74c7	-0.11643367
116	0xbdfdb2e8	-0.12387639
117	0xbdae123f	-0.08499574
118	0x3d09f5f1	0.033681814
119	0x3e770e1d	0.24126478
120	0x3e5908c9	0.21194758
121	0xbe2d2841	-0.16909887
122	0xbd7cb9c9	-0.061700616
123	0x3d71dc21	0.059047822
124	0xbce5ef68	-0.02806826
125	0xbdd8cf69	-0.10586435
126	0x3e2fd911	0.17172648
127	0xbe87eda8	-0.26548505
128	0xbd34217c	-0.043977246
129	0xbe01abcc	-0.12663192
130	0x3d7cd31e	0.061724775
131	0xbede905a	-0.43469507
132	0x3ddc2624	0.10749462
133	0xbdded39a	-0.108802035
134	0xbcc619a2	-0.024182145
135	0xbe1a4063	-0.15063624
136	0xbdf53283	-0.11972525
137	0xbe4a60a4	-0.19763428
138	0xbdecc035	-0.11560098
139	0xbe210446	-0.15724286
140	0xbd2af1ea	-0.041734613
141	0x3dc0ce86	0.09414391
142	0x3e89a0ef	0.26880595
143	0x3da3f3be	0.080054745
144	0xbdab9bb4	-0.083793074
145	0xbd220097	-0.039551344
146	0xbd3d169a	-0.046164133
147	0x3e64aa1d	0.22330518
148	0xbe7f53ce	-0.24934313
149	0xbde3b1df	-0.111179106
150	0x3e02a4bb	0.12758152
151	0xbd6b8f26	-0.057509564
152	0x3d0b0475	0.033939797
153	0xbcd0c260	-0.02548331
154	0x3da10df2	0.07863988
155	0x3d62a1c6	0.05533006
156	0xbe9d27b1	-0.30694345
157	0x3dcc930f	0.09988987
158	0x3e3a771b	0.18209498
159	0xbe66c742	-0.22536948
160	0xbe8171b3	-0.25282058
161	0x3d495a2c	0.04915826
162	0xbd4f76cd	-0.050650407
163	0x3dfe978d	0.1243125
164	0xbdb87709	-0.09007079
165	0xbd7be57c	-0.06149815
166	0xbe2a4f73	-0.1663187
167	0xbd2606ae	-0.040533714
168	0xbe36d0eb	-0.17853133
169	0x3dd10cf2	0.10207547
170	0x3b386920	0.0028138831
171	0xbdf7889e	-0.120866045
172	0x3d5f8b51	0.05457622
173	0x3b50042f	0.0031740775
174	0xbe403bfe	-0.18772885
175	0x3d481a50	0.04885322
176	0x3cf65404	0.030069359
177	0xbd1aece9	-0.03782359
178	0xbe924af0	-0.28572798
179	0x3bbcb763	0.005759166
180	0xbda5f91c	-0.081041545
181	0xbe59ee33	-0.21282272
182	0xbd2569bf	-0.04038405
183	0x3e195cd6	0.1497682
184	0x3db2d173	0.087313555
185	0xbc8c9448	-0.01716055
186	0xbc52c30a	-0.012863884
187	0xbdbb06fa	-0.0913219
188	0xbd82144b	-0.06351527
189	0x3e5900fc	0.21191782
190	0x3de97a47	0.11400276
191	0xbd58ec79	-0.052959893
192	0x3e7ad94d	0.24496956
193	0xbdb6e505	-0.08930401
194	0xbe31dd5e	-0.17369601
195	0x3b1301f3	0.0022431582
196	0xbe15c994	-0.14627677
197	0x3d7aeac8	0.06125906
198	0xbd32f2ef	-0.04368871
199	0x3e82e7f7	0.255676
200	0xbdbdf433	-0.09275093
201	0xbe57bd1b	-0.21068232
202	0x3e8f0aa7	0.27937815
203	0xbd93cd46	-0.07216887
204	0x3da81b58	0.082083404
205	0xbdf7e0b2	-0.12103404
206	0x3e2e5632	0.17025068
207	0xbdcf0069	-0.101075
208	0xbda5ea06	-0.08101277
209	0xbe152d22	-0.14567998
210	0x3d5bc442	0.053653963
211	0xbd16a305	-0.03677656
212	0xbdb7217b	-0.08941933
213	0x3d1a39f0	0.03765291
214	0x3e10ecf0	0.14152884
215	0xbd6afbdf	-0.05736911
216	0xbdb5ad62	-0.08870961
217	0x3beed429	0.007288475
218	0xbea86158	-0.32886767
219	0x3d8dec64	0.069298536
220	0x3ccdc0e7	0.025116397
221	0x3e807725	0.250909
222	0x3e10e99a	0.14151612
223	0x3e33afe4	0.17547566
224	0xbca40842	-0.020023469
225	0x3e178ff2	0.14801005
226	0xbd6009d0	-0.054696858
227	0xbc115f7a	-0.008872861
228	0x3e225694	0.1585334
229	0x3e8603db	0.26174816
230	0xbddf989a	-0.10917778
231	0xbc5b5feb	-0.013389568
232	0x3e01a4d1	0.12660529
233	0x3cc520cb	0.024063488
234	0x3e464559	0.19362392
235	0x3e01f246	0.12690076
236	0x3cba6f2a	0.022758085
237	0xbdf361c2	-0.1188388
238	0x3d2f4fbf	0.04280066
239	0xbe10e19f	-0.14148568
240	0x3d3719c3	0.044702303
241	0xbd82c0a4	-0.063843995
242	0x3d7e10be	0.062027685
243	0x3d7924d8	0.060826153
244	0x3d1d8726	0.038458966
245	0xbdd0304c	-0.10165462
246	0x3c390f0c	0.011295091
247	0x3dde0fa3	0.10842826
248	0x3c8998c6	0.01679648
249	0xbdf83acf	-0.12120592
250	0xbd4ae8f6	-0.049538575
251	0x3e2db352	0.16962937
252	0x3c1909b0	0.009340689
253	0xbd85df28	-0.06536704
254	0xbc16f1f3	-0.009212959
255	0xbe807962	-0.25092608

encoder_seq.2.bias f4 [68]
0	0x3e6918d2	0.22763374
1	0xbd200856	-0.03907045
2	0x3e22e675	0.15908225
3	0xbc9ae4ae	-0.018907871
4	0xbe20751c	-0.15669674
5	0xbe56c50d	-0.20973606
6	0x3e103720	0.14083529
7	0xbe0e8d18	-0.1392101
8	0xbd027e73	-0.031858873
9	0x3ddbb27d	0.10727403
10	0xbde80196	-0.113284275
11	0xbe8d8c99	-0.2764633
12	0xbe997d22	-0.2997828
13	0xbbd50ebd	-0.006502001
14	0xbdcf3cf1	-0.101190455
15	0x3d9e3b2c	0.0772613
16	0xbddef7c5	-0.10887102
17	0xbd91c65f	-0.071179144
18	0xbe21bf1a	-0.15795556
19	0xbe15b53a	-0.14619914
20	0xbcf821b8	-0.030289516
21	0xbe98fdfa	-0.2988127
22	0x3d92dbf5	0.0717086
23	0x3e6b9ce5	0.2300907
24	0x3d4d981f	0.050193902
25	0xbe04a191	-0.12952258
26	0x3e5b351a	0.21406975
27	0x3d5dce9f	0.054152127
28	0x3d79b117	0.0609599
29	0x3e4a0ac9	0.19730677
30	0x3d1e6002	0.03866578
31	0x3da51189	0.08059985
32	0x3e435f18	0.19079244
33	0xbe7507c1	-0.23928739
34	0x3e03fffd	0.1289062
35	0xbc416030	-0.011802718
36	0x3e3ab8e5	0.18234594
37	0xbe986bd2	-0.2976976
38	0xbbf36d38	-0.0074287914
39	0x3df428d0	0.11921847
40	0xbd9e2182	-0.07721235
41	0x3e4429f7	0.19156633
42	0x3dbc442a	0.09192689
43	0xbc0ff931	-0.008787439
44	0xbe0436a2	-0.12911466
45	0x3db660ce	0.08905183
46	0x3e47cd38	0.19511878
47	0xbe0c70a5	-0.13714845
48	0xb9ca7b88	-0.0003862048
49	0x3e44e114	0.19226485
50	0xbbe3c7b9	-0.006951299
51	0x3d5ef521	0.054432992
52	0x3bd77dc0	0.00657627
53	0xbc9981a3	-0.018738573
54	0xbe0fe967	-0.1405388
55	0xbe458b93	-0.19291525
56	0x3c522323	0.01282576
57	0xbdac0548	-0.08399445
58	0x3e4c946a	0.1997849
59	0xbdd361ab	-0.10321363
60	0xbe75b517	-0.23994862
61	0xbda4b08f	-0.080414884
62	0xbe60b747	-0.21944915
63	0x3e1d376f	0.15353177
64	0xbcd1bc9f	-0.025602637
65	0x3d460d60	0.0483526
66	0x3c311077	0.010807148
67	0xbe5f8b9f	-0.21830605

encoder_seq.4.weight f4 [39, 68]
0	0x3e413c35	0.18870623
1	0x3ce065ba	0.027392257
2	0x3d18b92a	0.03728596
3	0x3df430f0	0.119233966
4	0x3e00d690	0.12581849
5	0x3c19ac82	0.009379508
6	0xbe0b726b	-0.13617866
7	0xbd7226fe	-0.059119217
8	0x3d47af2c	0.04875104
9	0x3d6ea4b9	0.05826256
10	0x3d0dc675	0.03461309
11	0xbd1fe1af	-0.039033588
12	0xbdded4f4	-0.10880461
13	0x3d544a67	0.051828768
14	0x3e053035	0.13006671
15	0x3d27c3fe	0.040958397
16	0xbd9ef565	-0.07761649
17	0x3d3f8bd2	0.046764202
18	0x3e051f6e	0.1300027
19	0x3d5aac21	0.05338681
20	0xbe150f4f	-0.14556621
21	0x3c547376	0.012966981
22	0xbe404d1d	-0.18779416
23	0xbdbfaae9	-0.093587704
24	0xbe3d53fb	-0.18489067
25	0x3e1e1d80	0.15440941
26	0xbd4d2a0e	-0.050088935
27	0x3d915789	0.07096774
28	0x3cb739fe	0.02236652
29	0x3d213084	0.03935291
30	0xbda31994	-0.07963863
31	0xbe11c604	-0.14235693
32	0xbc8107c6	-0.015750777
33	0xbc870db0	-0.016486019
34	0x3e15d815	0.1463321
35	0x3dcff78b	0.10154637
36	0xbcc11a47	-0.0235721
37	0x3b8e9430	0.0043511614
38	0x3d3908bd	0.04517435
39	0xbdb7c865	-0.08973769
40	0xbe098790	-0.13430619
41	0x3e38fcaa	0.18065134
42	0x3dea541d	0.114418246
43	0xbd983c0c	-0.07433328
44	0x3d46106a	0.048355497
45	0x3d4821c2	0.04886032
46	0xbd3fa192	-0.046784945
47	0xbc65a31d	-0.01401594
48	0xbdcd127b	-0.100132905
49	0x3e1d5a49	0.15366472
50	0xbd7333ba	-0.059375502
51	0x3e209f90	0.15685868
52	0x3d77c0a3	0.060486447
53	0x3d2bb58a	0.041921176
54	0x3e46b646	0.1940547
55	0xbcb93b19	-0.022611188
56	0x3e2ba926	0.16763744
57	0x3ddd4935	0.10804979
58	0xbe3df082	-0.18548778
59	0xbe00d146	-0.12579831
60	0xbd8f8371	-0.07007492
61	0xbdb98d83	-0.09060194
62	0xbe1a2a9a	-0.15055314
63	0xbe3302a2	-0.17481473
64	0x3e8ded26	0.27719992
65	0x3e3fd2a6	0.187327
66	0xbdd8bf43	-0.10583355
67	0x3d4742c9	0.048647676
68	0xbd881717	-0.06645029
69	0xbe3d0145	-0.18457516
70	0xbe7b2a23	-0.24527793
71	0x3e536489	0.2064382
72	0xbda81bfd	-0.08208463
73	0xbe3bd88c	-0.18344325
74	0x3ddf6858	0.10908574
75	0x3cad2cdb	0.021139553
76	0xbd1f84a8	-0.03894487
77	0x3d6da9da	0.05802331
78	0xbe488d07	-0.19585048
79	0xbe4bd8fd	-0.19906993
80	0xbdb645a0	-0.08899999
81	0x3cfc24b4	0.03077922
82	0x3d230f50	0.039809525
83	0xbe30c49f	-0.17262505
84	0x3de76eec	0.113004535
85	0x3d8d14b7	0.06888717
86	0xbc5654d9	-0.013081753
87	0xbc9d19a5	-0.019177267
88	0x3e8a5603	0.27018747
89	0xbd9a1818	-0.07524127
90	0x3e33bf79	0.1755351
91	0x3e091585	0.13387115
92	0xbe5252ff	-0.20539473
93	0xbdc42578	-0.09577459
94	0xbda61669	-0.08109743
95	0xbd52d08b	-0.051468413
96	0xbe58d864	-0.21176296
97	0xbd905239	-0.07046933
98	0xbd1667e1	-0.03672016
99	0x3d5cb512	0.05388362
100	0x3cd2f6d0	0.025752455
101	0xbe17641a	-0.1478428
102	0xbe51a3be	-0.20472619
103	0x3d8fdeb9	0.07024903
104	0x3d70df3e	0.05880665
105	0xbd899391	-0.06717599
106	0xbdbb4be1	-0.09145332
107	0xbd13ff21	-0.03613198
108	0x3e83659c	0.2566346
109	0xbcf61db3	-0.030043459
110	0x3db226c8	0.08698803
111	0x3e3c1627	0.18367825
112	0xbde6dab9	-0.11272187
113	0xbe003985	-0.12521942
114	0xbe4028ec	-0.1876561
115	0x3d4b6518	0.049656957
116	0x3d163b3e	0.03667759
117	0xbd28981a	-0.04116068
118	0xbd781176	-0.060563527
119	0x3d92cc0d	0.07167826
120	0x3d38017c	0.04492329
121	0x3e379632	0.17928389
122	0xbd02d4ff	-0.03194141
123	0xbd64481e	-0.05573284
124	0x3df001f9	0.11719126
125	0x3cc693dc	0.024240427
126	0x3e3c116d	0.18366022
127	0xbe86c9b1	-0.26325753
128	0xbd96393f	-0.073351376
129	0xbd02e82c	-0.031959698
130	0xbe5faecc	-0.21844023
131	0xbe17daaf	-0.14829515
132	0x3cbd93eb	0.023141822
133	0xbda72018	-0.08160418
134	0x3dfe065b	0.12403556
135	0x3dcc0f07	0.09963804
136	0x3e7766cd	0.24160309
137	0xbe2c893e	-0.16849229
138	0xbb9cf7f9	-0.004790303
139	0x3e1f59f1	0.15561654
140	0xbde8e0d1	-0.11371005
141	0x3d26935d	0.04066788
142	0xbd702bf8	-0.058635682
143	0xbe5acd3e	-0.21367356
144	0x3e0fbb5b	0.14036314
145	0xbe3c2c88	-0.18376362
146	0x3e3a9e76	0.1822451
147	0xbe7ac245	-0.2448817
148	0xbd4e0a36	-0.050302707
149	0xbd86fb84	-0.065909415
150	0xbd2e84d0	-0.04260713
151	0xbbc3d5f8	-0.005976435
152	0x3d18939b	0.037250143
153	0xbcb3d0f7	-0.021950228
154	0x3c97b846	0.018520486
155	0x3d132722	0.03592599
156	0xbdd0842a	-0.10181458
157	0xbd16bf40	-0.036803484
158	0xbcdab856	-0.026699226
159	0x3db160e4	0.086610585
160	0xbe53a998	-0.20670164
161	0x3e25d528	0.16194594
162	0xbb7fb7dd	-0.0039019503
163	0x3d9d4a11	0.07680143
164	0x3d41a074	0.04727216
165	0xbb9649a9	-0.0045864177
166	0x3da6385f	0.08116221
167	0x3d948122	0.07251193
168	0xbc2d86ed	-0.010591251
169	0xbda5bf76	-0.08093159
170	0x3e2dfb83	0.16990475
171	0xbe2895ee	-0.16463444
172	0xbd855e90	-0.06512177
173	0x3e1d3846	0.15353498
174	0xbc52d3bb	-0.012867863
175	0xbd5f2dea	-0.054487146
176	0xbdcb482c	-0.09925875
177	0x3d82e659	0.063915916
178	0x3e4a2a13	0.19742613
179	0xbe4948da	-0.19656697
180	0xbe3d5406	-0.18489084
181	0x3d27c9dc	0.040963992
182	0x3d7e9941	0.062157873
183	0xbe3e7f46	-0.18603238
184	0xbbb535d9	-0.005530101
185	0x3d6f6c31	0.05845279
186	0xbc9778b1	-0.018490167
187	0x3da07ceb	0.07836326
188	0x3d71cad8	0.059031337
189	0xbd42b085	-0.047531623
190	0xbe055961	-0.13022377
191	0xbde89f9e	-0.113585696
192	0x3ca4882d	0.020084465
193	0x3e89f082	0.26941305
194	0x3db7ac1e	0.089683756
195	0x3e0544ee	0.13014576
196	0xbd52dee2	-0.05148209
197	0x3e076eec	0.13225907
198	0xbdd76c99	-0.1051876
199	0x3d0cdc9e	0.034390084
200	0x3e19bfe8	0.15014613
201	0xbdcf5754	-0.101240784
202	0x3d4f3ae5	0.050593276
203	0xbe2ad3ef	-0.16682409
204	0x3d086589	0.033299956
205	0xbd39ee43	-0.04539324
206	0xbdc08083	-0.09399512
207	0xbd806789	-0.06269748
208	0x3c37a4b7	0.011208705
209	0x3d63fa62	0.055658706
210	0x3d198c88	0.037487537
211	0x3e63e012	0.22253445
212	0x3b08dd40	0.0020883828
213	0xbc6864f4	-0.014184225
214	0xbc8413f7	-0.016122801
215	0x3bfb6f9a	0.007673216
216	0x3c8e7057	0.017387552
217	0xbd0c0d8c	-0.034192607
218	0x3b0c8bbe	0.0021445598
219	0xbc2bb410	-0.010479942
220	0xbdff7679	-0.12473769
221	0x3bfaea15	0.0076572993
222	0x3e4b58ca	0.19858089
223	0xbda82eb2	-0.082120314
224	0x3b10264e	0.0021995488
225	0xbc89fab6	-0.016843181
226	0xbe0642e4	-0.13111454
227	0x3d393bf7	0.045223203
228	0xbe2e34cd	-0.1701233
229	0xbcdc5cd9	-0.026899742
230	0xbccd8147	-0.025086058
231	0x3d220cfe	0.03956317
232	0x3cc34ed4	0.0238413
233	0x3dcae435	0.09906808
234	0xbc350be2	-0.011050196
235	0xbd4f25fd	-0.050573338
236	0x3e2f67c7	0.17129432
237	0xbd1bb1c6	-0.038011335
238	0xbe6cec26	-0.23136958
239	0x3d812948	0.06306702
240	0xbda3dbde	-0.08000921
241	0xbd802d2c	-0.06258616
242	0x3dc127db	0.0943143
243	0x3bd28dd9	0.006425601
244	0x3e7190e9	0.23590435
245	0xbdfb08d8	-0.12257546
246	0x3e0796c5	0.13241108
247	0xbe60e4e7	-0.2196232
248	0xbdfd346e	-0.12363516
249	0x3e1ac5a8	0.15114462
250	0x3dbe5fc0	0.092956066
251	0x3de57c84	0.1120539
252	0x3dcab442	0.09897663
253	0x3cae40ea	0.021271188
254	0xbd377b89	-0.044795547
255	0x3da6a327	0.081365876

encoder_seq.4.bias f4 [39]
0	0x3d8dee77	0.06930249
1	0xbd0c85d7	-0.034307327
2	0x3e1f96be	0.15584847
3	0xbc487162	-0.012234064
4	0xbdd40e43	-0.10354283
5	0xbce0061a	-0.02734666
6	0x3e15c27c	0.14624971
7	0xbe331bd0	-0.17491078
8	0xbd64a619	-0.055822466
9	0x3d89a097	0.06720083
10	0x3e030cd7	0.12797867
11	0xbd6cab0a	-0.057780303
12	0xbe12a47f	-0.14320563
13	0xbdae929a	-0.08524056
14	0x3d97671f	0.07392716
15	0x3cbc3f52	0.022979412
16	0x3d7c28fc	0.061562523
17	0xbd533ce0	-0.051571727
18	0x3dd9266b	0.10603031
19	0xbc455ffe	-0.012046812
20	0x3d3b65ac	0.04575126
21	0xbe20f088	-0.15716755
22	0xbe01f7b8	-0.12692153
23	0xbe41c65e	-0.18923327
24	0xbce0fff5	-0.0274658
25	0x3aa38785	0.0012476301
26	0xbe1cc175	-0.15308173
27	0xbda4b200	-0.08041763
28	0xbe07805f	-0.13232563
29	0x3cef3d64	0.029204078
30	0x3df78dab	0.12087568
31	0xbe5d4b34	-0.21610719
32	0xbdbccde0	-0.09218955
33	0xbdf158d2	-0.11784519
34	0xbc2ef2af	-0.010677977
35	0x3e00c5a5	0.12575395
36	0x3d4261b8	0.047456473
37	0x3d9e8221	0.07739664
38	0x3e0f3f02	0.1398888

encoder_seq.6.weight f4 [11, 39]
0	0xbe0d9ac9	-0.13828577
1	0x3d9b8cee	0.075952396
2	0x3debdbb6	0.11516516
3	0xbd3cca7b	-0.046091538
4	0xbbcf458d	-0.00632543
5	0x3c8bdb1b	0.017072251
6	0xbe8483c4	-0.2588178
7	0xbea683f7	-0.32522556
8	0xbd8b7e76	-0.0681123
9	0xbcea09ef	-0.02856919
10	0xbd1c86df	-0.03821456
11	0x3e58485e	0.21121356
12	0x3d72de9d	0.05929433
13	0xbdd5f692	-0.1044742
14	0x3da7581b	0.08171102
15	0xbe0f6a1c	-0.14005321
16	0xbd64ff5c	-0.055907592
17	0xbdd57b9b	-0.104239665
18	0x3e7b2996	0.24527583
19	0x3d354d15	0.044262964
20	0xbdca16c9	-0.09867627
21	0xbd762498	-0.060093492
22	0xbe087cb5	-0.13328822
23	0xbd9fd4e6	-0.07804279
24	0x3e491f7e	0.1964092
25	0x3e4f3924	0.20236641
26	0x3e1ebb47	0.15501128
27	0xbd96482f	-0.07337987
28	0x3da27bab	0.07933744
29	0xbe39f042	-0.18158057
30	0xbd718914	-0.05896862
31	0x3d2170df	0.039414283
32	0xbdf084f1	-0.117441066
33	0xbe9d0d77	-0.30674335
34	0x3d4d5ee8	0.050139338
35	0x3c559849	0.013036796
36	0x3df2c8ae	0.11854683
37	0x3d4d04d0	0.050053418
38	0x3d9bd046	0.076080844
39	0x3d395401	0.045246128
40	0x3e92f5ac	0.28703058
41	0xbcbbea7d	-0.022938961
42	0xbe99fb58	-0.30074573
43	0xbda4e6d1	-0.08051837
44	0x3ee13c7d	0.4399146
45	0xbd5ea83d	-0.054359663
46	0xbe4c7c72	-0.19969347
47	0x3e8af550	0.27140284
48	0x3dd91b52	0.10600914
49	0xb9b9f99f	-0.00035471932
50	0xbdbc0bb1	-0.091819175
51	0x3de5bee3	0.112180494
52	0xbe76145b	-0.24031202
53	0xbd95a952	-0.07307686
54	0xbd5c0da6	-0.053723954
55	0xbe962330	-0.2932372
56	0xbcba8114	-0.022766627
57	0xbe316a9e	-0.17325827
58	0x3ec08bb9	0.376066
59	0x3e874b67	0.26424715
60	0xbe5423e6	-0.20716819
61	0x3deb476c	0.11488232
62	0x3e562960	0.20914221
63	0x3e198548	0.14992249
64	0xbd0a22c5	-0.033724565
65	0xbbfc3f66	-0.0076979874
66	0xbea3d6d3	-0.31999835
67	0x3b82d823	0.0039930507
68	0x3d667694	0.05626543
69	0xbdbd5f2d	-0.09246669
70	0x3e2b4496	0.16725382
71	0x3d57799f	0.05260622
72	0x3d1f501f	0.03889477
73	0xbe0dd60b	-0.13851182
74	0xbdfabb53	-0.122427605
75	0xbe7d77d7	-0.24752747
76	0x3d328010	0.04357916
77	0xbde0fbfc	-0.10985562
78	0xbcb555bc	-0.022135608
79	0x3b334d76	0.0027359403
80	0xbdd6f877	-0.1049661
81	0x3c85544a	0.016275544
82	0xbe02548a	-0.12727562
83	0x3db8fc3d	0.09032486
84	0xbe79b1d8	-0.24384248
85	0x3d52a8f8	0.051430672
86	0xbd92d59d	-0.0716965
87	0x3e799e84	0.24376875
88	0x3e344732	0.17605284
89	0x3e8861e0	0.26637173
90	0xbd7e3b0a	-0.062068023
91	0x3da05e3d	0.078304745
92	0xbd5fd7a0	-0.054648995
93	0x3de31c40	0.11089373
94	0xbcfbe4cf	-0.030748753
95	0x3e076038	0.13220298
96	0xbe58bef9	-0.211666
97	0xbd6b6d39	-0.05747721
98	0x3cb7609a	0.02238493
99	0xbe13648f	-0.14393829
100	0xbd250074	-0.040283635
101	0xbdd0dd45	-0.10198454
102	0xbc05c0d1	-0.008163647
103	0xbe924803	-0.28570566
104	0x3e184d79	0.14873303
105	0xbe000416	-0.12501559
106	0x3d21516d	0.039384294
107	0x3d5d3600	0.054006577
108	0x3e10fd4e	0.14159128
109	0x3e8f7860	0.28021526
110	0xbd0a7e26	-0.03381171
111	0x3e2ce239	0.16883172
112	0xbd7b65b2	-0.06137628
113	0x3e829a15	0.2550818
114	0xbe4b9a00	-0.19882965
115	0xbe1c786d	-0.15280314
116	0xbbfa813b	-0.0076448
117	0xbdbbad38	-0.09163898
118	0xbe9ab12c	-0.30213296
119	0xbe170273	-0.14747028
120	0xbec7613a	-0.38941365
121	0xbeedf1fc	-0.46473682
122	0xbe83279a	-0.2561615
123	0x3da2eff3	0.07955923
124	0x3de457ae	0.11149536
125	0xbdbb1f3e	-0.09136818
126	0xbe648a0b	-0.22318284
127	0xbe786e2f	-0.24260782
128	0xbe01e6de	-0.12685725
129	0x3e09dfec	0.13464326
130	0xbb0e7ebf	-0.0021743027
131	0x3df9b9a4	0.12193611
132	0x3e14f477	0.14546381
133	0x3eafc249	0.34327915
134	0xbe914c6e	-0.28378624
135	0xbaf9f176	-0.0019069153
136	0xbd1bec7d	-0.03806733
137	0x3dec6af2	0.11543836
138	0xbe6ca560	-0.2310996
139	0xbe2b6907	-0.16739284
140	0x3e38662c	0.18007725
141	0x3d9bfbac	0.07616362
142	0xbe0356fc	-0.1282615
143	0x3e02a5a1	0.12758495
144	0x3ca42dea	0.020041425
145	0x3ea5b26d	0.3236269
146	0x3d4e7ea3	0.05041374
147	0xbe438852	-0.19094971
148	0x3e67029c	0.22559589
149	0x3e7cb90a	0.24679962
150	0xbea741e6	-0.32667464
151	0xbcac4422	-0.021028582
152	0xbe83055b	-0.25590023
153	0x3dba895b	0.0910823
154	0xbe200534	-0.15626985
155	0x3de8eaeb	0.11372932
156	0xbd7ded83	-0.061994087
157	0x3e3bfb14	0.18357497
158	0xbe2e9589	-0.1704923
159	0x3d272787	0.04080918
160	0xbddf81be	-0.10913418
161	0x3db193b0	0.08670747
162	0x3e87b6af	0.26506564
163	0xbea48e9e	-0.32140058
164	0xbd6d0005	-0.057861347
165	0x3e041a14	0.12900573
166	0xbe2e8aae	-0.1704509
167	0xbda4a2a6	-0.08038835
168	0xbd98e794	-0.07466045
169	0xbaf4c798	-0.0018675206
170	0x3cf47768	0.029842094
171	0x3dc8ca7c	0.09804246
172	0xbe4bdcd4	-0.19908458
173	0xbe26d642	-0.1629267
174	0x3e2bfd80	0.16795921
175	0x3df62a0e	0.1201974
176	0x3db348c4	0.08754113
177	0x3d6edd92	0.058316775
178	0x3d2f7bdb	0.042842727
179	0x3d16a242	0.036775835
180	0xbe2bacc9	-0.16765131
181	0xbe3f7317	-0.18696247
182	0x3e96abaf	0.2942786
183	0x3d140891	0.036140982
184	0xbaff1679	-0.0019461653
185	0xbdf525e7	-0.1197012
186	0x3e22d0ea	0.15900007
187	0xbcb9356c	-0.022608481
188	0xbcc66993	-0.024220264
189	0x3d3fe819	0.046852205
190	0x3d1f6fd7	0.03892502
191	0x3d8cbc45	0.06871847
192	0x3df2f0fe	0.11862372
193	0xbe4ec19b	-0.20191042
194	0x3d532d8d	0.051557112
195	0xbe2c62bf	-0.16834544
196	0xbdacc29b	-0.084355555
197	0x3e1d510d	0.1536295
198	0xbe8ab3e3	-0.27090368
199	0x3bc52c52	0.0060172463
200	0xbef7bf8b	-0.48388323
201	0xbda36842	-0.0797887
202	0x3ee3e339	0.44509295
203	0x3d500580	0.050786495
204	0x3e4d7fd3	0.20068292
205	0xbdc4f42e	-0.09616886
206	0x3cdb1987	0.02674557
207	0x3e731f8d	0.23742504
208	0x3df60291	0.12012208
209	0x3d75bd1a	0.059994794
210	0x3e11d8fc	0.14242929
211	0x3e2c035b	0.16798155
212	0x3d57ccf6	0.0526857
213	0xbce9adf3	-0.028525328
214	0x3dc96bac	0.0983499
215	0x3e25673e	0.16152665
216	0x3e926d38	0.28598952
217	0x3dee771a	0.116438106
218	0x3d98b608	0.07456595
219	0x3e125bd8	0.14292848
220	0x3e5f68c5	0.2181731
221	0x3e4466da	0.1917986
222	0xbe1032cb	-0.14081876
223	0x3e40c268	0.1882416
224	0xbe7e414f	-0.24829601
225	0x3e35e18e	0.17761824
226	0x3e7a4a80	0.24442482
227	0xbe0a5cbb	-0.13511936
228	0xbe819abb	-0.25313362
229	0x3c54235f	0.012947886
230	0x3ec09c27	0.37619135
231	0x3d78cb3b	0.06074069
232	0xbd9125ff	-0.07087325
233	0xbe01cd05	-0.12675865
234	0xbca23744	-0.019801743
235	0x3e27fa5c	0.16404098
236	0x3c7044e7	0.014664865
237	0xbda01a79	-0.07817549
238	0xbe7e92f0	-0.2486074
239	0xbd586233	-0.052828025
240	0xbc125dcd	-0.008933497
241	0x3d80f50c	0.06296739
242	0xbe8b3de3	-0.27195653
243	0x3e9df0de	0.3084783
244	0x3dd2fb53	0.103018425
245	0x3d346fcc	0.04405193
246	0xbe2c662e	-0.16835853
247	0x3d39d7fe	0.045372
248	0xbd82fe80	-0.06396198
249	0xbe1c34eb	-0.15254562
250	0x3dc99a39	0.09843869
251	0xbd1dc15b	-0.038514476
252	0xbe0afaf5	-0.13572295
253	0x3dc4610d	0.095888235
254	0xbd07b69b	-0.03313313
255	0xbe634d3e	-0.22197434

encoder_seq.6.bias f4 [11]
0	0x3ccd2fcf	0.025047211
1	0xbc1004e2	-0.008790227
2	0xbd232266	-0.039827727
3	0x3dc8770a	0.0978833
4	0xbd9e1a3e	-0.07719849
5	0xbd06da4e	-0.032923035
6	0x3dee70b1	0.11642588
7	0x3d2a73b6	0.041614257
8	0xbdbdb917	-0.09263819
9	0xbca4f963	-0.020138448
10	0x3bec83e3	0.0072178706

decoder_seq.0.weight f4 [39, 11]
0	0x3f2677e2	0.65026677
1	0x3e672319	0.22571982
2	0x3f184ad4	0.5948918
3	0x3eace8e2	0.33771425
4	0xbef0a2f8	-0.46999335
5	0xbec288ee	-0.37995094
6	0x3d14cd3a	0.03632853
7	0xbf556eeb	-0.8337237
8	0xbe571a91	-0.21006228
9	0x3e07c392	0.13258198
10	0xbe9d9307	-0.30776235
11	0x3e176048	0.14782822
12	0xbe29a00e	-0.16564962
13	0xbe48ae64	-0.19597775
14	0x3c8fad3d	0.017538661
15	0x3df0d116	0.1175863
16	0xbefe40ed	-0.4965891
17	0x3f1d4471	0.6143256
18	0x3f2d842d	0.6777981
19	0xbe7c2110	-0.24621987
20	0xbe0524da	-0.13002339
21	0x3e8b8991	0.27253392
22	0x3e1373ff	0.14399718
23	0xbe224285	-0.15845688
24	0xbc27d810	-0.010244384
25	0x3dab79b5	0.08372823
26	0x3e37386b	0.17892615
27	0x3e96fe57	0.2949092
28	0x3e40adae	0.18816254
29	0x3e16ce36	0.147271
30	0xbe573338	-0.21015632
31	0xbe52a354	-0.20570117
32	0x3e8bb563	0.27286825
33	0x3eecf0e2	0.4627753
34	0xbddce8ba	-0.107865766
35	0xbe621d26	-0.22081432
36	0x3d723046	0.05912807
37	0xbe7695fc	-0.24080652
38	0x3e693250	0.22773099
39	0x3f0a1cce	0.539502
40	0xbe8f1f65	-0.2795364
41	0xbdbaa774	-0.091139704
42	0x3ec51b36	0.38497323
43	0x3dccd34f	0.100012414
44	0x3ed772b8	0.4207971
45	0xbed49b2f	-0.41524646
46	0x3d788ccd	0.060681153
47	0xbecf22cd	-0.40456238
48	0xbe74d013	-0.23907499
49	0x3ea32d80	0.3187065
50	0x3efed12c	0.4976896
51	0x3ef6e37a	0.48220426
52	0xbf0fc4d0	-0.5615969
53	0x3e7749af	0.24149202
54	0xbee1ac77	-0.44076893
55	0xbf11a0bc	-0.56885886
56	0xbeb6f2a2	-0.3573199
57	0x3f9190d9	1.1372329
58	0x3f6dc6e9	0.9288164
59	0xbd42fd66	-0.04760494
60	0x3df1459d	0.11780856
61	0x3ea9c71c	0.3315972
62	0x3ec6913c	0.3878268
63	0x3e7c7d67	0.24657212
64	0x3ec64096	0.3872115
65	0xbcc04ce4	-0.023474164
66	0x3f1fefb2	0.6247512
67	0x3e9f24c9	0.31082752
68	0xbbccd0cf	-0.006250478
69	0xbe810caa	-0.25204974
70	0xbf04d2a4	-0.5188391
71	0x3edaef97	0.42760918
72	0x3f2e5308	0.68095446
73	0x3f095806	0.5364994
74	0x3f859903	1.043732
75	0xbe611d45	-0.21983822
76	0xbe85145a	-0.2599209
77	0x3e66b6f4	0.22530729
78	0xbe42366e	-0.18966076
79	0xbef5e689	-0.48027447
80	0xbe980871	-0.2969394
81	0xbd564f10	-0.052321494
82	0xbe9b6f8e	-0.30358547
83	0xbebef078	-0.37292838
84	0xbed47770	-0.41497374
85	0xbe74dd31	-0.23912503
86	0xbdf30771	-0.11866654
87	0xbf0eb3ca	-0.55743086
88	0xbe91c062	-0.2846709
89	0xbefec380	-0.4975853
90	0xbe1b3b72	-0.15159395
91	0xbee77f21	-0.4521418
92	0x3ddcc6b4	0.10780087
93	0xbf0b3b9c	-0.5438783
94	0x3e645fe4	0.22302204
95	0xbf0707ea	-0.5274645
96	0x3f4a9889	0.79139
97	0x3e93e23d	0.28883544
98	0x3e778b50	0.24174237
99	0xbd08f5d5	-0.03343757
100	0xbe207c2d	-0.1567237
101	0xbe05a552	-0.13051346
102	0xbe6cf474	-0.23140126
103	0xbda19a31	-0.07890738
104	0x3e744e9c	0.23858112
105	0xbd99bf3c	-0.07507178
106	0xbc95a959	-0.018269228
107	0x3df1d733	0.11808624
108	0xbf1c99a3	-0.6117193
109	0xbdd5d310	-0.104406476
110	0xbf45b917	-0.7723555
111	0xbf2ab16c	-0.66676974
112	0xbe899e37	-0.2687852
113	0x3ef92c01	0.48666385
114	0x3e802c03	0.25033578
115	0x3eb350bf	0.35022542
116	0x3f3b9d0c	0.7328651
117	0x3d1decc8	0.03855589
118	0xbdfda338	-0.12384647
119	0x3d5c110f	0.053727206
120	0xbe551c0a	-0.20811477
121	0x3e9a8555	0.3017985
122	0x3ea2d467	0.31802675
123	0x3eb22f55	0.34801736
124	0xbee1981e	-0.4406137
125	0xbe3c90a7	-0.18414555
126	0x3e459bae	0.19297668
127	0x3e8a9ee4	0.2707435
128	0x3ee8beac	0.4545797
129	0xbf088163	-0.5332243
130	0x3e3e0603	0.18556981
131	0xbd93552d	-0.0719398
132	0xbe9a77f2	-0.30169636
133	0xbe9de4ea	-0.3083871
134	0x3eb751e0	0.35804653
135	0xbf21a9b9	-0.631496
136	0x3e97d5ae	0.29655212
137	0xbe299d39	-0.16563882
138	0x3ee3cead	0.4449362
139	0x3f3e991a	0.74452364
140	0x3e25657c	0.16151994
141	0xbea8ea3f	-0.32991216
142	0x3f11f7cb	0.5701873
143	0x3e14d592	0.14534596
144	0x3d0e3b07	0.03472426
145	0x3ec1fe66	0.37889403
146	0xbe943610	-0.28947496
147	0x3ead5185	0.33851257
148	0x3cb06305	0.021531591
149	0xbbe44f37	-0.006967451
150	0x3eb53647	0.35392973
151	0x3e24e41d	0.16102643
152	0xbed10eb4	-0.4083153
153	0xbe379083	-0.1792622
154	0xbf1e8178	-0.61916304
155	0x3f7dbcc4	0.9911616
156	0x3f3d08ce	0.7384156
157	0x3c840486	0.016115438
158	0x3ec77610	0.38957262
159	0x3ea7e66c	0.32792985
160	0x3e9a3904	0.30121624
161	0xbd53c2d8	-0.05169949
162	0x3ea57717	0.3231742
163	0xbde56aab	-0.11201986
164	0x3e2e6624	0.17031151
165	0xbdc42942	-0.09578182
166	0xbecc3375	-0.3988301
167	0x3dccfdb2	0.10009326
168	0xbea5e097	-0.3239791
169	0x3f50ca03	0.81558245
170	0x3eebb84b	0.46039042
171	0xbdef6f51	-0.11691154
172	0xbf7f7c1c	-0.9979875
173	0x3e538500	0.20656204
174	0x3edead11	0.43491414
175	0x3e1e32d8	0.15449083
176	0xbf35c84a	-0.7100874
177	0x3ec2755f	0.37980172
178	0x3f1a2ca0	0.6022434
179	0xbde5e86b	-0.11225971
180	0xbed99e91	-0.4250379
181	0x3efacfd3	0.48986682
182	0x3f113b1f	0.56730837
183	0xbee3a1f3	-0.44459495
184	0x3f4d328b	0.8015525
185	0xbdff05e1	-0.12452293
186	0x3d8a9acd	0.06767807
187	0xbeca1182	-0.39466482
188	0xbe0fe6c7	-0.14052878
189	0x3ebcc048	0.3686545
190	0xbe76b0e8	-0.24090922
191	0xbe8fed00	-0.28110504
192	0x3cbb3965	0.022854516
193	0x3eff4881	0.49860004
194	0xbdb7e1a5	-0.08978585
195	0xbeeb27ad	-0.45928708
196	0x3e5e8eb7	0.21734129
197	0x3e885681	0.26628497
198	0xbebdd74b	-0.37078318
199	0xbe55d8e8	-0.20883524
200	0x3e653639	0.22383966
201	0x3d811899	0.0630352
202	0xbf4ae663	-0.7925779
203	0xbe7ecc21	-0.24882556
204	0x3dac70f8	0.084199846
205	0x3cddffc9	0.027099507
206	0x3f2a45fd	0.66513044
207	0x3e87f3d7	0.26553223
208	0xbdf405e6	-0.119151875
209	0x3eac9d42	0.33713728
210	0xbeb17349	-0.34658268
211	0x3debf236	0.115208074
212	0xb954d967	-0.00020298884
213	0xbe623579	-0.2209071
214	0xbd05f45f	-0.032703754
215	0xbeec677f	-0.4617271
216	0xbe765c8a	-0.24058738
217	0xbd4345c4	-0.047673956
218	0x3ed34e67	0.41270754
219	0xbe994aa1	-0.2993975
220	0xbe099b4e	-0.1343815
221	0xbf30f5ea	-0.69125235
222	0xbece30f0	-0.4027171
223	0x3dea5216	0.11441438
224	0xbf4c4b69	-0.79802567
225	0x3ebabfe8	0.36474538
226	0xbefbe8fb	-0.49201187
227	0x3d96eee2	0.07369782
228	0xbe239c48	-0.15977585
229	0xbe8c892d	-0.27448407
230	0x3eab57be	0.3346538
231	0xbd8a377d	-0.06748865
232	0x3e61ded0	0.22057652
233	0xbe493811	-0.19650294
234	0x3cf8eecc	0.030387305
235	0xbf04554e	-0.51692665
236	0x3eaa4133	0.33252868
237	0xbef6136f	-0.48061702
238	0xbbe488db	-0.0069743223
239	0x3eb71d25	0.35764423
240	0xbeb3bf23	-0.35106763
241	0xbdb18182	-0.0866728
242	0xbecd1c8f	-0.4006085
243	0xbd238b63	-0.03992785
244	0xbd7fafad	-0.062423397
245	0xbf2770ff	-0.65406793
246	0xbf733a0d	-0.95010453
247	0xbe8e7ade	-0.27828115
248	0x3f51f27d	0.8201063
249	0xbf9dd1d8	-1.2329664
250	0xbf918675	-1.1369158
251	0xbf0ca908	-0.5494542
252	0xbf10849c	-0.56452346
253	0xbddc085e	-0.107437834
254	0x3fb04bbc	1.3773112
255	0xbf830a08	-1.0237436

decoder_seq.0.bias f4 [39]
0	0xbe2ee3a6	-0.17079028
1	0xbb9a21db	-0.004703743
2	0xbdd9079f	-0.10597157
3	0xbd32cf14	-0.043654516
4	0x3e1a1dea	0.15050474
5	0x3ea7b645	0.32756248
6	0xbdc8141c	-0.097694606
7	0xbeb0af04	-0.34508526
8	0x3e09b490	0.13447785
9	0xbe8d081e	-0.27545255
10	0xbeb7ee12	-0.3592382
11	0xbe066c4a	-0.13127246
12	0xbd7a10cb	-0.06105117
13	0xbe88687a	-0.2664221
14	0x3dc29669	0.09501345
15	0x3e456fa9	0.19280876
16	0x3e98c0c1	0.2983456
17	0x3d3e6c88	0.046490222
18	0xbcf92c48	-0.030416623
19	0x3e4662e3	0.1937366
20	0x3de10dcb	0.10988959
21	0xbe845217	-0.2584388
22	0x3e88d505	0.2672502
23	0x3e0ec56b	0.13942496
24	0x3e9fb680	0.31193924
25	0x3e274845	0.16336162
26	0xbe0db748	-0.13839447
27	0xbdd05dab	-0.10174116
28	0xbd7f9e47	-0.062406804
29	0xbe346513	-0.17616682
30	0xbd66ab19	-0.056315515
31	0xbe8f4f9c	-0.27990425
32	0x3c355661	0.011067958
33	0xbd8223ac	-0.0635446
34	0x3e7a7b9a	0.24461213
35	0xbe968e1b	-0.29405293
36	0x3e6f179d	0.23348852
37	0x3e463324	0.19355446
38	0xbd90ba42	-0.07066776

decoder_seq.2.weight f4 [68, 39]
0	0x3da82d66	0.08211784
1	0xbd890cfa	-0.06691928
2	0x3e05f5a8	0.13081992
3	0x3debc88a	0.11512859
4	0x3e17c7f6	0.14822373
5	0xbc1d5d1a	-0.009604717
6	0x3e42b38b	0.19013803
7	0x3d5a1f01	0.053252224
8	0xbebcf428	-0.36905026
9	0x3d26524e	0.040605836
10	0x3e1eedd6	0.15520415
11	0x3e791b00	0.24326706
12	0xbdbfb6c8	-0.09361035
13	0x3dd403c0	0.10352278
14	0x3e541ec7	0.20714866
15	0xbe42788c	-0.18991297
16	0x3cbc473f	0.022983192
17	0xbe6c62a8	-0.2308451
18	0x3dad68bb	0.084672414
19	0xbd795816	-0.06087502
20	0xbe087d05	-0.13328941
21	0x3ef3c709	0.4761279
22	0xbe9b963c	-0.30388057
23	0x3e4ea5b2	0.20180395
24	0xbcec351a	-0.028833915
25	0x3c35e616	0.01110222
26	0xbd153ba5	-0.036433835
27	0xbe3f0e5d	-0.18657823
28	0xbe15c9f3	-0.14627819
29	0xbecb8bc2	-0.39755064
30	0xbe12b71c	-0.14327663
31	0x3ddea107	0.10870557
32	0xbe48f617	-0.19625126
33	0x3dd54434	0.10413399
34	0xb9cf99a9	-0.00039596602
35	0x3e0caf59	0.13738765
36	0xbd9d1c81	-0.07671452
37	0xbded5fab	-0.11590513
38	0x3e1ec16e	0.15503475
39	0x3e992afd	0.2991561
40	0x3d358b70	0.04432243
41	0x3f0b46da	0.54404986
42	0x3f0359c2	0.51308835
43	0x3d51a016	0.05117806
44	0xbd93fadb	-0.07225581
45	0x3e1d1372	0.15339449
46	0xbdf09c76	-0.117485926
47	0x3f36dce8	0.71430826
48	0x3e7b292e	0.24527428
49	0x3d22d8e4	0.039757624
50	0x3d04eee9	0.032454405
51	0x3efadf4a	0.4899848
52	0x3e98c9fb	0.298416
53	0x3eca5ab7	0.39522335
54	0x3cddb195	0.027062217
55	0x3eeb205b	0.45923123
56	0x3eda2060	0.42602825
57	0x3abe03f3	0.0014497027
58	0xbea6adc3	-0.32554445
59	0x3e109a64	0.14121395
60	0xbe07de87	-0.13268481
61	0x3f048035	0.5175813
62	0xbe89d70f	-0.2692189
63	0xbe932d0e	-0.28745311
64	0xbd33dac4	-0.043909803
65	0x3e4ef8e6	0.20212135
66	0x3e8c943f	0.27456853
67	0x3e517809	0.20455946
68	0x3e17bb59	0.14817561
69	0x3e51e0d6	0.20495924
70	0xbe211e86	-0.157343
71	0xbe864793	-0.26226482
72	0xbe198983	-0.14993863
73	0xbdab9aa5	-0.083791055
74	0xbdcacadf	-0.09901976
75	0xbe96df01	-0.29467013
76	0xbf094083	-0.5361406
77	0x3d75fb81	0.060054306
78	0x3ee19c44	0.44064534
79	0x3c813310	0.015771419
80	0x3cbc481d	0.022983605
81	0xbe1e625a	-0.15467206
82	0xbdda4eae	-0.10659538
83	0xbdc7a918	-0.09749049
84	0x3dc1c4e1	0.0946138
85	0xbe833a0f	-0.25630233
86	0xbe8fbb74	-0.28072703
87	0xbe2e84cc	-0.17042845
88	0xbf0a6f06	-0.5407566
89	0xbbe9b588	-0.007132236
90	0x3d9b6a88	0.075886786
91	0xbd06e979	-0.0329375
92	0x3ead6532	0.33866268
93	0x3e014c08	0.1262666
94	0xbe7aed1d	-0.24504514
95	0xbe99406c	-0.29931962
96	0xbd9dd013	-0.07705703
97	0x3dae8cf7	0.08522981
98	0xbf5a9b49	-0.85393196
99	0xbe283173	-0.16425113
100	0xbea52b41	-0.32259563
101	0xbebcee88	-0.36900735
102	0x3e864bf1	0.26229814
103	0x3e8eaaf3	0.278648
104	0x3dfb8132	0.122805014
105	0x3d963645	0.0733457
106	0xbddf77cc	-0.10911521
107	0xbdeb686b	-0.114945255
108	0xbe857921	-0.26068977
109	0x3ce4045a	0.027834106
110	0x3dd53f04	0.1041241
111	0xbe9b1c01	-0.30294803
112	0xbda784ac	-0.08179602
113	0xbe82040c	-0.25393713
114	0x3e808022	0.25097758
115	0x3da29c5e	0.07939981
116	0x3ea66ac2	0.32503325
117	0xbd8a33ac	-0.06748137
118	0x3d87c5f3	0.06629553
119	0x3d49a6e9	0.049231444
120	0x3eea48c1	0.45758632
121	0x3e7fba55	0.24973424
122	0xbcbbacbf	-0.02290952
123	0x3e1a6798	0.1507858
124	0x3cef1d97	0.029188914
125	0xbe89df9f	-0.26928422
126	0xbe33bd64	-0.17552716
127	0x3db3604b	0.08758601
128	0x3da3720b	0.07980736
129	0xbd7f5c70	-0.062344015
130	0xbde82d22	-0.113367334
131	0x3df24707	0.11829954
132	0x3d8bd499	0.06827659
133	0x3e5e965a	0.21737042
134	0x3e23a7d4	0.1598199
135	0x3e1a0f67	0.15044938
136	0xbd3c6845	-0.045997877
137	0x3e950422	0.29104716
138	0xbdddb984	-0.108264
139	0x3c61a319	0.013771796
140	0xbdfa8d35	-0.12233964
141	0x3d8151f7	0.06314462
142	0xbe0ad632	-0.13558272
143	0x3e3d4280	0.18482399
144	0xbdfc3a39	-0.123157926
145	0x3ccee87f	0.025257347
146	0xbeb0fc68	-0.3456757
147	0xbe0b79cc	-0.1362068
148	0xbe8518c4	-0.25995457
149	0xbd8f477e	-0.06996058
150	0xbdd605e5	-0.10450343
151	0xbc0d1c20	-0.008612663
152	0xbe54c6c8	-0.20778954
153	0x3e143a5e	0.1447539
154	0x3d56d9d5	0.052453835
155	0x3c7fac67	0.015605069
156	0x3e857ad1	0.26070264
157	0xbe39c371	-0.18140961
158	0x3ec9ba95	0.39400163
159	0xbe1e2c4b	-0.15446584
160	0xbe0ce11b	-0.13757746
161	0x3d59c6d7	0.053168144
162	0x3e63c472	0.22242907
163	0xbbb86221	-0.0056269323
164	0xbc8e8a32	-0.017399881
165	0x3e9f23bd	0.31081954
166	0x3e8ab61a	0.27092057
167	0x3d0f3d2c	0.034970447
168	0x3d45eb4a	0.048320092
169	0x3e549a38	0.20761955
170	0x3e3ecb70	0.18632293
171	0xbd86c746	-0.06580977
172	0x3e729600	0.23690033
173	0x3cc5af4e	0.024131443
174	0xb9db21d4	-0.0004179614
175	0xbf048c9d	-0.5177706
176	0xbee047a3	-0.43804654
177	0x3ecab170	0.395885
178	0x3d3f8bcf	0.04676419
179	0x3e00557e	0.12532613
180	0xbe391950	-0.18076062
181	0xbec20ba6	-0.37899512
182	0xbe6e41e9	-0.2326733
183	0xbe3e3b86	-0.18577394
184	0xbd4b9cd1	-0.0497101
185	0xbdf975bd	-0.1218066
186	0x3e78ea02	0.24308017
187	0x3e9ad0e6	0.30237502
188	0x3ce5cd70	0.028052062
189	0xbda15679	-0.078778215
190	0xbc826864	-0.015918918
191	0x3e9f2b82	0.3108788
192	0xbe25d4eb	-0.16194503
193	0xbec65cc5	-0.38742653
194	0xbf04f056	-0.51929224
195	0xbf023f6e	-0.50878036
196	0x3da28347	0.079351954
197	0xbe92a14d	-0.28638688
198	0xbef1caf8	-0.47225165
199	0x3e7352f9	0.2376212
200	0xbe805318	-0.25063396
201	0xbee44032	-0.44580227
202	0x3de0a639	0.109692045
203	0xbdfe50cf	-0.12417757
204	0x3dc6848f	0.09693252
205	0xbec38b87	-0.38192388
206	0xbdd3fe9b	-0.103512965
207	0xbdd2fea2	-0.103024736
208	0xbe367275	-0.178171
209	0xbecfcf6c	-0.40587938
210	0x3e1ef297	0.15522228
211	0xbf283a70	-0.6571417
212	0xbebf1703	-0.37322244
213	0xbe17cd21	-0.14824344
214	0x3e5f5345	0.21809109
215	0x3f3ab7cc	0.729367
216	0xbdba9044	-0.09109548
217	0xbe636ae9	-0.22208752
218	0x3e818969	0.25300148
219	0xb82b058e	-4.077475e-05
220	0x3e522c35	0.20524676
221	0x3ad66be1	0.0016359055
222	0x3dbc0cd9	0.09182138
223	0xbe54caf4	-0.20780545
224	0x3e0cec1a	0.1376194
225	0x3e61d957	0.22055565
226	0xbd044a04	-0.03229715
227	0xbdaa2fb5	-0.08309881
228	0x3e780cc0	0.24223614
229	0x3de142d0	0.109990716
230	0x3c29a62c	0.01035456
231	0x3d948e05	0.072536506
232	0x3ec29ddb	0.3801106
233	0x3d2ab7a8	0.041679054
234	0x3ea285a1	0.31742576
235	0x3e30d44a	0.17268482
236	0xbf57974b	-0.8421523
237	0xbc8a2e19	-0.016867684
238	0xbdcf6b12	-0.10127844
239	0x3db7bcd8	0.08971566
240	0xbe43a88a	-0.19107261
241	0xbbd14c6b	-0.0063872836
242	0xbdb3b825	-0.08775357
243	0xbe9ad058	-0.3023708
244	0xbe6da024	-0.2320562
245	0xbe6893ad	-0.22712584
246	0xbebf5467	-0.3736908
247	0xbeab4797	-0.33453056
248	0x3e1eda69	0.15513004
249	0x3e565fe4	0.20935017
250	0xbe2521d6	-0.16126189
251	0x3f1a6c01	0.6032105
252	0xbe75672d	-0.2396514
253	0x3d735d50	0.05941516
254	0xbf710a8d	-0.94156724
255	0xbf0e9725	-0.5569938

decoder_seq.2.bias f4 [68]
0	0xbdcae661	-0.099072225
1	0x3c232300	0.009957075
2	0xbd7b5c06	-0.061367057
3	0xbd25e4a4	-0.04050125
4	0xbe76b407	-0.24092112
5	0x3e67a45d	0.22621293
6	0x3ec6903f	0.38781926
7	0xbca346a3	-0.019931143
8	0x3e505d2c	0.20348042
9	0xbd1b496d	-0.03791182
10	0xbe585c53	-0.21128969
11	0xbe7e3a1b	-0.24826853
12	0x3ec234a6	0.37930793
13	0x3e37edb5	0.17961772
14	0xbdb68e7b	-0.08913895
15	0x3e92754b	0.28605112
16	0x3cdda705	0.02705718
17	0xbe20a2f3	-0.1568716
18	0x3c53f435	0.012936641
19	0x3e99815b	0.29981503
20	0x3df18d06	0.11794476
21	0x3c3c1164	0.011478756
22	0x3d987575	0.07444278
23	0xbf6e3d5a	-0.93062365
24	0xbe158d15	-0.146046
25	0xbd44af2b	-0.048018616
26	0x3ddd012c	0.10791239
27	0x3dd0faa9	0.1020406
28	0xbcc0635f	-0.023484884
29	0x3e65773e	0.22408769
30	0x3d7d9634	0.061910823
31	0x3cf1fc26	0.029539179
32	0xbdeff0a1	-0.11715818
33	0x3e2b3682	0.16720012
34	0xbe255148	-0.16144288
35	0xbe0cbd16	-0.13744006
36	0x3e977bce	0.29586643
37	0xbe280533	-0.16408233
38	0xbe2b2b51	-0.16715743
39	0xbdd8627a	-0.10565658
40	0xbe043813	-0.12912016
41	0xbd629104	-0.05531408
42	0x3d5a2076	0.053253613
43	0xbe84ce6f	-0.25938746
44	0x3cf2668a	0.02958991
45	0xbcea4615	-0.02859787
46	0x3d29144c	0.041279122
47	0xbbb06872	-0.0053835446
48	0xbe2008c4	-0.15628344
49	0xbe5914a7	-0.21199284
50	0x3e6ee564	0.23329693
51	0xbda8955e	-0.082316145
52	0x3e23b494	0.15986854
53	0xbe07993b	-0.13242047
54	0xbc88b77c	-0.016689055
55	0x3e3988e1	0.18118621
56	0xbe2c7c52	-0.168443
57	0x3dcd12a5	0.10013322
58	0x3e59f40c	0.21284503
59	0xbb7e79d6	-0.0038829944
60	0xbe1e6d59	-0.154714
61	0x3e947e44	0.29002583
62	0xbdbe8ce9	-0.0930422
63	0x3ce6994e	0.028149273
64	0xbba3c199	-0.004997444
65	0x3e0e85a6	0.1391817
66	0xbe2e7aa0	-0.17038965
67	0xbd3bab21	-0.045817498
