code/laser/training/trained_data/DAE_DTI/train_DAE_Latent11final.pt (torch, 183462 bytes, 16 tensors)

encoder_seq.0.linear.weight f4 [97, 126]
0	0x00000000	0.0
1	0x3d35dcc4	0.04439999
2	0xbdd04c9a	-0.101708606
3	0xbd66d7b5	-0.056358058
4	0xbb76d27f	-0.0037662087
5	0xbd71f59e	-0.05907213
6	0x3bf430fd	0.007452129
7	0x3d563ab9	0.052302096
8	0x3d1a7257	0.0377067
9	0x3e23d76c	0.16000146
10	0xbd04b430	-0.032398403
11	0x00000000	0.0
12	0xbc0cdf36	-0.0085981395
13	0xbd1bcb32	-0.03803558
14	0x3b801ba8	0.003909547
15	0xbd887afd	-0.06664083
16	0xb9d353da	-0.0004030753
17	0x3d7b1b94	0.061305597
18	0xbd0186e2	-0.031622775
19	0xbd263244	-0.04057528
20	0x3d9c87f7	0.07643121
21	0x3dbda6d0	0.092603326
22	0x00000000	0.0
23	0x3d85ebca	0.06539114
24	0x3d4e0fba	0.050307967
25	0xbb1be35c	-0.002378664
26	0x3da4d672	0.08048715
27	0x3d1f8948	0.03894928
28	0xbcfe16d4	-0.031016745
29	0x3db1f514	0.08689323
30	0xbbe69555	-0.0070368447
31	0x3dceaf8d	0.100920774
32	0xbdd07354	-0.10178247
33	0x00000000	0.0
34	0xbd56fbd5	-0.05248626
35	0xbd86c446	-0.06580405
36	0xbd439b24	-0.047755376
37	0x3e0eb902	0.13937762
38	0x3d0875ba	0.033315398
39	0x3deb95a4	0.11503151
40	0x3ce9d1ab	0.02854236
41	0x3caca34e	0.021073963
42	0x3daa463b	0.08314177
43	0x3c1525f7	0.00910329
44	0x00000000	0.0
45	0x3c8bde74	0.017073847
46	0x3dcc9ec2	0.09991218
47	0xbc2e5dda	-0.010642493
48	0xbd255ca8	-0.040371567
49	0x3d0d832b	0.03454892
50	0x3c8f21c3	0.017472154
51	0x3c03884d	0.008028102
52	0x3db2d430	0.08731878
53	0x3d897f4b	0.06713732
54	0x3d6085ce	0.054815106
55	0x00000000	0.0
56	0x3def7d1f	0.11693787
57	0xbd912a63	-0.07088163
58	0x3ba28e8c	0.0049608406
59	0xbde51a2e	-0.11186634
60	0x3d868d5b	0.0656993
61	0x3cd9bc45	0.026579032
62	0xbd6885ad	-0.05676811
63	0xbd6318d8	-0.055443615
64	0x3d4870e1	0.048935775
65	0x3c362255	0.011116584
66	0x00000000	0.0
67	0x3d87cfad	0.06631408
68	0x3d4e6d46	0.05039718
69	0x3d6091b2	0.054826446
70	0x3cfcc87d	0.030857319
71	0xbd24d07e	-0.040237896
72	0x3ddff3d3	0.10935178
73	0x3d86f385	0.065894164
74	0x3dba1fb1	0.09088076
75	0xbcfe9ba3	-0.031080073
76	0x3bed8de3	0.00724958
77	0x00000000	0.0
78	0xbc75ff2a	-0.015014449
79	0xbd58695c	-0.052834854
80	0x3d7c5128	0.061600834
81	0x3d738090	0.05944878
82	0x3d82cdea	0.06386931
83	0xbe08079c	-0.13284153
84	0xbcef7349	-0.029229777
85	0x3c7b3a5b	0.015333737
86	0x3d433c25	0.04766478
87	0xbd4a3a12	-0.049371786
88	0x00000000	0.0
89	0xbdf7a149	-0.120913096
90	0x3cd90312	0.026490722
91	0x3d5277db	0.051383834
92	0x3d3582e3	0.044314276
93	0x3dace00a	0.084411696
94	0x3d4f2b28	0.050578266
95	0xbe0eb7e3	-0.13937335
96	0xbcb4dde4	-0.022078462
97	0xbd56e639	-0.05246565
98	0x3cd5e893	0.026111877
99	0x00000000	0.0
100	0x3d232cdf	0.039837714
101	0x3e06747f	0.13130377
102	0x3db15664	0.08659056
103	0x3aaaf950	0.0013044272
104	0xbd5e773d	-0.054312933
105	0x3d9a00ae	0.07519661
106	0x3c8e48ca	0.017368693
107	0x3d37e5e7	0.044896986
108	0xbcff1c3f	-0.031141398
109	0x3d9e0aba	0.0771689
110	0x00000000	0.0
111	0x3dd75487	0.10514169
112	0xbc31ee0e	-0.010859979
113	0xbcae73ef	-0.021295516
114	0x3da010fc	0.078157395
115	0xbd1f4dea	-0.038892664
116	0xbdd182a9	-0.102299996
117	0xbc4cd85f	-0.012502759
118	0x3cf975d1	0.030451687
119	0x3a8a1ebc	0.0010537724
120	0x3d29d5c5	0.041463632
121	0x00000000	0.0
122	0x3d642d3e	0.05570721
123	0xbb86b575	-0.004110987
124	0xbb729a3d	-0.0037018203
125	0xbd8a2b71	-0.06746567
126	0x00000000	0.0
127	0xbcb3f10a	-0.021965522
128	0x3e041d2b	0.12901752
129	0x3d3544cf	0.044255074
130	0xbd6431e4	-0.055711642
131	0x3dec09f6	0.115253374
132	0x3da6e3ea	0.0814894
133	0xbd6bbd41	-0.057553533
134	0xbdcb8ae7	-0.09938603
135	0xbd9f8b19	-0.07790203
136	0x3d90d11f	0.07071137
137	0x00000000	0.0
138	0x3df223ce	0.118232355
139	0x3e00abe2	0.12565568
140	0x3e139ccb	0.1441528
141	0x3e4cb19d	0.19989629
142	0x3defe984	0.117144614
143	0xbbf56e31	-0.0074899425
144	0xbdfe31a6	-0.124118134
145	0xbd151cf0	-0.03640455
146	0x3c85a91f	0.016315995
147	0x3e17570a	0.14779297
148	0x00000000	0.0
149	0x3bebe29f	0.007198646
150	0x3d9c12e0	0.076207876
151	0x3e0c5a7c	0.13706392
152	0xbcc1b200	-0.023644447
153	0x3d75cf25	0.060012
154	0x3db603f4	0.08887473
155	0x3c973c16	0.018461268
156	0xbd83dddc	-0.06438801
157	0xbcc911e3	-0.024544662
158	0x3e081d2e	0.13292381
159	0x00000000	0.0
160	0x3df1c230	0.118046165
161	0x3e5163fc	0.20448297
162	0x3e26267f	0.16225623
163	0xbc46eb7d	-0.012141106
164	0x3db4ea15	0.0883371
165	0x3e1de1a1	0.15418102
166	0x3ddb2746	0.1070085
167	0xbd97b168	-0.074068844
168	0x3d87f0a3	0.06637695
169	0x3dd15f76	0.10223286
170	0x00000000	0.0
171	0xbcc7135a	-0.02430122
172	0x3c966c6d	0.018362248
173	0x3e0ba9df	0.1363902
174	0x3e214626	0.15749416
175	0x3e24f201	0.16107942
176	0x3da4275a	0.08015318
177	0x3ddaf876	0.106919214
178	0x3d9ef16a	0.0776089
179	0xbc6ab61f	-0.014325648
180	0xbcb181de	-0.02166837
181	0x00000000	0.0
182	0xbbc8e7fa	-0.0061311694
183	0x3e17c9ca	0.1482307
184	0x3dcdb5dd	0.10044453
185	0x3e008c85	0.12553604
186	0x3df40bae	0.1191629
187	0x3d5bbb85	0.05364563
188	0x3d6dbebd	0.05804323
189	0x3e598911	0.21243693
190	0xbbcb2813	-0.0061998456
191	0x3cda2f94	0.026634015
192	0x00000000	0.0
193	0x3d3980e1	0.045288924
194	0x3b21f640	0.0024713427
195	0x3b9fa253	0.0048716455
196	0x3d00476c	0.031318113
197	0x3e08ecd1	0.13371588
198	0x3c993e1f	0.01870638
199	0x3da5dbe3	0.08098581
200	0x3c735021	0.014850647
201	0x3e097f9a	0.13427582
202	0x3dd4788c	0.10374555
203	0x00000000	0.0
204	0x3e2b8f4f	0.16753887
205	0x3e0829bb	0.13297169
206	0x3d157176	0.036485158
207	0x3e352eb2	0.17693594
208	0x3d48eae2	0.049052127
209	0x3deb4436	0.114876196
210	0x3e20f040	0.15716648
211	0x3ccc2023	0.024917668
212	0x3e2469a5	0.16055925
213	0x3dde469f	0.10853314
214	0x00000000	0.0
215	0x3e44313e	0.1915941
216	0xbccf243d	-0.025285834
217	0x3deee0c1	0.11663962
218	0xbd5a8120	-0.0533458
219	0x3c8deed2	0.017325792
220	0x3d797079	0.060898278
221	0x3d8ff382	0.07028867
222	0x3dc4ae0d	0.0960351
223	0x3deea071	0.116516955
224	0xbb97e9b1	-0.0046360125
225	0x00000000	0.0
226	0xbbc1c36b	-0.005913188
227	0x3e0ca7bd	0.13735862
228	0x3d2cdc65	0.042202372
229	0x3dbf0b57	0.09328335
230	0x3e2097f4	0.15682966
231	0x3da5effb	0.08102413
232	0x3d942865	0.07234267
233	0x3daeac73	0.08528986
234	0x3e16f897	0.14743267
235	0x3dec5295	0.11539189
236	0x00000000	0.0
237	0x3dc67621	0.096905
238	0x3ddbaa01	0.10725785
239	0x3e1e13ac	0.15437192
240	0x3de5b378	0.112158716
241	0x3de0f666	0.10984497
242	0x3de26364	0.110541135
243	0xbcc497d0	-0.023998171
244	0x3e1a2b7a	0.15055647
245	0x3d4f1109	0.050553355
246	0x3dea8a2d	0.11452136
247	0x00000000	0.0
248	0xbbca485f	-0.006173178
249	0x3e293201	0.16522981
250	0x3dc849ff	0.09779739
251	0x3e1f7a93	0.15574102
252	0x00000000	0.0
253	0x3dbcd32b	0.092199646
254	0x3d603255	0.0547355
255	0x3d047fff	0.03234863

encoder_seq.0.linear.bias f4 [97]
0	0xbe1c1b73	-0.15244846
1	0x3c20988e	0.009801997
2	0xbd175e80	-0.036955357
3	0x3d7ff198	0.06248626
4	0xbf12ce5c	-0.5734613
5	0x3c21e8a0	0.009882122
6	0x3e1b2c35	0.15153582
7	0xbc7c79b4	-0.015409876
8	0x3e3f5dee	0.18688175
9	0xbd492b09	-0.049113307
10	0x3e03a081	0.12854196
11	0xbdeb2d24	-0.11483219
12	0x3d38e2e4	0.045138255
13	0xbdef08a2	-0.116715685
14	0x3d8bdfab	0.06829771
15	0x3de22cc1	0.110436924
16	0x3ef5b878	0.479923
17	0xba3f11b9	-0.00072887127
18	0xbc61508d	-0.013752115
19	0x3c5e41e8	0.013565518
20	0x3d4e8af5	0.05042549
21	0x3d137129	0.03599659
22	0xbdde9b90	-0.10869515
23	0x3ddb8a06	0.10719685
24	0x3e1d3f65	0.15356214
25	0xbd4f0931	-0.050545875
26	0x3f26d4f5	0.65168697
27	0xbd990b31	-0.07472838
28	0xbdb6256f	-0.08893859
29	0xbd488c62	-0.048962004
30	0xbdf0e2eb	-0.11762031
31	0xbc1308e9	-0.008974292
32	0xbe13f623	-0.14449362
33	0xbd72352b	-0.059132736
34	0x3be90a79	0.007111844
35	0xbe238c01	-0.15971376
36	0xbecb3425	-0.3968822
37	0xbdf48723	-0.11939838
38	0x3e8e06d9	0.277396
39	0xbd8e3c1e	-0.0694506
40	0x3e834fb3	0.25646743
41	0x3f38ed36	0.72236955
42	0xbda07bb5	-0.07836095
43	0x3a159af8	0.0005706991
44	0x3e6a1604	0.22859961
45	0x3d7f86bb	0.06238435
46	0x3bee28b9	0.007268038
47	0x3e193625	0.14962061
48	0x3e7b1b86	0.24522218
49	0xbd85ecfe	-0.06539343
50	0xbda185d1	-0.078868516
51	0x3e10431a	0.14088097
52	0xbdccb17a	-0.099947885
53	0x3e10575f	0.1409583
54	0xbec13f2f	-0.37743518
55	0x3ce451b1	0.027870985
56	0x3d570478	0.052494496
57	0x3c05169f	0.008123069
58	0xbd63131b	-0.055438142
59	0x3daf9949	0.08574159
60	0x3e846a23	0.25862226
61	0x3d12e58b	0.03586344
62	0xbefc3e4c	-0.4926628
63	0x3d98bcad	0.07457862
64	0xbd691749	-0.056906972
65	0x3b716055	0.00368311
66	0x3d68568f	0.056723174
67	0xbd90c2b8	-0.0706839
68	0x3e0ca642	0.13735297
69	0xbab07aa8	-0.0013464289
70	0xbde2c072	-0.11071862
71	0x3d86e41a	0.06586476
72	0xbe404a37	-0.1877831
73	0x3d8299ee	0.06377016
74	0x3da2f1b4	0.079562575
75	0xbd9dc064	-0.07702711
76	0xbe2040d7	-0.15649734
77	0x3e653b42	0.22385886
78	0x3d8bbc9d	0.068230845
79	0xbcf7b031	-0.030235382
80	0xbf3b3a4e	-0.7313584
81	0xbec7458a	-0.38920242
82	0xbce0c565	-0.027437875
83	0xbdf63f7e	-0.12023829
84	0x3dbb7fd2	0.09155239
85	0xbd47d070	-0.048782766
86	0xbd0cd5f0	-0.034383714
87	0xbe102c7b	-0.14079468
88	0x3de1167a	0.10990615
89	0x3dc2eddf	0.095180266
90	0x3d911914	0.070848614
91	0xbdaf090e	-0.08546649
92	0xbcfa92da	-0.030587602
93	0xbf0934f3	-0.5359642
94	0xbe415d6d	-0.18883295
95	0xbeaf1c7f	-0.34201428
96	0x3c7e322e	0.015514893

encoder_seq.2.weight f4 [68, 97]
0	0x3e972d81	0.29526904
1	0xbd1edc23	-0.038784157
2	0x3eaf65f0	0.3425746
3	0xbdcf3c8a	-0.10118969
4	0xbb109e23	-0.0022066913
5	0xbcfd6cb1	-0.030935617
6	0xbefb954d	-0.49137345
7	0x3c4c24f2	0.01245998
8	0x3ae9871b	0.0017816754
9	0xbde4c60e	-0.111705884
10	0xbd0c5d91	-0.03426892
11	0xbb5e2a51	-0.0033899734
12	0xbcd45eb3	-0.025924062
13	0x3e5ea4cf	0.21742557
14	0x3d946f61	0.07247806
15	0xbe1941af	-0.14966463
16	0xbf04d001	-0.5187989
17	0x3edf7c2c	0.43649423
18	0x3e4ae3a9	0.19813408
19	0x3d36c4ed	0.044621397
20	0x3e4eaf41	0.20184042
21	0xbd562e8a	-0.052290477
22	0x3ea7b667	0.3275635
23	0x3cc3e699	0.023913668
24	0xbde43a6e	-0.11143957
25	0x3dc1842c	0.09449038
26	0xbdbda246	-0.09259467
27	0xbe116050	-0.14196897
28	0x3d591eca	0.05300788
29	0xbd1a1de2	-0.037626155
30	0x3e550b83	0.20805173
31	0x3e9786ff	0.2959518
32	0x3c1ba58a	0.009499917
33	0x3d8713dc	0.06595585
34	0x3e261c1c	0.1622166
35	0xbd89021d	-0.06689856
36	0xbe7add31	-0.2449844
37	0xbc5ef9fd	-0.013609407
38	0xbc5676b5	-0.013089825
39	0xbe18addb	-0.1491007
40	0xbf45b5ab	-0.7723033
41	0xbe77a970	-0.24185729
42	0xbe05fc25	-0.13084467
43	0x3e18a751	0.14907576
44	0xbda4f27c	-0.08054063
45	0xbea084b6	-0.3135125
46	0xbe56f8ef	-0.20993398
47	0x3d941656	0.07230823
48	0xbdd14477	-0.10218137
49	0x3d962827	0.07331877
50	0xbc85aaad	-0.016316736
51	0xbed6f211	-0.41981557
52	0x3dc1e1ee	0.09466921
53	0xbdf2f09e	-0.118623
54	0xbdfe9820	-0.12431359
55	0x3e537f22	0.20653966
56	0xbe2c2d71	-0.1681421
57	0x3da9944e	0.0828024
58	0x3dc290b7	0.095002584
59	0x3e15a75d	0.14614625
60	0x3d90bf4f	0.07067739
61	0x3e124cec	0.14287156
62	0x3f5601b9	0.8359638
63	0xbca8e088	-0.020614877
64	0xbcc81e64	-0.024428554
65	0x3e8dc28b	0.27687487
66	0x3ca1f1d6	0.019768637
67	0x3e0888c8	0.13333428
68	0x3dd1a940	0.1023736
69	0x3da6a6fe	0.0813732
70	0x3d315cd2	0.04330141
71	0xbe4fdbe0	-0.2029872
72	0x3e8e8a17	0.2783973
73	0xbd5c0fb4	-0.053725913
74	0x3d0fc7ce	0.035102658
75	0xbe822162	-0.25416094
76	0xbd4ef87a	-0.050529934
77	0xbe501d51	-0.20323683
78	0xbe6c983f	-0.23104952
79	0xbdcedaaf	-0.10100304
80	0x3dae640a	0.08515175
81	0x3f44745b	0.76740044
82	0xbcf6d75d	-0.03013199
83	0xbc9cf997	-0.019161982
84	0xbee9c876	-0.45660752
85	0x3dfb181a	0.122604564
86	0xbe0fe672	-0.14052752
87	0xbcd456ba	-0.02592026
88	0x3e04a826	0.12954769
89	0x3dd22dc6	0.10262637
90	0x3dfbfe51	0.123043664
91	0x3d2d1785	0.042258758
92	0x3d83e169	0.06439478
93	0x3e3b1951	0.18271376
94	0xbe055572	-0.13020876
95	0xbcd6bcab	-0.02621301
96	0x3d83436d	0.06409345
97	0x3d2f4247	0.042787816
98	0x3dde1a4f	0.10844862
99	0xbe823c1b	-0.25436482
100	0x3cdab59e	0.02669793
101	0x3e5923b0	0.2120502
102	0x3d7bc041	0.061462644
103	0xbd19ade0	-0.037519336
104	0xbe31da39	-0.17368402
105	0xbd7551c8	-0.059892446
106	0x3e039131	0.12848355
107	0xbe4c4cae	-0.19951126
108	0xbdcb39a6	-0.09923105
109	0x3d6152c5	0.055010576
110	0x3e155f60	0.14587164
111	0xbdba1d5b	-0.0908763
112	0xbe956d7c	-0.29185092
113	0x3d8a907d	0.0676584
114	0x3e2b33e1	0.16719009
115	0xbcd52184	-0.026016958
116	0x3d97ce3a	0.074123815
117	0xbe39aa35	-0.18131335
118	0x3d3f51b0	0.046708763
119	0xbb532f9a	-0.0032224418
120	0x3db6f85f	0.08934092
121	0x3e4abba2	0.19798139
122	0x3d196076	0.037445508
123	0x3e08ca99	0.13358535
124	0xbd78d78a	-0.06075243
125	0xbb0b5fea	-0.0021266886
126	0x3ddba754	0.10725275
127	0x3c776ee5	0.015102123
128	0xbdfc4a7b	-0.123188935
129	0xbdd71f8e	-0.105040655
130	0xbccfadd9	-0.025351452
131	0xbc782ab9	-0.015146905
132	0x3d1101d5	0.035402138
133	0xbd56bb0e	-0.052424483
134	0x3e7ece60	0.24883413
135	0xbdf0ff1a	-0.11767407
136	0x3e032881	0.1280842
137	0x3be9c18c	0.0071336683
138	0x3d43445f	0.047672626
139	0x3e809e59	0.2512081
140	0x3d639d74	0.05557008
141	0x3ea40b42	0.3203984
142	0x3e3359b2	0.17514685
143	0x3e1913bf	0.14948939
144	0xbd341952	-0.04396946
145	0xbe8f651e	-0.28006834
146	0x3dd710e8	0.105012715
147	0x3e08997f	0.13339804
148	0xbd809a24	-0.062794
149	0xbdb7d87c	-0.08976838
150	0xbda57a5e	-0.0807998
151	0xbdef28c5	-0.11677698
152	0xbdb679ad	-0.089099266
153	0xbcb95c09	-0.022626894
154	0xbc513097	-0.012767932
155	0x3dce262e	0.10065876
156	0xbe4e3324	-0.20136696
157	0x3d1c7579	0.03819797
158	0x3dd121c9	0.10211522
159	0x3ea93155	0.3304545
160	0xbe2c5856	-0.16830572
161	0x3d31dd22	0.04342378
162	0xbe367262	-0.17817071
163	0x3de1a6b7	0.110181265
164	0x3d98e3c5	0.074653186
165	0x3e3e1ec9	0.18566431
166	0x3deaf069	0.11471636
167	0x3d86526b	0.06558689
168	0xbe2ec528	-0.17067397
169	0xbd163b7d	-0.036677826
170	0xbd64baca	-0.0558422
171	0x3c986f59	0.018607782
172	0xbd1620d0	-0.036652386
173	0x3dc48248	0.09595162
174	0xbe2819d9	-0.1641611
175	0xbdfe621f	-0.12421059
176	0xbd5c2c69	-0.05375329
177	0xbd919f44	-0.07110456
178	0x3ba6a98a	0.0050861286
179	0xbe103af6	-0.14084992
180	0x3d0a7d73	0.033811044
181	0xbc949a1b	-0.01813989
182	0x3d6916ed	0.05690663
183	0x3daa580c	0.08317575
184	0x3e295184	0.16535002
185	0x3c5ce83b	0.013483102
186	0x3d149566	0.03627529
187	0xbd80a885	-0.062821425
188	0x3da3595b	0.079760276
189	0x3ccba6f6	0.024859887
190	0x3e0b62dd	0.13611932
191	0x3d5be363	0.05368365
192	0x3e5700e7	0.20996438
193	0xbcbe8ef8	-0.023261532
194	0x3e4d3b35	0.20042117
195	0xbdca1060	-0.098664045
196	0x3d366ea6	0.044539116
197	0x3e102b3a	0.1407899
198	0xbd2158f1	-0.03939146
199	0x3dd9a7f1	0.106277354
200	0xbe2f2a9f	-0.17106102
201	0xbe270270	-0.16309524
202	0x3e0a9457	0.1353315
203	0xbd2ef65b	-0.04271541
204	0x3d3f29ba	0.046670653
205	0x3c92e851	0.017933043
206	0x3d9ef865	0.07762221
207	0xbec0d792	-0.37664467
208	0x3bc7c9fa	0.0060970755
209	0x3dd5afa3	0.10433891
210	0xbe0b9a64	-0.13633114
211	0xbd96a0cf	-0.073548906
212	0x3e0c5e62	0.13707879
213	0xbdfef6e7	-0.12449437
214	0x3e3ccb4c	0.18436927
215	0xbd48d17e	-0.049027912
216	0x3e789a85	0.24277695
217	0xbd0e68cc	-0.03476791
218	0xbd57d4b8	-0.0526931
219	0xbd9033b5	-0.07041112
220	0x3e014852	0.12625244
221	0xbcd77f9a	-0.026305962
222	0x3d29f0a0	0.041489244
223	0xbc122562	-0.008920046
224	0xbca829dc	-0.020527773
225	0x3c9b6c90	0.018972665
226	0xbe2adc2c	-0.16685551
227	0xbd83e33a	-0.064398244
228	0x3ddfa945	0.109209575
229	0x3e303bc4	0.17210299
230	0x3dd79af6	0.10527603
231	0x3d3b50e5	0.045731444
232	0x3d9117ff	0.07084655
233	0xbd3cfc70	-0.04613918
234	0x3b91771a	0.004439247
235	0x3e815c4b	0.25265726
236	0x3e230836	0.15921101
237	0x3dc21283	0.09476187
238	0x3efe5f95	0.49682298
239	0xbe4245de	-0.18971965
240	0xbd29cf02	-0.041457184
241	0x3df4c969	0.119524784
242	0x3dd22f02	0.10262872
243	0xbdb1c42a	-0.086799935
244	0x3c6a80f0	0.014312968
245	0x3e15e1fc	0.14636987
246	0x3b16f59c	0.0023034578
247	0x3df8ac18	0.12142199
248	0x3e692e8b	0.22771661
249	0x3d99303a	0.074799016
250	0xbde7142f	-0.112831466
251	0x3d70eadf	0.05881774
252	0xbd833d74	-0.06408206
253	0xbcb5fc39	-0.022214996
254	0x3c650d21	0.013980181
255	0xbe1d50d4	-0.15362865

encoder_seq.2.bias f4 [68]
0	0xbe54a39f	-0.20765541
1	0x3da4e674	0.08051768
2	0xbc7725c4	-0.015084688
3	0xbdcfb3ec	-0.10141739
4	0xbd79818d	-0.060914565
5	0x3bde67e1	0.0067872857
6	0x3e209694	0.15682441
7	0x3d692f4d	0.056929875
8	0x3bd05884	0.006358208
9	0x3e157c2e	0.14598152
10	0xbd488457	-0.048954334
11	0xbe2634b8	-0.16231048
12	0xbd02060c	-0.031744048
13	0x3e1c6c8d	0.15275784
14	0xbe83e5dc	-0.25761306
15	0x3e1a1889	0.15048422
16	0x3da9ffff	0.083007805
17	0x3d1ae23d	0.037813414
18	0xbda22b27	-0.07918387
19	0xbd378b7a	-0.04481075
20	0x3cd8b0f8	0.026451573
21	0xbdc4d7ef	-0.096114986
22	0x3f8a740f	1.0816668
23	0x3da51364	0.08060339
24	0xbbb4f51e	-0.0055223843
25	0xbcc3b0e8	-0.023888066
26	0x3e65b635	0.22432788
27	0x3d4105e9	0.047124777
28	0x3c2ca285	0.010536795
29	0x3da35847	0.07975822
30	0xbe802d68	-0.25034642
31	0xbc8769dd	-0.016529972
32	0x3e2590d4	0.16168529
33	0xbe08eaa6	-0.13370761
34	0x3d836e80	0.064175606
35	0x3be578ff	0.0070029492
36	0x3c8a13ca	0.01685514
37	0x3d420d24	0.047375813
38	0x3e7c5336	0.24641117
39	0x3df3c3e6	0.11902599
40	0xbf8c3d4e	-1.0956209
41	0x3e8a8392	0.27053505
42	0x3d87ded7	0.066343
43	0x3d4f6160	0.050629973
44	0xbdc61cee	-0.09673487
45	0x3c6ce593	0.014459032
46	0x3b5163d0	0.0031950362
47	0x3dee7931	0.11644209
48	0xbdec7e56	-0.11547534
49	0x3e23e9fa	0.16007224
50	0xbd1599fa	-0.036523797
51	0x3cbddadd	0.023175651
52	0xbcec8817	-0.028873486
53	0xbddaf0a8	-0.10690433
54	0xbdf1e651	-0.118115075
55	0xbda66abd	-0.081258275
56	0x3c2f347c	0.010693666
57	0xbdb967f6	-0.09053032
58	0x3dfe2919	0.124101825
59	0xbdcb7ac3	-0.09935524
60	0xbd94954c	-0.072550386
61	0xbcad9901	-0.021191122
62	0xbdefb903	-0.1170521
63	0x3d9c5ef6	0.076353
64	0xbe142487	-0.14467059
65	0x3e8674a0	0.26260853
66	0x3dd377bd	0.10325573
67	0xbd5cec7b	-0.053936463

encoder_seq.4.weight f4 [39, 68]
0	0x3e8b19d3	0.2716814
1	0x3e7d5bbf	0.2474203
2	0x3e52fd68	0.2060448
3	0x3e4733ec	0.194534
4	0x3d8fd456	0.07022922
5	0xbdbe93f4	-0.093055636
6	0x3cec0ac0	0.02881372
7	0x3dd04464	0.101692945
8	0x3c807687	0.015681518
9	0xbec137ad	-0.3773779
10	0x3d7a12d0	0.061053097
11	0x3d9cf549	0.07663972
12	0xbe1da64b	-0.15395467
13	0xbd479c10	-0.048732817
14	0x3ea6293e	0.3245334
15	0xbc7a9647	-0.015294618
16	0x3dcefbbd	0.10106609
17	0xbd03723c	-0.032091364
18	0x3e20a25a	0.15686932
19	0xbdca13d6	-0.09867065
20	0xbe8a6087	-0.2702677
21	0xbd97fb69	-0.074209996
22	0xbded3598	-0.11582488
23	0xbde05516	-0.10953729
24	0xbe0476c3	-0.12935929
25	0x3e865ded	0.26243535
26	0xbd916b7f	-0.071005814
27	0x3ea63c72	0.3246799
28	0xbdaed853	-0.08537354
29	0x3e15a657	0.14614235
30	0xbda25068	-0.079254925
31	0xbd983f82	-0.07433988
32	0x3eb51b09	0.3537219
33	0x3db1d96d	0.08684049
34	0x3deca8ce	0.115556344
35	0xbc9f0bf0	-0.019414872
36	0xbd20499f	-0.03913271
37	0xbbe34eb2	-0.0069368714
38	0x3de449eb	0.11146911
39	0xbded2e3a	-0.11581083
40	0x3d5b43c1	0.053531412
41	0x3d5bb752	0.053641625
42	0x3d52dd7c	0.051480755
43	0xbe47b4ee	-0.19502613
44	0xbcce57d9	-0.025188373
45	0x3da273cd	0.079322435
46	0x3c0927dd	0.008371321
47	0x3c3db27e	0.0115782
48	0x3e53a158	0.20667017
49	0xbbca3d77	-0.006171878
50	0x3c9522d4	0.018205084
51	0xbb6c56f2	-0.0036062566
52	0xbe2e3324	-0.17011696
53	0xbd2b7f9c	-0.041869745
54	0x3e78a3fa	0.24281302
55	0x3c1b7632	0.009488629
56	0x3e066700	0.13125229
57	0x3d655db8	0.05599758
58	0xbe078b8c	-0.13236827
59	0xbdad8d30	-0.08474195
60	0x3dfce83a	0.12348981
61	0xbd5f8061	-0.05456579
62	0xbeca7baa	-0.39547473
63	0xbd813277	-0.063084535
64	0x3da4d5be	0.080485806
65	0xbc300d68	-0.010745384
66	0xbe3797a4	-0.1792894
67	0x3d9f1b11	0.077688344
68	0x3c28607f	0.010276913
69	0x3d648ba6	0.05579724
70	0xbd2d4662	-0.04230345
71	0xbd90bba3	-0.07067039
72	0xbe85b852	-0.26117188
73	0xbe6394b8	-0.222247
74	0x3dd6465d	0.104626395
75	0x3d4265ca	0.047460355
76	0x3cf1ca36	0.029515367
77	0xbc83a954	-0.016071953
78	0xbc90d37e	-0.017678972
79	0xbd09a73d	-0.033606756
80	0xbc922f2e	-0.017844763
81	0x3d38e3ff	0.04513931
82	0x3d9f626d	0.07782445
83	0xbe091a3c	-0.13388914
84	0x3d755b8b	0.059901755
85	0xbd8168d1	-0.0631882
86	0xbc28523d	-0.010273513
87	0x3db2ae32	0.08724631
88	0x3d49395a	0.04912696
89	0xbca22cb7	-0.019796712
90	0x3e7d6652	0.24746063
91	0x3d9c1539	0.076212354
92	0xbc704691	-0.014665262
93	0x3d1d2ed3	0.038374733
94	0xbd9f54d5	-0.07779852
95	0xbbe691b5	-0.0070364126
96	0xbe1ecd24	-0.15507942
97	0xbe15d53c	-0.14632124
98	0xbcebb529	-0.028772907
99	0xbde75f11	-0.11297429
100	0x3d2fa84c	0.04288511
101	0xbdf382f4	-0.11890212
102	0xbe326fb8	-0.1742543
103	0x3e2772b0	0.16352344
104	0xbdddffb3	-0.108397864
105	0xbdf4077d	-0.11915491
106	0xbdaa54f7	-0.08316987
107	0x3c1eeaa2	0.0096994955
108	0x3d1453ce	0.036212735
109	0xbcb2b5ad	-0.021815145
110	0x3e38b7f6	0.18038926
111	0x3e1db022	0.1539922
112	0xbe17f7aa	-0.1484057
113	0xbd976887	-0.07392984
114	0xbd1f3e7f	-0.03887796
115	0x3e7dbfb9	0.24780168
116	0xbe1458e1	-0.1448703
117	0x3e05d508	0.13069546
118	0xbe3c04e3	-0.18361239
119	0x3cf00877	0.029300911
120	0xbd9c95bd	-0.07645748
121	0x3d585084	0.05281116
122	0x3d1a0bf7	0.037609067
123	0xbcd7f1ef	-0.02636048
124	0xbcb90b28	-0.022588328
125	0xbcfbd67b	-0.03074192
126	0x3e1cb609	0.15303816
127	0xbd4a5518	-0.049397558
128	0xbe51827e	-0.20459935
129	0x3e0228c2	0.1271086
130	0xbc3e2bec	-0.0116071515
131	0x3c7c8bda	0.015414203
132	0xbd83d0a8	-0.064362824
133	0x3e5a000e	0.21289083
134	0x3d86ee44	0.06588414
135	0x3de85136	0.11343615
136	0x3df0ca76	0.11757366
137	0xbe586a80	-0.21134377
138	0xbd88f7d8	-0.066878974
139	0x3df1ae5e	0.11800836
140	0x3d1db3b9	0.038501475
141	0xbcf5f586	-0.030024301
142	0xbe0b5805	-0.13607796
143	0xbe77904a	-0.24176136
144	0x3c53cb0a	0.012926826
145	0xbe082288	-0.13294423
146	0x3da4667c	0.0802736
147	0xbe481c0d	-0.1954195
148	0x3d072c18	0.033001035
149	0xbe4554ef	-0.19270681
150	0x3d6d6471	0.057957117
151	0x3d02f043	0.031967413
152	0xbb5e6fb0	-0.0033941083
153	0x3d0ce3a0	0.034396768
154	0x3e27b6b9	0.16378297
155	0x3d36877b	0.044562798
156	0xbcca7d96	-0.024718087
157	0xbd415982	-0.047204502
158	0xbe5832a4	-0.21113068
159	0xbdf178bb	-0.11790606
160	0xbd86370d	-0.06553469
161	0xbd449e35	-0.04800244
162	0xbcf95371	-0.030435296
163	0x3d0d3d93	0.03448255
164	0x3d423271	0.047411386
165	0x3d53c88e	0.051704936
166	0x3d89cccc	0.06728515
167	0x3d82d8e2	0.06389023
168	0xbe1ca61b	-0.15297739
169	0xbccba81a	-0.02486043
170	0x3d99b4c6	0.07505183
171	0xbe41497f	-0.18875693
172	0xbcfa1d13	-0.030531442
173	0xb9df087f	-0.00042540205
174	0x3b118727	0.0022205801
175	0xbe15a6c1	-0.14614393
176	0xbd01d404	-0.031696334
177	0x3d154adc	0.036448345
178	0xbd97db7d	-0.07414911
179	0x3ce0154f	0.02735391
180	0xbbd2a9c2	-0.006428928
181	0xbd039af3	-0.032130193
182	0x3d36108d	0.044449378
183	0xbe277b90	-0.16355729
184	0xbd888469	-0.0666588
185	0xbe378b73	-0.1792429
186	0x3e02225a	0.12708417
187	0x3dca2efe	0.09872244
188	0x3e46680b	0.19375627
189	0xbcacf179	-0.021111237
190	0xbd383be3	-0.044978987
191	0xbdc7fa6b	-0.0976456
192	0xbdcb064a	-0.09913309
193	0x3e283a73	0.16428547
194	0x3ca8dc21	0.020612778
195	0x3d477838	0.048698634
196	0x3deae37f	0.11469173
197	0x3d9ff6f7	0.07810777
198	0xbd2a5d84	-0.04159309
199	0x3dccf488	0.10007578
200	0x3e614308	0.21998227
201	0xbda604a4	-0.08106354
202	0xbd8002dc	-0.062505454
203	0xbe06919c	-0.13141483
204	0x3e10cecd	0.14141388
205	0x3e0ae70a	0.13564697
206	0x3c6ac792	0.014329808
207	0xbd972e86	-0.073819205
208	0x3d1f1002	0.038833626
209	0xbe86d688	-0.2633555
210	0xbb0420b6	-0.0020161099
211	0x3e3ac112	0.18237713
212	0x3d13d385	0.036090393
213	0x3dcbf644	0.09959081
214	0x3d98fe38	0.074703634
215	0x3d90d8fe	0.07072638
216	0xbdc5729c	-0.09641001
217	0xbe01da99	-0.12681045
218	0x3e15e64a	0.1463863
219	0x3d3a9a95	0.045557577
220	0x3d6967d2	0.056983776
221	0x3e179c32	0.14805678
222	0x3e2513c9	0.16120829
223	0x3de8faeb	0.11375984
224	0xbe63deee	-0.2225301
225	0x3d07ba3c	0.03313659
226	0xbc343766	-0.010999536
227	0xbdedfaad	-0.11620078
228	0xbdb7a55e	-0.08967088
229	0xbe0489a7	-0.12943135
230	0xbda617ad	-0.081099845
231	0xbe000a83	-0.1250401
232	0x3e45f1bf	0.193305
233	0x3da89682	0.08231832
234	0xbcc076c7	-0.023494137
235	0xbda03bc0	-0.078238964
236	0x3eb8d408	0.36099267
237	0x3d616f8d	0.055038024
238	0xbc8d9565	-0.01728315
239	0x3e05f7e8	0.1308285
240	0xbdcdb5d0	-0.100444436
241	0xbdb74c7d	-0.08950136
242	0x3cfce70b	0.030871889
243	0x3d990c38	0.07473034
244	0x3b1d7a27	0.0024029107
245	0x3db0bf09	0.08630187
246	0x3e0501f0	0.1298902
247	0x3db8804c	0.09008846
248	0xbd956be7	-0.07295971
249	0x3e507fbf	0.20361231
250	0x3cd42730	0.025897592
251	0x3dfe6bb4	0.124228865
252	0xbe48dfef	-0.19616674
253	0x3b0c6492	0.002142225
254	0x3e102639	0.14077081
255	0xbca3254d	-0.019915247

encoder_seq.4.bias f4 [39]
0	0x3d20086d	0.039070535
1	0x3ab10dee	0.001350818
2	0x3d72003d	0.05908226
3	0xbc65a046	-0.014015263
4	0x3be1d6ec	0.0068920758
5	0x3c210259	0.00982722
6	0x3d47a4e9	0.048741255
7	0xbe074f4c	-0.13213843
8	0xbe9fb8ca	-0.3119567
9	0x3da2666a	0.0792969
10	0x3af0393c	0.0018327604
11	0xbda26adc	-0.07930538
12	0xbda7e710	-0.081983685
13	0xbd108bd2	-0.035289593
14	0x3dc9a476	0.098458216
15	0x3dc41b6f	0.09575545
16	0x3d83f592	0.06443323
17	0x3c8bdaec	0.017072164
18	0xbd663785	-0.05620529
19	0xbcc19bbe	-0.023633834
20	0x3d9904a8	0.07471591
21	0xbdb1c5cc	-0.08680305
22	0x3a25d6c1	0.00063262513
23	0x3e0444d9	0.12916888
24	0xbcd43efb	-0.025908938
25	0xbd9c10bc	-0.07620379
26	0xbd6bcd48	-0.05756882
27	0xbd855e4d	-0.06512127
28	0xbe0c1ce3	-0.13682894
29	0xbd43638e	-0.047702365
30	0x3d9589d8	0.07301682
31	0xbdb80147	-0.08984619
32	0xbda3cf56	-0.079985306
33	0xbd3e48e9	-0.04645625
34	0xbe28d0c8	-0.16485894
35	0x3e05a623	0.13051657
36	0x3bdc12e9	0.0067161215
37	0xbdfca137	-0.12335437
38	0x3d8f5d07	0.070001654

encoder_seq.6.weight f4 [11, 39]
0	0xbe01b8a3	-0.1266809
1	0xbd7775d4	-0.060415104
2	0x3debc3f8	0.115119874
3	0xbdcbd2ec	-0.099523395
4	0xbe1eba55	-0.15500768
5	0x3d0ba49e	0.034092538
6	0xbde3ae5d	-0.111172415
7	0xbe9f8948	-0.31159425
8	0xbd0e489d	-0.03473722
9	0xbd9165c6	-0.0709949
10	0xbd888400	-0.06665802
11	0x3dfce727	0.12348776
12	0x3c84e5ab	0.016222795
13	0xbd9f1bbf	-0.07768964
14	0x3e068fd3	0.13140802
15	0xbe7be44d	-0.24598809
16	0x3de07036	0.109589025
17	0xbd9592d3	-0.07303395
18	0x3e38781f	0.18014573
19	0x3d367b79	0.044551346
20	0xbcd9e7af	-0.026599733
21	0xbe2bc94d	-0.16776009
22	0xbe6a9a8c	-0.22910517
23	0xbd676795	-0.056495268
24	0x3e387add	0.18015619
25	0x3e95ccbd	0.29257765
26	0x3e2207b5	0.15823252
27	0xbcbd09b7	-0.023075921
28	0x3d8bdceb	0.06829246
29	0xbd2b362f	-0.04179972
30	0xbdfe3699	-0.124127574
31	0x3e204dd7	0.15654694
32	0xbe1e0b18	-0.1543392
33	0xbe4c61d4	-0.19959193
34	0x3d2c7f70	0.04211372
35	0x3d876bc9	0.06612355
36	0x3e166fda	0.14691105
37	0x3d52026d	0.051271845
38	0x3da93092	0.08261217
39	0x3e833d6d	0.25632802
40	0x3e4ad1e6	0.19806632
41	0xbd243c06	-0.040096305
42	0xbde76c24	-0.11299923
43	0xbdf1f247	-0.11813789
44	0x3e1d7f22	0.15380529
45	0xbc82f300	-0.015985012
46	0xbdff273b	-0.124586545
47	0x3de4ec66	0.11177902
48	0x3c93eaf5	0.018056372
49	0x3de7c62b	0.113170944
50	0xbc12b2ab	-0.008953731
51	0x3f00938d	0.50225145
52	0xbaed7fa8	-0.001811971
53	0xbdf1b9de	-0.118030295
54	0xbd9bab9d	-0.07601092
55	0x3d951347	0.072790675
56	0x3d7eecb0	0.06223744
57	0x3d558b15	0.052134592
58	0x3e8d47df	0.27593896
59	0x3e88f458	0.2674892
60	0xbe170742	-0.14748862
61	0x3e0b198a	0.13583961
62	0x3e1e89ad	0.15482207
63	0x3e0e61e7	0.13904534
64	0x3c998c4e	0.01874366
65	0x3d850f02	0.06497003
66	0xbd4c8a8f	-0.049936827
67	0x3e19a705	0.15005119
68	0x3daab4a3	0.08335235
69	0x3de2056f	0.110361926
70	0x3e2ed74b	0.17074315
71	0x3dfdfbdb	0.12401553
72	0xba2f059d	-0.00066765567
73	0xbdc7e9fa	-0.09761424
74	0xbe281274	-0.1641329
75	0x3d0557c9	0.03255442
76	0x3da1f821	0.07908655
77	0xbe48b8d2	-0.19601753
78	0x3cab7944	0.020931847
79	0x3da09f70	0.0784291
80	0xbe6f3bb0	-0.23362613
81	0x3e2bcb60	0.167768
82	0xbd43fcd1	-0.047848526
83	0x3db24b3d	0.08705757
84	0xbe9aab09	-0.30208614
85	0x3e3a5cf3	0.1819952
86	0xbe241062	-0.16021875
87	0x3db4fbca	0.088370875
88	0x3dc8dfab	0.09808286
89	0x3e09ef13	0.13470106
90	0xbeb7076a	-0.35747844
91	0x3ce5fc43	0.02807439
92	0xbdb05327	-0.0860961
93	0x3d930f9e	0.07180713
94	0xbd8d6971	-0.06904877
95	0x3e1f7e5d	0.15575548
96	0xbe0b33b6	-0.13593945
97	0x3e02ee88	0.12786305
98	0x3b389e3e	0.0028170492
99	0xbdd2754d	-0.102762796
100	0xbd054fad	-0.032546688
101	0xbe03bb7d	-0.1286449
102	0xbd13232b	-0.03592221
103	0xbe520436	-0.20509419
104	0xbb47764d	-0.0030435503
105	0xbe4b5006	-0.19854745
106	0xbddc1935	-0.10746995
107	0x3d210d45	0.039319295
108	0x3d9093c0	0.07059431
109	0x3e0664b4	0.13124353
110	0x3b8261a2	0.003978924
111	0x3de95771	0.11393631
112	0xbdb0144c	-0.08597621
113	0x3e0030c1	0.12518598
114	0x3d202a0f	0.03910261
115	0xbde5e47a	-0.11225219
116	0xbda0224a	-0.0781904
117	0x3d482173	0.048860025
118	0xbe85279f	-0.2600679
119	0xbca3f45d	-0.020013982
120	0xbd2c5045	-0.04206874
121	0xbd310724	-0.0432197
122	0x3d672eee	0.05644124
123	0x3d979308	0.07401091
124	0x3dd21453	0.10257783
125	0x3e2bafe3	0.16766314
126	0xbe012726	-0.1261259
127	0xbd179825	-0.03701033
128	0xbd6f9675	-0.058493096
129	0x3d9a432d	0.07532344
130	0x3dc8f9dd	0.09813283
131	0x3e21623c	0.1576013
132	0x3e26a40e	0.1627352
133	0x3d9ec918	0.07753199
134	0xbdf166af	-0.117871635
135	0x3e506ce9	0.20354046
136	0x3d26f32c	0.04075925
137	0x3dd39818	0.10331744
138	0xbe1e2493	-0.1544364
139	0xbe3c7491	-0.18403842
140	0x3e0372d0	0.12836766
141	0x3da91f0b	0.08257874
142	0xbdb728b5	-0.08943311
143	0x3e420ed2	0.18950966
144	0x3e1ea116	0.15491137
145	0x3e60c417	0.21949802
146	0x3e40b15c	0.18817657
147	0xbdec99e5	-0.115527906
148	0x3e431487	0.190508
149	0x3e6a667a	0.22890654
150	0xbe26b8f5	-0.16281493
151	0x3dae9e16	0.08526246
152	0x3e0f39e3	0.13986926
153	0xbe8066bf	-0.2507839
154	0xbe25e41b	-0.16200297
155	0xbdf76a73	-0.120808505
156	0xbc8ae823	-0.016956395
157	0x3ccd623e	0.02507126
158	0xbe334d00	-0.17509842
159	0x3ccf078f	0.025272159
160	0xbd596225	-0.053072114
161	0xbe16d18f	-0.14728378
162	0x3e819252	0.25306946
163	0xbe21a0b0	-0.15783954
164	0xbd137e8c	-0.036009356
165	0x3e075c84	0.13218886
166	0xbdeb82a5	-0.11499528
167	0xbdf2924a	-0.11844309
168	0x3c685fae	0.014182968
169	0x3e920514	0.285195
170	0x3e114b1c	0.14188808
171	0x3decbcd8	0.115594566
172	0xbe04f25d	-0.12983079
173	0xbe4cdd41	-0.20006277
174	0x3d5f4cd4	0.05451663
175	0x3e100508	0.1406442
176	0xbd9b7567	-0.07590752
177	0x3cccee51	0.025015982
178	0xbc0dcfa8	-0.008655466
179	0x3e82642e	0.25467056
180	0xbe18ed65	-0.14934309
181	0xbd5efd28	-0.054440647
182	0x3e75af63	0.23992686
183	0x3e150dcc	0.14556044
184	0x3d786eb3	0.060652446
185	0xbe38fe05	-0.18065651
186	0x3e03c2d8	0.12867296
187	0xbd871e25	-0.065975465
188	0x3c6883f1	0.0141916135
189	0x3aacaf40	0.0013174787
190	0x3e60ee19	0.21965827
191	0x3e16d200	0.14728546
192	0x3e0c7792	0.13717487
193	0xbe222762	-0.15835336
194	0x3c3a81d5	0.011383493
195	0xbe801a52	-0.2502008
196	0x3e502225	0.20325525
197	0xbbd7e279	-0.006588277
198	0xbdf484a7	-0.11939364
199	0xbe3ca4f7	-0.18422304
200	0xbdb0f6db	-0.08640834
201	0xbdd8a748	-0.10578781
202	0x3df9ffee	0.12207018
203	0xbd8043bc	-0.06262919
204	0x3e4ff999	0.20310058
205	0xbe46f04e	-0.19427606
206	0x3e369000	0.17828369
207	0x3e857b24	0.2607051
208	0x3d890760	0.0669086
209	0xbb9e67ad	-0.0048341365
210	0x3e4608c6	0.19339284
211	0xbd67e0b5	-0.05661078
212	0xbcc98126	-0.024597716
213	0xbe0ca7e9	-0.13735928
214	0x3df9ae07	0.12191396
215	0x3db88d96	0.090113804
216	0x3e799eee	0.24377033
217	0x3e482bb8	0.19547927
218	0xbc60b598	-0.01371517
219	0xbd8d44a5	-0.068978585
220	0x3da8cb66	0.0824192
221	0x3e11787d	0.14206119
222	0xbdfc4501	-0.12317849
223	0x3dbfdf44	0.093687564
224	0xbe03e2b1	-0.12879445
225	0xbe2f29b6	-0.17105755
226	0x3da8e3e2	0.0824659
227	0xbe36f122	-0.17865422
228	0xbdfec399	-0.12439651
229	0xbc5b8d9d	-0.013400462
230	0xbd622d7d	-0.055219162
231	0x3e1051a5	0.14093645
232	0xbda81cb7	-0.08208602
233	0xbe3fe70d	-0.18740483
234	0x3dc54b78	0.09633535
235	0x3e31f73a	0.17379466
236	0xbda45897	-0.0802471
237	0xbe02ff43	-0.12792687
238	0xbdfa8f17	-0.122343235
239	0xbc4cce39	-0.012500339
240	0x3d72cdc5	0.05927827
241	0x3dd23d16	0.102655575
242	0xbe3d0824	-0.18460137
243	0x3e65f35a	0.22456113
244	0xbccb5bba	-0.024824012
245	0x3dbde4d3	0.092721604
246	0xbe24b3f8	-0.16084278
247	0xbd5b289b	-0.05350552
248	0xbbb83c6a	-0.0056224363
249	0xbde538c9	-0.111924715
250	0x3e08146f	0.13289045
251	0x3d9d1cc1	0.076715
252	0xbe93f424	-0.28897202
253	0x3c295b7d	0.010336754
254	0xbd6158b4	-0.055016235
255	0xbdf44d06	-0.119287536

encoder_seq.6.bias f4 [11]
0	0xbce772c6	-0.02825297
1	0x3cedbe28	0.029021338
2	0xbd1f1024	-0.038833752
3	0x3e27c391	0.16383196
4	0xbdaa8863	-0.08326795
5	0x3c91f480	0.017816782
6	0x3e1887ba	0.14895526
7	0xbb0ffe1e	-0.0021971534
8	0xbdf89e08	-0.12139517
9	0x3d0597db	0.032615524
10	0x3d879444	0.06620076

decoder_seq.0.weight f4 [39, 11]
0	0x3ea36057	0.3190944
1	0x3e549ffd	0.20764156
2	0x3f0c0928	0.5470147
3	0x3e10e216	0.14148745
4	0xbe6b3789	-0.22970404
5	0xbd8ee5b5	-0.06977407
6	0x3ead4e57	0.3384883
7	0xbefb4d80	-0.49082565
8	0x3d0abf04	0.033873573
9	0xbb4b7440	-0.0031044632
10	0xbd8ca0d6	-0.068666145
11	0x3eb74e27	0.35801813
12	0xbd985bb1	-0.07439364
13	0xbec5b293	-0.38612804
14	0x3df7ae99	0.12093849
15	0x3e91effa	0.285034
16	0xbedcafac	-0.43102777
17	0x3f1eb9d5	0.6200231
18	0x3e9b4fdd	0.30334368
19	0xbe8537f2	-0.26019245
20	0x3dd5d51d	0.10441039
21	0x3e2a44a0	0.16627741
22	0x3e165611	0.14681269
23	0xbdf1710d	-0.11789141
24	0x3ce1686c	0.027515613
25	0x3e466301	0.19373704
26	0x3e03db5a	0.12876645
27	0x3e939779	0.28826502
28	0xba8646de	-0.0010244509
29	0x3e88d991	0.2672849
30	0x3e1420e3	0.1446567
31	0xbe04410c	-0.12915438
32	0x3ea82615	0.32841554
33	0x3e87b8ca	0.2650817
34	0xbbaadcb4	-0.005214298
35	0xbe7a838e	-0.24464247
36	0x3cbc07b8	0.0229529
37	0xbe627b83	-0.22117428
38	0x3e41fc68	0.18943942
39	0x3ef00304	0.468773
40	0xbe67e34a	-0.22645298
41	0xbd7c534a	-0.06160287
42	0x3e80a149	0.2512305
43	0x3ead5a9e	0.33858198
44	0x3efa3d7a	0.48875028
45	0xbe3a00fb	-0.18164437
46	0x3e2627a4	0.16226059
47	0xbeb6bd22	-0.35691172
48	0xbe2d5885	-0.16928299
49	0x3e5f982a	0.2183539
50	0x3ebd6b7f	0.36996076
51	0x3eac0aa5	0.3360187
52	0xbd037ca5	-0.032101292
53	0x3e8b6994	0.27228987
54	0x3dee597a	0.1163816
55	0xbe983fa8	-0.29736066
56	0x3d7de09b	0.06198178
57	0x3ed05d9e	0.40696424
58	0x3e60b10e	0.21942541
59	0xbe8d5a8b	-0.2760814
60	0xbe056c89	-0.13029684
61	0x3f03b3b0	0.51446056
62	0x3e11d9ac	0.14243191
63	0x3d17ad1e	0.03703033
64	0xbe10a925	-0.14127024
65	0x3e29c40b	0.1657869
66	0x3eb5cd75	0.35508314
67	0x3e6919af	0.22763704
68	0x3e572b95	0.21012719
69	0xbe1e135a	-0.1543707
70	0xbef43ec3	-0.47704133
71	0x3e7673c4	0.24067599
72	0xbd83d840	-0.06437731
73	0x3e215134	0.15753633
74	0x3e8c17d2	0.27361923
75	0xbdc74db8	-0.097316206
76	0xbea8354e	-0.32853168
77	0xbd482d89	-0.04887155
78	0xbd9c25e2	-0.07624413
79	0xbe7dee83	-0.24798016
80	0xbddb3bfe	-0.10704802
81	0xbdea78eb	-0.114488445
82	0xbe965a8c	-0.29365957
83	0xbec9c875	-0.3941075
84	0xbe4479dc	-0.1918711
85	0xbe7a1ace	-0.24424288
86	0x3e2c1bfb	0.16807549
87	0xbec72edb	-0.38902935
88	0xbea3465e	-0.31889623
89	0xbe9feb99	-0.31234434
90	0xbdf19ccf	-0.11797487
91	0xbee6f5da	-0.45109445
92	0xbd12c643	-0.03583361
93	0xbe122a54	-0.1427396
94	0x3d97a671	0.07404793
95	0xbec1adaa	-0.37827808
96	0x3eb9085d	0.36139193
97	0x3e914515	0.28373018
98	0x3dfa8877	0.1223306
99	0x3e10e377	0.14149271
100	0xbecc9cf8	-0.39963508
101	0xbe1c3e10	-0.1525805
102	0xbeea5e54	-0.45775092
103	0x3e3c126b	0.18366401
104	0x3eca9741	0.39568523
105	0xbe147cf8	-0.14500797
106	0xbe611dc5	-0.21984012
107	0xbdcf606c	-0.10125813
108	0xbed9ee46	-0.425646
109	0xbe90d6e1	-0.2828894
110	0xbeef99ea	-0.46797115
111	0xbe8115a6	-0.2521183
112	0xbebbaadd	-0.36653796
113	0x3ee450d2	0.4459291
114	0x3eac220d	0.3361973
115	0x3d166a44	0.036722437
116	0x3e619bcd	0.2203209
117	0x3ebffdb4	0.37498248
118	0x3c23c046	0.009994572
119	0x3cc4a914	0.024006404
120	0x3e35c9e8	0.17752802
121	0x3e844e6d	0.25841084
122	0x3e217016	0.15765414
123	0x3d27d20b	0.040971797
124	0xbea113f7	-0.31460544
125	0xbdee9cdc	-0.11651012
126	0x3d8d4362	0.06897618
127	0xbd5403fb	-0.05176161
128	0x3e9e0973	0.30866584
129	0xbe924ef2	-0.28575855
130	0x3e8de5b5	0.27714315
131	0xbc0b6b87	-0.008509523
132	0xbc7d1b37	-0.015448383
133	0xbe93d82d	-0.28875867
134	0x3e1dd952	0.15414932
135	0xbf015464	-0.50519395
136	0x3de8c9f9	0.11366648
137	0x3c9946ad	0.018710459
138	0xbe7d5d5a	-0.24742642
139	0x3ef59a64	0.47969353
140	0xbd387f99	-0.04504356
141	0x3de026a9	0.10944874
142	0x3eb8a66e	0.36064476
143	0x3e0a637a	0.1351451
144	0xbc0f6ae7	-0.008753515
145	0x3ebb0026	0.3652355
146	0xbea4b90d	-0.32172433
147	0x3e0947f6	0.13406357
148	0x3da09c50	0.07842314
149	0xbdb5cce8	-0.088769734
150	0x3de41377	0.11136525
151	0xbcb7ff53	-0.022460615
152	0xbe43ddcf	-0.19127582
153	0xbe87b794	-0.26507246
154	0xbe56d794	-0.20980674
155	0x3ea81b1c	0.32833183
156	0x3f0eb545	0.55745345
157	0x3dcfbb09	0.10143096
158	0x3e70b3a9	0.23506035
159	0x3e87819b	0.2646607
160	0x3ec3f8b6	0.3827569
161	0x3e58a9de	0.21158549
162	0x3ea350b7	0.31897518
163	0xbe769508	-0.24080288
164	0x3dc67eae	0.09692131
165	0xbedf7c76	-0.43649644
166	0xbecb6bd3	-0.397307
167	0x3d8eb36e	0.06967817
168	0xbf36820c	-0.71292186
169	0x3e4660ba	0.19372836
170	0x3ed78dde	0.42100424
171	0xbe954bc9	-0.29159382
172	0xbeb1fd04	-0.34763348
173	0x3e5bac27	0.2145239
174	0x3eb3b211	0.3509679
175	0x3ecafc57	0.39645645
176	0xbe9a470d	-0.30132332
177	0x3c97383f	0.018459437
178	0x3f0e68b9	0.55628544
179	0xbee979a8	-0.4560063
180	0xbedcdd14	-0.4313742
181	0x3e99510b	0.29944643
182	0x3e050484	0.12990004
183	0xbd6795cd	-0.056539346
184	0x3eb69cbe	0.3566646
185	0xbe987746	-0.29778498
186	0x3c833c80	0.01602006
187	0xbea5d80e	-0.323914
188	0xbd22e14c	-0.03976564
189	0x3e7d69fb	0.2474746
190	0xbe86c360	-0.26320934
191	0xbe6166f6	-0.22011933
192	0x3d29ea50	0.041483223
193	0x3ea889fd	0.32917777
194	0xbe51d598	-0.20491636
195	0xbedddfa9	-0.43334702
196	0x3e27151b	0.16316645
197	0x3e82f14e	0.25574726
198	0xbeb51272	-0.35365635
199	0xbe31c0a3	-0.17358641
200	0x3e079c1f	0.13243149
201	0x3e7144c4	0.23561388
202	0xbebd3ac4	-0.36958897
203	0xbe0e5d97	-0.13902889
204	0xbe6d77e3	-0.23190264
205	0x3e7a54d8	0.24446428
206	0x3eebda97	0.46065208
207	0x3e454ad7	0.1926683
208	0xbd552b5d	-0.052043308
209	0x3eb248a1	0.34821036
210	0xbece8c12	-0.4034124
211	0x3d7d7301	0.061877254
212	0xbcdc7c13	-0.026914632
213	0xbe96e755	-0.29473367
214	0xbd3bc1ed	-0.04583924
215	0xbd3a4758	-0.045478195
216	0xbecbf0ed	-0.3983225
217	0x3e3eb409	0.18623365
218	0x3eb4746b	0.3524507
219	0xbec710a1	-0.38879874
220	0x3ccb64ee	0.0248284
221	0x3dfc7e57	0.12328785
222	0xbe2a8e0d	-0.1665575
223	0x3e475d66	0.19469222
224	0xbe7e16a4	-0.24813324
225	0x3f072032	0.527835
226	0xbeebca85	-0.46052948
227	0xbe0a6ebc	-0.13518804
228	0xbeec4cab	-0.46152243
229	0xbf01e3ae	-0.50738037
230	0x3ec8199a	0.39082032
231	0xbd88c16e	-0.06677519
232	0x3e570db1	0.21001317
233	0xbe0b21ae	-0.13587067
234	0x3dc59ddc	0.0964925
235	0xbe60944e	-0.21931574
236	0x3e7394ec	0.23787278
237	0xbf098501	-0.5371857
238	0x3db6d113	0.089265965
239	0x3ea8f222	0.32997233
240	0xbe45e273	-0.19324665
241	0xbe0df4fc	-0.13862985
242	0x3cdcf690	0.026973039
243	0x3e7ca2e2	0.2467151
244	0x3e8b5e78	0.2722051
245	0xbea824f5	-0.32840696
246	0xbe69be5a	-0.2282652
247	0x3ddd6f35	0.10812227
248	0x3eca8ece	0.39562076
249	0xbeb87735	-0.36028448
250	0xbe59d802	-0.21273807
251	0xbeaf1b91	-0.3420072
252	0xbea970b9	-0.33093813
253	0xbd9c0c34	-0.07619515
254	0x3e04461d	0.12917371
255	0xbe87c63f	-0.26518437

decoder_seq.0.bias f4 [39]
0	0xbe4645ca	-0.1936256
1	0x3d9c8ef7	0.07644456
2	0xbd66cbae	-0.056346588
3	0x3c51ae5d	0.012797919
4	0x3e1b6406	0.15174875
5	0x3e8e3ff0	0.27783155
6	0xbd860c43	-0.065453075
7	0xbe7cc56f	-0.2468469
8	0x3de890a3	0.11355712
9	0xbe3bae65	-0.18328245
10	0xbe92c913	-0.28669032
11	0xbdc07051	-0.09396423
12	0xbe533326	-0.2062498
13	0xbe9fa884	-0.31183255
14	0x3db5506d	0.088532306
15	0xbb3f7466	-0.0029213666
16	0x3e05379b	0.13009493
17	0x3dc06ab4	0.09395352
18	0x3d83e0aa	0.06439336
19	0x3e661372	0.22468355
20	0x3e87829d	0.26466838
21	0xbe762ec9	-0.24041285
22	0x3e8d546c	0.2760347
23	0x3def6dc9	0.11690862
24	0x3eb732f1	0.35781053
25	0x3e83d824	0.2575084
26	0xbe549fce	-0.20764086
27	0xbd292b81	-0.041301254
28	0x3d815a7d	0.063160874
29	0xbea7dbee	-0.3278498
30	0xbd1ca811	-0.038246218
31	0xbebc0652	-0.36723572
32	0x3dc50e29	0.096218415
33	0xbc9234d5	-0.017847458
34	0x3e949835	0.29022375
35	0xbe905172	-0.28187138
36	0x3e4d133d	0.2002687
37	0x3e5f0133	0.21777801
38	0xbcfec589	-0.031100051

decoder_seq.2.weight f4 [68, 39]
0	0xbdeab323	-0.11459949
1	0xbe01dd45	-0.12682064
2	0x3dd0b86f	0.10191428
3	0xbe0fd4ad	-0.14045973
4	0x3e228619	0.15871467
5	0xbd5b0cbd	-0.053478945
6	0x3d03374f	0.03203517
7	0x3dac03c1	0.083991535
8	0xbe930239	-0.28712633
9	0xbddfcd8c	-0.10927877
10	0xbd915e28	-0.07098037
11	0x3eb2790a	0.3485797
12	0xbe6ac337	-0.22926031
13	0x3d373423	0.044727456
14	0x3e16d41d	0.14729352
15	0xbe15128e	-0.1455786
16	0xbdaa6c4c	-0.08321437
17	0xbe8f3827	-0.27972528
18	0x3c54f3d6	0.012997588
19	0x3db003c0	0.08594465
20	0xbe1bcd28	-0.1521498
21	0x3e6e1211	0.2324908
22	0xbe29168b	-0.16512506
23	0x3dee4676	0.11634533
24	0x3dce70b3	0.100800894
25	0x3c47f5d8	0.01220461
26	0xbe78dee2	-0.24303773
27	0xbea223c1	-0.31667903
28	0xbdb3ff68	-0.08788949
29	0xbea8e91b	-0.32990345
30	0xbdd3c6a2	-0.103406206
31	0x3dc85718	0.09782237
32	0x3e3b51f0	0.18292975
33	0x3e04652c	0.12929219
34	0x3ea3e58b	0.32011065
35	0x3e3f5a86	0.18686876
36	0x3dae598b	0.08513173
37	0xbc23a2cc	-0.009987544
38	0x3dda4e53	0.106594704
39	0x3c44eaa4	0.012018833
40	0xbdb69a27	-0.08916121
41	0x3e7104de	0.23537013
42	0x3deb2c20	0.114830256
43	0x3e87a8e6	0.26496047
44	0xbdd3af16	-0.10336129
45	0x3e841c6f	0.25802943
46	0xbe522a29	-0.20523895
47	0x3e9cc71d	0.3062066
48	0x3e7ca141	0.24670888
49	0x3dc115dd	0.09427998
50	0x3dcd8d4b	0.10036715
51	0x3edda42f	0.43289325
52	0x3ea91fd6	0.330321
53	0x3e6a6b65	0.2289253
54	0x3d59b9ed	0.05315583
55	0x3eed3356	0.4632823
56	0x3e1885d2	0.14894798
57	0x3e8975bb	0.26847634
58	0xbd2bac11	-0.041912142
59	0x3e4758a3	0.19467406
60	0xbda62224	-0.081119806
61	0x3df7977a	0.12089439
62	0xbe311f82	-0.17297176
63	0xbe640fee	-0.22271702
64	0x3d394455	0.045231182
65	0xbd31a7ef	-0.043373045
66	0xbe55520a	-0.20832077
67	0x3e8aad17	0.27085182
68	0x3e8756d9	0.26433447
69	0x3e41ed35	0.18938144
70	0xbdbaf172	-0.09128083
71	0xbed4d97d	-0.4157218
72	0xbe785661	-0.24251701
73	0xbd508313	-0.050906252
74	0xbe47062d	-0.1943595
75	0xbd5ea8a1	-0.054360036
76	0xbe447a5a	-0.19187298
77	0xbe510bc0	-0.20414639
78	0x3e25f14f	0.16205333
79	0xbd81387d	-0.063096024
80	0xbae38687	-0.0017358818
81	0x3c1c2d63	0.009532305
82	0xbe77cece	-0.24199983
83	0xbe4a66a1	-0.19765712
84	0x3e79842e	0.24366829
85	0xbd57ee20	-0.052717328
86	0xbe41b01f	-0.18914841
87	0x3d3c919b	0.046037298
88	0xbdca54b1	-0.09879435
89	0x3c3832a2	0.011242541
90	0x3e2528ce	0.16128847
91	0x3e3de2a1	0.18543483
92	0x3d7df196	0.061997972
93	0x3d10544a	0.035236634
94	0xbe114324	-0.14185768
95	0xbe0f7e4c	-0.14013022
96	0x3b4fb88a	0.0031695687
97	0x3debb9ec	0.11510071
98	0xbe071e73	-0.13195209
99	0x3e8c7232	0.27430874
100	0xbe663b08	-0.22483456
101	0xbe8447bb	-0.25835976
102	0xbd4324a9	-0.047642384
103	0x3d8329d6	0.06404464
104	0x3d2d6a27	0.042337563
105	0x3cd5102f	0.026008694
106	0x3cce5002	0.025184635
107	0x3dc26c8a	0.094933584
108	0x3d7a65cf	0.06113225
109	0x3e2d274b	0.1690952
110	0xbdd57e12	-0.10424437
111	0x3c8014d6	0.015634935
112	0xbe314841	-0.17312719
113	0xbde265b8	-0.110545576
114	0x3e101c24	0.14073235
115	0xbe620477	-0.22072016
116	0xbcd31669	-0.025767522
117	0xbed14c31	-0.40878442
118	0x3c4f8bd8	0.012667619
119	0x3f01eb62	0.5074979
120	0x3bf8a4ae	0.0075879907
121	0x3e07dd3e	0.13267991
122	0x3df5a2a8	0.11993915
123	0x3dda8ce0	0.10671401
124	0xbe85d151	-0.26136258
125	0xbe7eee95	-0.248957
126	0xbe82e66d	-0.25566426
127	0x3edf4efa	0.43614942
128	0xbdbf7cb7	-0.09349959
129	0x3ca105e8	0.019656137
130	0xbdcbd7f0	-0.09953296
131	0x3e9b7a03	0.30366525
132	0xbd531eab	-0.05154292
133	0x3e71d30e	0.23615667
134	0xbd0bce72	-0.03413243
135	0x3ebc5af9	0.36788157
136	0xbec1ad12	-0.37827355
137	0x3de9585d	0.11393807
138	0xbd8de34f	-0.06928121
139	0xbde31529	-0.1108802
140	0xbe838269	-0.25685433
141	0x3e1d2d84	0.15349394
142	0x3e46e82c	0.19424504
143	0x3ea93fd4	0.3305651
144	0xbea64279	-0.3247259
145	0x3e9581dd	0.2920064
146	0xbe7c6698	-0.24648511
147	0x3e3870e0	0.18011808
148	0xbe851a00	-0.259964
149	0xbe96fad6	-0.29488248
150	0xbe944592	-0.28959328
151	0xbe17881a	-0.14798012
152	0x3e35dbe9	0.1775967
153	0xbea22fe8	-0.31677175
154	0x3df28f79	0.118437715
155	0x3cf4e72a	0.029895384
156	0x3de4845d	0.11158059
157	0xbe5f6628	-0.21816313
158	0x3d992555	0.07477824
159	0xbd11b70b	-0.035574954
160	0xbe80a4a9	-0.25125626
161	0xbe4e368a	-0.20137993
162	0xbd0e9978	-0.034814328
163	0x3e988bcc	0.29794157
164	0xbd72816e	-0.059205465
165	0x3ebec3f9	0.3725889
166	0x3ed8e96d	0.4236559
167	0x3cd1d27b	0.02561306
168	0x3cb47c73	0.022031998
169	0x3e7c2ec9	0.24627222
170	0x3de1ada8	0.110194504
171	0xbccfe64f	-0.025378374
172	0xbddaf191	-0.106906064
173	0x3d6d09ed	0.057870794
174	0xbe794a87	-0.24344836
175	0xbf0b941b	-0.54522866
176	0xbe711e79	-0.2354678
177	0x3dba9068	0.091095746
178	0xbdf62726	-0.12019186
179	0x3daaedc1	0.08346129
180	0xbe779f5c	-0.24181885
181	0xbe8e39c7	-0.27778456
182	0xbe335239	-0.17511834
183	0x3ca76403	0.020433431
184	0xbb812c49	-0.003942047
185	0x3de72ff6	0.11288445
186	0xbbc4d312	-0.006006607
187	0x3ec2a826	0.38018912
188	0x3ece6b51	0.4031625
189	0xbd4b71be	-0.04966902
190	0x3e6fa603	0.23403172
191	0x3ecbe0d2	0.39819962
192	0xbdc08c97	-0.094018154
193	0xbeb5ac5a	-0.35483056
194	0xbdc361fe	-0.09540175
195	0xbe4720fb	-0.19446175
196	0x3e492862	0.19644311
197	0x3df8cbe6	0.121482655
198	0xbcf86999	-0.03032379
199	0xbc0a4115	-0.008438368
200	0xbe1631fc	-0.14667505
201	0xbeae5667	-0.34050295
202	0xbcc25312	-0.023721252
203	0xbe9cca1b	-0.30622944
204	0xbe01261d	-0.12612195
205	0x3f0891a8	0.53347254
206	0xbb977d88	-0.004623119
207	0xbe27aa24	-0.16373497
208	0xbea9a08c	-0.331303
209	0x3d083772	0.033256
210	0x3d7ea9bd	0.062173594
211	0xbedb06b0	-0.4277854
212	0xbe87f704	-0.26555645
213	0xbe93a7d5	-0.28838983
214	0xbdf0885f	-0.11744761
215	0x3d801d8b	0.06255635
216	0xbdde65a6	-0.10859232
217	0xbe7871c9	-0.24262156
218	0x3e16b45a	0.14717236
219	0x3cd85896	0.026409429
220	0x3e0b3ad2	0.13596657
221	0x3e2c47d4	0.16824275
222	0xbe74d5a1	-0.23909618
223	0xbdeb0f30	-0.11477506
224	0xbe73f2aa	-0.23823038
225	0x3e1155f6	0.14192948
226	0xbc226cc1	-0.009913624
227	0x3ec60068	0.38672185
228	0x3db1def4	0.08685103
229	0x3ebf7509	0.37393978
230	0x3c8de4d3	0.017321026
231	0x3e2261be	0.15857598
232	0x3d62427f	0.055239197
233	0x3eadc56a	0.33939677
234	0xbe51639a	-0.20448151
235	0x3ddb5044	0.10708669
236	0xbdb87c74	-0.090081125
237	0x3ca0cc2c	0.019628607
238	0x3d671940	0.056420565
239	0x3dc74176	0.097292826
240	0xbd6d916f	-0.058000024
241	0xbd42b631	-0.047537033
242	0xbc076487	-0.008263714
243	0xbe89fe6d	-0.26951924
244	0xbd7818ae	-0.06057041
245	0xbe926b7c	-0.2859763
246	0xbe0c6067	-0.1370865
247	0xbecc9ac1	-0.39961818
248	0xbde5c2e7	-0.11218815
249	0xbdad351b	-0.08457395
250	0x3db2985d	0.08720467
251	0x3d3f2a05	0.046670932
252	0x3eb4244a	0.35183936
253	0x3e115409	0.14192213
254	0xbd2b16f8	-0.04176995
255	0xbdf4b516	-0.11948602

decoder_seq.2.bias f4 [68]
0	0xbc9493f3	-0.018136954
1	0x3cc7176d	0.024303162
2	0xbe816ccc	-0.25278318
3	0xbacbf2b5	-0.0015560003
4	0xbebdbd30	-0.370584
5	0x3d92bfa7	0.07165461
6	0x3ea9aa2f	0.33137652
7	0xbde14c47	-0.11000877
8	0x3e2d0c5a	0.16899243
9	0xbd34a864	-0.044105902
10	0xbe3b9a7d	-0.18320651
11	0xbe5fd548	-0.21858704
12	0x3e74022e	0.23828956
13	0x3dd55991	0.10417474
14	0xbe0b3a59	-0.13596477
15	0x3e120539	0.14259805
16	0xbe868a04	-0.26277173
17	0xbe3b5ccd	-0.1829712
18	0x3e2d3883	0.16916089
19	0x3d9ab4d9	0.07554025
20	0xbe56d859	-0.20980968
21	0xbe2fa4c2	-0.17152694
22	0xbd1b0034	-0.03784199
23	0xbe77ac3e	-0.24186799
24	0xbd3328a8	-0.043739945
25	0x3b45e60d	0.0030196935
26	0x3da8139f	0.082068674
27	0x3de9799a	0.11400147
28	0xbe2caf63	-0.1686378
29	0x3e654332	0.22388914
30	0x3e21e929	0.158116
31	0xbc8c1e1d	-0.017104203
32	0xbe130e11	-0.14360835
33	0x3dba3d08	0.09093672
34	0xbda0d045	-0.07852224
35	0xbe0450b1	-0.12921406
36	0x3e59f89b	0.21286242
37	0xbe41e666	-0.18935546
38	0x3cef73b3	0.029229974
39	0x3e002c96	0.12517008
40	0xbdcc79be	-0.09984158
41	0xbd9f3bbe	-0.07775067
42	0x3dc2f47b	0.09519287
43	0xbd028318	-0.031863302
44	0xbd953320	-0.07285142
45	0x3db47612	0.088115826
46	0x3df31f4a	0.11871202
47	0x3e00dcd7	0.12584244
48	0xbe32c935	-0.17459567
49	0xbe5c1a69	-0.2149445
50	0x3cff573d	0.031169528
51	0xbd650d0a	-0.05592064
52	0x3d11db65	0.03560962
53	0xbe2615b9	-0.16219224
54	0xbd98ebe3	-0.07466867
55	0x3db22b39	0.0869965
56	0xbe336043	-0.1751719
57	0x3d10b451	0.035328213
58	0xbd9919b9	-0.07475609
59	0xbdc36db1	-0.09542406
60	0xbe769391	-0.2407973
61	0x3eb3a5ca	0.35087425
62	0xbe1e42e8	-0.1545521
63	0x3cca3d79	0.024687516
64	0x3e5cfd2e	0.21580955
65	0x3d92bef8	0.07165331
66	0xbcd41a89	-0.02589156
67	0xbdfd1c03	-0.123588584
